{"format": "graph-model", "generatedBy": "2.3.1", "convertedBy": "TensorFlow.js Converter v2.3.0", "userDefinedMetadata": {"signature": {"inputs": {"input_1:0": {"name": "input_1:0", "dtype": "DT_FLOAT", "tensorShape": {"dim": [{"size": "-1"}, {"size": "480"}, {"size": "640"}, {"size": "3"}]}}}, "outputs": {"Identity:0": {"name": "Identity:0", "dtype": "DT_FLOAT", "tensorShape": {"dim": [{"size": "-1"}, {"size": "240"}, {"size": "320"}, {"size": "1"}]}}}}}, "modelTopology": {"node": [{"name": "unknown_203", "op": "Const", "attr": {"value": {"tensor": {"dtype": "DT_FLOAT", "tensorShape": {"dim": [{"size": "3"}, {"size": "3"}, {"size": "128"}, {"size": "32"}]}}}, "dtype": {"type": "DT_FLOAT"}}}, {"name": "StatefulPartitionedCall/depth_estimate/encoder/functional_1/conv4_block1_concat/concat/axis", "op": "Const", "attr": {"value": {"tensor": {"dtype": "DT_INT32", "tensorShape": {}}}, "dtype": {"type": "DT_INT32"}}}, {"name": "unknown_213", "op": "Const", "attr": {"dtype": {"type": "DT_FLOAT"}, "value": {"tensor": {"dtype": "DT_FLOAT", "tensorShape": {"dim": [{"size": "3"}, {"size": "3"}, {"size": "128"}, {"size": "32"}]}}}}}, {"name": "StatefulPartitionedCall/depth_estimate/encoder/functional_1/conv4_block2_concat/concat/axis", "op": "Const", "attr": {"value": {"tensor": {"dtype": "DT_INT32", "tensorShape": {}}}, "dtype": {"type": "DT_INT32"}}}, {"name": "unknown_223", "op": "Const", "attr": {"dtype": {"type": "DT_FLOAT"}, "value": {"tensor": {"dtype": "DT_FLOAT", "tensorShape": {"dim": [{"size": "3"}, {"size": "3"}, {"size": "128"}, {"size": "32"}]}}}}}, {"name": "StatefulPartitionedCall/depth_estimate/encoder/functional_1/conv4_block3_concat/concat/axis", "op": "Const", "attr": {"dtype": {"type": "DT_INT32"}, "value": {"tensor": {"dtype": "DT_INT32", "tensorShape": {}}}}}, {"name": "unknown_233", "op": "Const", "attr": {"dtype": {"type": "DT_FLOAT"}, "value": {"tensor": {"dtype": "DT_FLOAT", "tensorShape": {"dim": [{"size": "3"}, {"size": "3"}, {"size": "128"}, {"size": "32"}]}}}}}, {"name": "StatefulPartitionedCall/depth_estimate/encoder/functional_1/conv4_block4_concat/concat/axis", "op": "Const", "attr": {"value": {"tensor": {"dtype": "DT_INT32", "tensorShape": {}}}, "dtype": {"type": "DT_INT32"}}}, {"name": "unknown_243", "op": "Const", "attr": {"value": {"tensor": {"dtype": "DT_FLOAT", "tensorShape": {"dim": [{"size": "3"}, {"size": "3"}, {"size": "128"}, {"size": "32"}]}}}, "dtype": {"type": "DT_FLOAT"}}}, {"name": "StatefulPartitionedCall/depth_estimate/encoder/functional_1/conv4_block5_concat/concat/axis", "op": "Const", "attr": {"dtype": {"type": "DT_INT32"}, "value": {"tensor": {"dtype": "DT_INT32", "tensorShape": {}}}}}, {"name": "unknown_253", "op": "Const", "attr": {"value": {"tensor": {"dtype": "DT_FLOAT", "tensorShape": {"dim": [{"size": "3"}, {"size": "3"}, {"size": "128"}, {"size": "32"}]}}}, "dtype": {"type": "DT_FLOAT"}}}, {"name": "StatefulPartitionedCall/depth_estimate/encoder/functional_1/conv4_block6_concat/concat/axis", "op": "Const", "attr": {"value": {"tensor": {"dtype": "DT_INT32", "tensorShape": {}}}, "dtype": {"type": "DT_INT32"}}}, {"name": "unknown_263", "op": "Const", "attr": {"dtype": {"type": "DT_FLOAT"}, "value": {"tensor": {"dtype": "DT_FLOAT", "tensorShape": {"dim": [{"size": "3"}, {"size": "3"}, {"size": "128"}, {"size": "32"}]}}}}}, {"name": "StatefulPartitionedCall/depth_estimate/encoder/functional_1/conv4_block7_concat/concat/axis", "op": "Const", "attr": {"value": {"tensor": {"dtype": "DT_INT32", "tensorShape": {}}}, "dtype": {"type": "DT_INT32"}}}, {"name": "unknown_273", "op": "Const", "attr": {"value": {"tensor": {"dtype": "DT_FLOAT", "tensorShape": {"dim": [{"size": "3"}, {"size": "3"}, {"size": "128"}, {"size": "32"}]}}}, "dtype": {"type": "DT_FLOAT"}}}, {"name": "StatefulPartitionedCall/depth_estimate/encoder/functional_1/conv4_block8_concat/concat/axis", "op": "Const", "attr": {"value": {"tensor": {"dtype": "DT_INT32", "tensorShape": {}}}, "dtype": {"type": "DT_INT32"}}}, {"name": "unknown_283", "op": "Const", "attr": {"dtype": {"type": "DT_FLOAT"}, "value": {"tensor": {"dtype": "DT_FLOAT", "tensorShape": {"dim": [{"size": "3"}, {"size": "3"}, {"size": "128"}, {"size": "32"}]}}}}}, {"name": "StatefulPartitionedCall/depth_estimate/encoder/functional_1/conv4_block9_concat/concat/axis", "op": "Const", "attr": {"dtype": {"type": "DT_INT32"}, "value": {"tensor": {"dtype": "DT_INT32", "tensorShape": {}}}}}, {"name": "unknown_293", "op": "Const", "attr": {"value": {"tensor": {"dtype": "DT_FLOAT", "tensorShape": {"dim": [{"size": "3"}, {"size": "3"}, {"size": "128"}, {"size": "32"}]}}}, "dtype": {"type": "DT_FLOAT"}}}, {"name": "StatefulPartitionedCall/depth_estimate/encoder/functional_1/conv4_block10_concat/concat/axis", "op": "Const", "attr": {"value": {"tensor": {"dtype": "DT_INT32", "tensorShape": {}}}, "dtype": {"type": "DT_INT32"}}}, {"name": "unknown_303", "op": "Const", "attr": {"value": {"tensor": {"dtype": "DT_FLOAT", "tensorShape": {"dim": [{"size": "3"}, {"size": "3"}, {"size": "128"}, {"size": "32"}]}}}, "dtype": {"type": "DT_FLOAT"}}}, {"name": "StatefulPartitionedCall/depth_estimate/encoder/functional_1/conv4_block11_concat/concat/axis", "op": "Const", "attr": {"value": {"tensor": {"dtype": "DT_INT32", "tensorShape": {}}}, "dtype": {"type": "DT_INT32"}}}, {"name": "unknown_313", "op": "Const", "attr": {"value": {"tensor": {"dtype": "DT_FLOAT", "tensorShape": {"dim": [{"size": "3"}, {"size": "3"}, {"size": "128"}, {"size": "32"}]}}}, "dtype": {"type": "DT_FLOAT"}}}, {"name": "StatefulPartitionedCall/depth_estimate/encoder/functional_1/conv4_block12_concat/concat/axis", "op": "Const", "attr": {"value": {"tensor": {"dtype": "DT_INT32", "tensorShape": {}}}, "dtype": {"type": "DT_INT32"}}}, {"name": "unknown_323", "op": "Const", "attr": {"value": {"tensor": {"dtype": "DT_FLOAT", "tensorShape": {"dim": [{"size": "3"}, {"size": "3"}, {"size": "128"}, {"size": "32"}]}}}, "dtype": {"type": "DT_FLOAT"}}}, {"name": "StatefulPartitionedCall/depth_estimate/encoder/functional_1/conv4_block13_concat/concat/axis", "op": "Const", "attr": {"value": {"tensor": {"dtype": "DT_INT32", "tensorShape": {}}}, "dtype": {"type": "DT_INT32"}}}, {"name": "unknown_333", "op": "Const", "attr": {"value": {"tensor": {"dtype": "DT_FLOAT", "tensorShape": {"dim": [{"size": "3"}, {"size": "3"}, {"size": "128"}, {"size": "32"}]}}}, "dtype": {"type": "DT_FLOAT"}}}, {"name": "StatefulPartitionedCall/depth_estimate/encoder/functional_1/conv4_block14_concat/concat/axis", "op": "Const", "attr": {"dtype": {"type": "DT_INT32"}, "value": {"tensor": {"dtype": "DT_INT32", "tensorShape": {}}}}}, {"name": "unknown_343", "op": "Const", "attr": {"dtype": {"type": "DT_FLOAT"}, "value": {"tensor": {"dtype": "DT_FLOAT", "tensorShape": {"dim": [{"size": "3"}, {"size": "3"}, {"size": "128"}, {"size": "32"}]}}}}}, {"name": "StatefulPartitionedCall/depth_estimate/encoder/functional_1/conv4_block15_concat/concat/axis", "op": "Const", "attr": {"dtype": {"type": "DT_INT32"}, "value": {"tensor": {"dtype": "DT_INT32", "tensorShape": {}}}}}, {"name": "unknown_353", "op": "Const", "attr": {"dtype": {"type": "DT_FLOAT"}, "value": {"tensor": {"dtype": "DT_FLOAT", "tensorShape": {"dim": [{"size": "3"}, {"size": "3"}, {"size": "128"}, {"size": "32"}]}}}}}, {"name": "StatefulPartitionedCall/depth_estimate/encoder/functional_1/conv4_block16_concat/concat/axis", "op": "Const", "attr": {"value": {"tensor": {"dtype": "DT_INT32", "tensorShape": {}}}, "dtype": {"type": "DT_INT32"}}}, {"name": "unknown_363", "op": "Const", "attr": {"value": {"tensor": {"dtype": "DT_FLOAT", "tensorShape": {"dim": [{"size": "3"}, {"size": "3"}, {"size": "128"}, {"size": "32"}]}}}, "dtype": {"type": "DT_FLOAT"}}}, {"name": "StatefulPartitionedCall/depth_estimate/encoder/functional_1/conv4_block17_concat/concat/axis", "op": "Const", "attr": {"value": {"tensor": {"dtype": "DT_INT32", "tensorShape": {}}}, "dtype": {"type": "DT_INT32"}}}, {"name": "unknown_373", "op": "Const", "attr": {"dtype": {"type": "DT_FLOAT"}, "value": {"tensor": {"dtype": "DT_FLOAT", "tensorShape": {"dim": [{"size": "3"}, {"size": "3"}, {"size": "128"}, {"size": "32"}]}}}}}, {"name": "StatefulPartitionedCall/depth_estimate/encoder/functional_1/conv4_block18_concat/concat/axis", "op": "Const", "attr": {"value": {"tensor": {"dtype": "DT_INT32", "tensorShape": {}}}, "dtype": {"type": "DT_INT32"}}}, {"name": "unknown_383", "op": "Const", "attr": {"value": {"tensor": {"dtype": "DT_FLOAT", "tensorShape": {"dim": [{"size": "3"}, {"size": "3"}, {"size": "128"}, {"size": "32"}]}}}, "dtype": {"type": "DT_FLOAT"}}}, {"name": "StatefulPartitionedCall/depth_estimate/encoder/functional_1/conv4_block19_concat/concat/axis", "op": "Const", "attr": {"value": {"tensor": {"dtype": "DT_INT32", "tensorShape": {}}}, "dtype": {"type": "DT_INT32"}}}, {"name": "unknown_393", "op": "Const", "attr": {"value": {"tensor": {"dtype": "DT_FLOAT", "tensorShape": {"dim": [{"size": "3"}, {"size": "3"}, {"size": "128"}, {"size": "32"}]}}}, "dtype": {"type": "DT_FLOAT"}}}, {"name": "StatefulPartitionedCall/depth_estimate/encoder/functional_1/conv4_block20_concat/concat/axis", "op": "Const", "attr": {"value": {"tensor": {"dtype": "DT_INT32", "tensorShape": {}}}, "dtype": {"type": "DT_INT32"}}}, {"name": "unknown_403", "op": "Const", "attr": {"value": {"tensor": {"dtype": "DT_FLOAT", "tensorShape": {"dim": [{"size": "3"}, {"size": "3"}, {"size": "128"}, {"size": "32"}]}}}, "dtype": {"type": "DT_FLOAT"}}}, {"name": "StatefulPartitionedCall/depth_estimate/encoder/functional_1/conv4_block21_concat/concat/axis", "op": "Const", "attr": {"value": {"tensor": {"dtype": "DT_INT32", "tensorShape": {}}}, "dtype": {"type": "DT_INT32"}}}, {"name": "unknown_413", "op": "Const", "attr": {"value": {"tensor": {"dtype": "DT_FLOAT", "tensorShape": {"dim": [{"size": "3"}, {"size": "3"}, {"size": "128"}, {"size": "32"}]}}}, "dtype": {"type": "DT_FLOAT"}}}, {"name": "StatefulPartitionedCall/depth_estimate/encoder/functional_1/conv4_block22_concat/concat/axis", "op": "Const", "attr": {"value": {"tensor": {"dtype": "DT_INT32", "tensorShape": {}}}, "dtype": {"type": "DT_INT32"}}}, {"name": "unknown_423", "op": "Const", "attr": {"dtype": {"type": "DT_FLOAT"}, "value": {"tensor": {"dtype": "DT_FLOAT", "tensorShape": {"dim": [{"size": "3"}, {"size": "3"}, {"size": "128"}, {"size": "32"}]}}}}}, {"name": "StatefulPartitionedCall/depth_estimate/encoder/functional_1/conv4_block23_concat/concat/axis", "op": "Const", "attr": {"value": {"tensor": {"dtype": "DT_INT32", "tensorShape": {}}}, "dtype": {"type": "DT_INT32"}}}, {"name": "unknown_433", "op": "Const", "attr": {"dtype": {"type": "DT_FLOAT"}, "value": {"tensor": {"dtype": "DT_FLOAT", "tensorShape": {"dim": [{"size": "3"}, {"size": "3"}, {"size": "128"}, {"size": "32"}]}}}}}, {"name": "StatefulPartitionedCall/depth_estimate/encoder/functional_1/conv4_block24_concat/concat/axis", "op": "Const", "attr": {"value": {"tensor": {"dtype": "DT_INT32", "tensorShape": {}}}, "dtype": {"type": "DT_INT32"}}}, {"name": "unknown_443", "op": "Const", "attr": {"value": {"tensor": {"dtype": "DT_FLOAT", "tensorShape": {"dim": [{"size": "3"}, {"size": "3"}, {"size": "128"}, {"size": "32"}]}}}, "dtype": {"type": "DT_FLOAT"}}}, {"name": "StatefulPartitionedCall/depth_estimate/encoder/functional_1/conv4_block25_concat/concat/axis", "op": "Const", "attr": {"value": {"tensor": {"dtype": "DT_INT32", "tensorShape": {}}}, "dtype": {"type": "DT_INT32"}}}, {"name": "unknown_453", "op": "Const", "attr": {"value": {"tensor": {"dtype": "DT_FLOAT", "tensorShape": {"dim": [{"size": "3"}, {"size": "3"}, {"size": "128"}, {"size": "32"}]}}}, "dtype": {"type": "DT_FLOAT"}}}, {"name": "StatefulPartitionedCall/depth_estimate/encoder/functional_1/conv4_block26_concat/concat/axis", "op": "Const", "attr": {"value": {"tensor": {"dtype": "DT_INT32", "tensorShape": {}}}, "dtype": {"type": "DT_INT32"}}}, {"name": "unknown_463", "op": "Const", "attr": {"value": {"tensor": {"dtype": "DT_FLOAT", "tensorShape": {"dim": [{"size": "3"}, {"size": "3"}, {"size": "128"}, {"size": "32"}]}}}, "dtype": {"type": "DT_FLOAT"}}}, {"name": "StatefulPartitionedCall/depth_estimate/encoder/functional_1/conv4_block27_concat/concat/axis", "op": "Const", "attr": {"value": {"tensor": {"dtype": "DT_INT32", "tensorShape": {}}}, "dtype": {"type": "DT_INT32"}}}, {"name": "unknown_473", "op": "Const", "attr": {"dtype": {"type": "DT_FLOAT"}, "value": {"tensor": {"dtype": "DT_FLOAT", "tensorShape": {"dim": [{"size": "3"}, {"size": "3"}, {"size": "128"}, {"size": "32"}]}}}}}, {"name": "StatefulPartitionedCall/depth_estimate/encoder/functional_1/conv4_block28_concat/concat/axis", "op": "Const", "attr": {"value": {"tensor": {"dtype": "DT_INT32", "tensorShape": {}}}, "dtype": {"type": "DT_INT32"}}}, {"name": "unknown_483", "op": "Const", "attr": {"value": {"tensor": {"dtype": "DT_FLOAT", "tensorShape": {"dim": [{"size": "3"}, {"size": "3"}, {"size": "128"}, {"size": "32"}]}}}, "dtype": {"type": "DT_FLOAT"}}}, {"name": "StatefulPartitionedCall/depth_estimate/encoder/functional_1/conv4_block29_concat/concat/axis", "op": "Const", "attr": {"value": {"tensor": {"dtype": "DT_INT32", "tensorShape": {}}}, "dtype": {"type": "DT_INT32"}}}, {"name": "unknown_493", "op": "Const", "attr": {"dtype": {"type": "DT_FLOAT"}, "value": {"tensor": {"dtype": "DT_FLOAT", "tensorShape": {"dim": [{"size": "3"}, {"size": "3"}, {"size": "128"}, {"size": "32"}]}}}}}, {"name": "StatefulPartitionedCall/depth_estimate/encoder/functional_1/conv4_block30_concat/concat/axis", "op": "Const", "attr": {"value": {"tensor": {"dtype": "DT_INT32", "tensorShape": {}}}, "dtype": {"type": "DT_INT32"}}}, {"name": "unknown_503", "op": "Const", "attr": {"dtype": {"type": "DT_FLOAT"}, "value": {"tensor": {"dtype": "DT_FLOAT", "tensorShape": {"dim": [{"size": "3"}, {"size": "3"}, {"size": "128"}, {"size": "32"}]}}}}}, {"name": "StatefulPartitionedCall/depth_estimate/encoder/functional_1/conv4_block31_concat/concat/axis", "op": "Const", "attr": {"dtype": {"type": "DT_INT32"}, "value": {"tensor": {"dtype": "DT_INT32", "tensorShape": {}}}}}, {"name": "unknown_513", "op": "Const", "attr": {"dtype": {"type": "DT_FLOAT"}, "value": {"tensor": {"dtype": "DT_FLOAT", "tensorShape": {"dim": [{"size": "3"}, {"size": "3"}, {"size": "128"}, {"size": "32"}]}}}}}, {"name": "StatefulPartitionedCall/depth_estimate/encoder/functional_1/conv4_block32_concat/concat/axis", "op": "Const", "attr": {"value": {"tensor": {"dtype": "DT_INT32", "tensorShape": {}}}, "dtype": {"type": "DT_INT32"}}}, {"name": "unknown_518", "op": "Const", "attr": {"value": {"tensor": {"dtype": "DT_FLOAT", "tensorShape": {"dim": [{"size": "1"}, {"size": "1"}, {"size": "1280"}, {"size": "640"}]}}}, "dtype": {"type": "DT_FLOAT"}}}, {"name": "unknown_528", "op": "Const", "attr": {"value": {"tensor": {"dtype": "DT_FLOAT", "tensorShape": {"dim": [{"size": "3"}, {"size": "3"}, {"size": "128"}, {"size": "32"}]}}}, "dtype": {"type": "DT_FLOAT"}}}, {"name": "StatefulPartitionedCall/depth_estimate/encoder/functional_1/conv5_block1_concat/concat/axis", "op": "Const", "attr": {"value": {"tensor": {"dtype": "DT_INT32", "tensorShape": {}}}, "dtype": {"type": "DT_INT32"}}}, {"name": "unknown_538", "op": "Const", "attr": {"value": {"tensor": {"dtype": "DT_FLOAT", "tensorShape": {"dim": [{"size": "3"}, {"size": "3"}, {"size": "128"}, {"size": "32"}]}}}, "dtype": {"type": "DT_FLOAT"}}}, {"name": "StatefulPartitionedCall/depth_estimate/encoder/functional_1/conv5_block2_concat/concat/axis", "op": "Const", "attr": {"value": {"tensor": {"dtype": "DT_INT32", "tensorShape": {}}}, "dtype": {"type": "DT_INT32"}}}, {"name": "unknown_548", "op": "Const", "attr": {"dtype": {"type": "DT_FLOAT"}, "value": {"tensor": {"dtype": "DT_FLOAT", "tensorShape": {"dim": [{"size": "3"}, {"size": "3"}, {"size": "128"}, {"size": "32"}]}}}}}, {"name": "StatefulPartitionedCall/depth_estimate/encoder/functional_1/conv5_block3_concat/concat/axis", "op": "Const", "attr": {"value": {"tensor": {"dtype": "DT_INT32", "tensorShape": {}}}, "dtype": {"type": "DT_INT32"}}}, {"name": "unknown_558", "op": "Const", "attr": {"value": {"tensor": {"dtype": "DT_FLOAT", "tensorShape": {"dim": [{"size": "3"}, {"size": "3"}, {"size": "128"}, {"size": "32"}]}}}, "dtype": {"type": "DT_FLOAT"}}}, {"name": "StatefulPartitionedCall/depth_estimate/encoder/functional_1/conv5_block4_concat/concat/axis", "op": "Const", "attr": {"value": {"tensor": {"dtype": "DT_INT32", "tensorShape": {}}}, "dtype": {"type": "DT_INT32"}}}, {"name": "unknown_568", "op": "Const", "attr": {"value": {"tensor": {"dtype": "DT_FLOAT", "tensorShape": {"dim": [{"size": "3"}, {"size": "3"}, {"size": "128"}, {"size": "32"}]}}}, "dtype": {"type": "DT_FLOAT"}}}, {"name": "StatefulPartitionedCall/depth_estimate/encoder/functional_1/conv5_block5_concat/concat/axis", "op": "Const", "attr": {"value": {"tensor": {"dtype": "DT_INT32", "tensorShape": {}}}, "dtype": {"type": "DT_INT32"}}}, {"name": "unknown_578", "op": "Const", "attr": {"value": {"tensor": {"dtype": "DT_FLOAT", "tensorShape": {"dim": [{"size": "3"}, {"size": "3"}, {"size": "128"}, {"size": "32"}]}}}, "dtype": {"type": "DT_FLOAT"}}}, {"name": "StatefulPartitionedCall/depth_estimate/encoder/functional_1/conv5_block6_concat/concat/axis", "op": "Const", "attr": {"value": {"tensor": {"dtype": "DT_INT32", "tensorShape": {}}}, "dtype": {"type": "DT_INT32"}}}, {"name": "unknown_588", "op": "Const", "attr": {"value": {"tensor": {"dtype": "DT_FLOAT", "tensorShape": {"dim": [{"size": "3"}, {"size": "3"}, {"size": "128"}, {"size": "32"}]}}}, "dtype": {"type": "DT_FLOAT"}}}, {"name": "StatefulPartitionedCall/depth_estimate/encoder/functional_1/conv5_block7_concat/concat/axis", "op": "Const", "attr": {"value": {"tensor": {"dtype": "DT_INT32", "tensorShape": {}}}, "dtype": {"type": "DT_INT32"}}}, {"name": "unknown_598", "op": "Const", "attr": {"value": {"tensor": {"dtype": "DT_FLOAT", "tensorShape": {"dim": [{"size": "3"}, {"size": "3"}, {"size": "128"}, {"size": "32"}]}}}, "dtype": {"type": "DT_FLOAT"}}}, {"name": "StatefulPartitionedCall/depth_estimate/encoder/functional_1/conv5_block8_concat/concat/axis", "op": "Const", "attr": {"value": {"tensor": {"dtype": "DT_INT32", "tensorShape": {}}}, "dtype": {"type": "DT_INT32"}}}, {"name": "unknown_608", "op": "Const", "attr": {"value": {"tensor": {"dtype": "DT_FLOAT", "tensorShape": {"dim": [{"size": "3"}, {"size": "3"}, {"size": "128"}, {"size": "32"}]}}}, "dtype": {"type": "DT_FLOAT"}}}, {"name": "StatefulPartitionedCall/depth_estimate/encoder/functional_1/conv5_block9_concat/concat/axis", "op": "Const", "attr": {"value": {"tensor": {"dtype": "DT_INT32", "tensorShape": {}}}, "dtype": {"type": "DT_INT32"}}}, {"name": "unknown_618", "op": "Const", "attr": {"value": {"tensor": {"dtype": "DT_FLOAT", "tensorShape": {"dim": [{"size": "3"}, {"size": "3"}, {"size": "128"}, {"size": "32"}]}}}, "dtype": {"type": "DT_FLOAT"}}}, {"name": "StatefulPartitionedCall/depth_estimate/encoder/functional_1/conv5_block10_concat/concat/axis", "op": "Const", "attr": {"value": {"tensor": {"dtype": "DT_INT32", "tensorShape": {}}}, "dtype": {"type": "DT_INT32"}}}, {"name": "unknown_628", "op": "Const", "attr": {"value": {"tensor": {"dtype": "DT_FLOAT", "tensorShape": {"dim": [{"size": "3"}, {"size": "3"}, {"size": "128"}, {"size": "32"}]}}}, "dtype": {"type": "DT_FLOAT"}}}, {"name": "StatefulPartitionedCall/depth_estimate/encoder/functional_1/conv5_block11_concat/concat/axis", "op": "Const", "attr": {"dtype": {"type": "DT_INT32"}, "value": {"tensor": {"dtype": "DT_INT32", "tensorShape": {}}}}}, {"name": "unknown_638", "op": "Const", "attr": {"value": {"tensor": {"dtype": "DT_FLOAT", "tensorShape": {"dim": [{"size": "3"}, {"size": "3"}, {"size": "128"}, {"size": "32"}]}}}, "dtype": {"type": "DT_FLOAT"}}}, {"name": "StatefulPartitionedCall/depth_estimate/encoder/functional_1/conv5_block12_concat/concat/axis", "op": "Const", "attr": {"value": {"tensor": {"dtype": "DT_INT32", "tensorShape": {}}}, "dtype": {"type": "DT_INT32"}}}, {"name": "unknown_648", "op": "Const", "attr": {"value": {"tensor": {"dtype": "DT_FLOAT", "tensorShape": {"dim": [{"size": "3"}, {"size": "3"}, {"size": "128"}, {"size": "32"}]}}}, "dtype": {"type": "DT_FLOAT"}}}, {"name": "StatefulPartitionedCall/depth_estimate/encoder/functional_1/conv5_block13_concat/concat/axis", "op": "Const", "attr": {"value": {"tensor": {"dtype": "DT_INT32", "tensorShape": {}}}, "dtype": {"type": "DT_INT32"}}}, {"name": "unknown_658", "op": "Const", "attr": {"value": {"tensor": {"dtype": "DT_FLOAT", "tensorShape": {"dim": [{"size": "3"}, {"size": "3"}, {"size": "128"}, {"size": "32"}]}}}, "dtype": {"type": "DT_FLOAT"}}}, {"name": "StatefulPartitionedCall/depth_estimate/encoder/functional_1/conv5_block14_concat/concat/axis", "op": "Const", "attr": {"dtype": {"type": "DT_INT32"}, "value": {"tensor": {"dtype": "DT_INT32", "tensorShape": {}}}}}, {"name": "unknown_668", "op": "Const", "attr": {"value": {"tensor": {"dtype": "DT_FLOAT", "tensorShape": {"dim": [{"size": "3"}, {"size": "3"}, {"size": "128"}, {"size": "32"}]}}}, "dtype": {"type": "DT_FLOAT"}}}, {"name": "StatefulPartitionedCall/depth_estimate/encoder/functional_1/conv5_block15_concat/concat/axis", "op": "Const", "attr": {"value": {"tensor": {"dtype": "DT_INT32", "tensorShape": {}}}, "dtype": {"type": "DT_INT32"}}}, {"name": "unknown_678", "op": "Const", "attr": {"value": {"tensor": {"dtype": "DT_FLOAT", "tensorShape": {"dim": [{"size": "3"}, {"size": "3"}, {"size": "128"}, {"size": "32"}]}}}, "dtype": {"type": "DT_FLOAT"}}}, {"name": "StatefulPartitionedCall/depth_estimate/encoder/functional_1/conv5_block16_concat/concat/axis", "op": "Const", "attr": {"value": {"tensor": {"dtype": "DT_INT32", "tensorShape": {}}}, "dtype": {"type": "DT_INT32"}}}, {"name": "unknown_688", "op": "Const", "attr": {"value": {"tensor": {"dtype": "DT_FLOAT", "tensorShape": {"dim": [{"size": "3"}, {"size": "3"}, {"size": "128"}, {"size": "32"}]}}}, "dtype": {"type": "DT_FLOAT"}}}, {"name": "StatefulPartitionedCall/depth_estimate/encoder/functional_1/conv5_block17_concat/concat/axis", "op": "Const", "attr": {"value": {"tensor": {"dtype": "DT_INT32", "tensorShape": {}}}, "dtype": {"type": "DT_INT32"}}}, {"name": "unknown_698", "op": "Const", "attr": {"dtype": {"type": "DT_FLOAT"}, "value": {"tensor": {"dtype": "DT_FLOAT", "tensorShape": {"dim": [{"size": "3"}, {"size": "3"}, {"size": "128"}, {"size": "32"}]}}}}}, {"name": "StatefulPartitionedCall/depth_estimate/encoder/functional_1/conv5_block18_concat/concat/axis", "op": "Const", "attr": {"value": {"tensor": {"dtype": "DT_INT32", "tensorShape": {}}}, "dtype": {"type": "DT_INT32"}}}, {"name": "unknown_708", "op": "Const", "attr": {"value": {"tensor": {"dtype": "DT_FLOAT", "tensorShape": {"dim": [{"size": "3"}, {"size": "3"}, {"size": "128"}, {"size": "32"}]}}}, "dtype": {"type": "DT_FLOAT"}}}, {"name": "StatefulPartitionedCall/depth_estimate/encoder/functional_1/conv5_block19_concat/concat/axis", "op": "Const", "attr": {"value": {"tensor": {"dtype": "DT_INT32", "tensorShape": {}}}, "dtype": {"type": "DT_INT32"}}}, {"name": "unknown_718", "op": "Const", "attr": {"value": {"tensor": {"dtype": "DT_FLOAT", "tensorShape": {"dim": [{"size": "3"}, {"size": "3"}, {"size": "128"}, {"size": "32"}]}}}, "dtype": {"type": "DT_FLOAT"}}}, {"name": "StatefulPartitionedCall/depth_estimate/encoder/functional_1/conv5_block20_concat/concat/axis", "op": "Const", "attr": {"value": {"tensor": {"dtype": "DT_INT32", "tensorShape": {}}}, "dtype": {"type": "DT_INT32"}}}, {"name": "unknown_728", "op": "Const", "attr": {"value": {"tensor": {"dtype": "DT_FLOAT", "tensorShape": {"dim": [{"size": "3"}, {"size": "3"}, {"size": "128"}, {"size": "32"}]}}}, "dtype": {"type": "DT_FLOAT"}}}, {"name": "StatefulPartitionedCall/depth_estimate/encoder/functional_1/conv5_block21_concat/concat/axis", "op": "Const", "attr": {"value": {"tensor": {"dtype": "DT_INT32", "tensorShape": {}}}, "dtype": {"type": "DT_INT32"}}}, {"name": "unknown_738", "op": "Const", "attr": {"value": {"tensor": {"dtype": "DT_FLOAT", "tensorShape": {"dim": [{"size": "3"}, {"size": "3"}, {"size": "128"}, {"size": "32"}]}}}, "dtype": {"type": "DT_FLOAT"}}}, {"name": "StatefulPartitionedCall/depth_estimate/encoder/functional_1/conv5_block22_concat/concat/axis", "op": "Const", "attr": {"value": {"tensor": {"dtype": "DT_INT32", "tensorShape": {}}}, "dtype": {"type": "DT_INT32"}}}, {"name": "unknown_748", "op": "Const", "attr": {"value": {"tensor": {"dtype": "DT_FLOAT", "tensorShape": {"dim": [{"size": "3"}, {"size": "3"}, {"size": "128"}, {"size": "32"}]}}}, "dtype": {"type": "DT_FLOAT"}}}, {"name": "StatefulPartitionedCall/depth_estimate/encoder/functional_1/conv5_block23_concat/concat/axis", "op": "Const", "attr": {"dtype": {"type": "DT_INT32"}, "value": {"tensor": {"dtype": "DT_INT32", "tensorShape": {}}}}}, {"name": "unknown_758", "op": "Const", "attr": {"value": {"tensor": {"dtype": "DT_FLOAT", "tensorShape": {"dim": [{"size": "3"}, {"size": "3"}, {"size": "128"}, {"size": "32"}]}}}, "dtype": {"type": "DT_FLOAT"}}}, {"name": "StatefulPartitionedCall/depth_estimate/encoder/functional_1/conv5_block24_concat/concat/axis", "op": "Const", "attr": {"value": {"tensor": {"dtype": "DT_INT32", "tensorShape": {}}}, "dtype": {"type": "DT_INT32"}}}, {"name": "unknown_768", "op": "Const", "attr": {"value": {"tensor": {"dtype": "DT_FLOAT", "tensorShape": {"dim": [{"size": "3"}, {"size": "3"}, {"size": "128"}, {"size": "32"}]}}}, "dtype": {"type": "DT_FLOAT"}}}, {"name": "StatefulPartitionedCall/depth_estimate/encoder/functional_1/conv5_block25_concat/concat/axis", "op": "Const", "attr": {"value": {"tensor": {"dtype": "DT_INT32", "tensorShape": {}}}, "dtype": {"type": "DT_INT32"}}}, {"name": "unknown_778", "op": "Const", "attr": {"value": {"tensor": {"dtype": "DT_FLOAT", "tensorShape": {"dim": [{"size": "3"}, {"size": "3"}, {"size": "128"}, {"size": "32"}]}}}, "dtype": {"type": "DT_FLOAT"}}}, {"name": "StatefulPartitionedCall/depth_estimate/encoder/functional_1/conv5_block26_concat/concat/axis", "op": "Const", "attr": {"value": {"tensor": {"dtype": "DT_INT32", "tensorShape": {}}}, "dtype": {"type": "DT_INT32"}}}, {"name": "unknown_788", "op": "Const", "attr": {"value": {"tensor": {"dtype": "DT_FLOAT", "tensorShape": {"dim": [{"size": "3"}, {"size": "3"}, {"size": "128"}, {"size": "32"}]}}}, "dtype": {"type": "DT_FLOAT"}}}, {"name": "StatefulPartitionedCall/depth_estimate/encoder/functional_1/conv5_block27_concat/concat/axis", "op": "Const", "attr": {"value": {"tensor": {"dtype": "DT_INT32", "tensorShape": {}}}, "dtype": {"type": "DT_INT32"}}}, {"name": "unknown_798", "op": "Const", "attr": {"value": {"tensor": {"dtype": "DT_FLOAT", "tensorShape": {"dim": [{"size": "3"}, {"size": "3"}, {"size": "128"}, {"size": "32"}]}}}, "dtype": {"type": "DT_FLOAT"}}}, {"name": "StatefulPartitionedCall/depth_estimate/encoder/functional_1/conv5_block28_concat/concat/axis", "op": "Const", "attr": {"value": {"tensor": {"dtype": "DT_INT32", "tensorShape": {}}}, "dtype": {"type": "DT_INT32"}}}, {"name": "unknown_808", "op": "Const", "attr": {"value": {"tensor": {"dtype": "DT_FLOAT", "tensorShape": {"dim": [{"size": "3"}, {"size": "3"}, {"size": "128"}, {"size": "32"}]}}}, "dtype": {"type": "DT_FLOAT"}}}, {"name": "StatefulPartitionedCall/depth_estimate/encoder/functional_1/conv5_block29_concat/concat/axis", "op": "Const", "attr": {"dtype": {"type": "DT_INT32"}, "value": {"tensor": {"dtype": "DT_INT32", "tensorShape": {}}}}}, {"name": "unknown_818", "op": "Const", "attr": {"value": {"tensor": {"dtype": "DT_FLOAT", "tensorShape": {"dim": [{"size": "3"}, {"size": "3"}, {"size": "128"}, {"size": "32"}]}}}, "dtype": {"type": "DT_FLOAT"}}}, {"name": "StatefulPartitionedCall/depth_estimate/encoder/functional_1/conv5_block30_concat/concat/axis", "op": "Const", "attr": {"value": {"tensor": {"dtype": "DT_INT32", "tensorShape": {}}}, "dtype": {"type": "DT_INT32"}}}, {"name": "unknown_828", "op": "Const", "attr": {"value": {"tensor": {"dtype": "DT_FLOAT", "tensorShape": {"dim": [{"size": "3"}, {"size": "3"}, {"size": "128"}, {"size": "32"}]}}}, "dtype": {"type": "DT_FLOAT"}}}, {"name": "StatefulPartitionedCall/depth_estimate/encoder/functional_1/conv5_block31_concat/concat/axis", "op": "Const", "attr": {"value": {"tensor": {"dtype": "DT_INT32", "tensorShape": {}}}, "dtype": {"type": "DT_INT32"}}}, {"name": "unknown_838", "op": "Const", "attr": {"value": {"tensor": {"dtype": "DT_FLOAT", "tensorShape": {"dim": [{"size": "3"}, {"size": "3"}, {"size": "128"}, {"size": "32"}]}}}, "dtype": {"type": "DT_FLOAT"}}}, {"name": "StatefulPartitionedCall/depth_estimate/encoder/functional_1/conv5_block32_concat/concat/axis", "op": "Const", "attr": {"value": {"tensor": {"dtype": "DT_INT32", "tensorShape": {}}}, "dtype": {"type": "DT_INT32"}}}, {"name": "unknown_843", "op": "Const", "attr": {"dtype": {"type": "DT_FLOAT"}, "value": {"tensor": {"dtype": "DT_FLOAT", "tensorShape": {"dim": [{"size": "1"}, {"size": "1"}, {"size": "1664"}, {"size": "832"}]}}}}}, {"name": "unknown_844", "op": "Const", "attr": {"value": {"tensor": {"dtype": "DT_FLOAT", "tensorShape": {"dim": [{"size": "832"}]}}}, "dtype": {"type": "DT_FLOAT"}}}, {"name": "StatefulPartitionedCall/depth_estimate/decoder/upscale_block/up1_upsampling2d/strided_slice/stack", "op": "Const", "attr": {"value": {"tensor": {"dtype": "DT_INT32", "tensorShape": {"dim": [{"size": "1"}]}}}, "dtype": {"type": "DT_INT32"}}}, {"name": "StatefulPartitionedCall/depth_estimate/decoder/upscale_block/up1_upsampling2d/strided_slice/stack_1", "op": "Const", "attr": {"dtype": {"type": "DT_INT32"}, "value": {"tensor": {"dtype": "DT_INT32", "tensorShape": {"dim": [{"size": "1"}]}}}}}, {"name": "StatefulPartitionedCall/depth_estimate/decoder/upscale_block/up1_upsampling2d/strided_slice/stack_2", "op": "Const", "attr": {"dtype": {"type": "DT_INT32"}, "value": {"tensor": {"dtype": "DT_INT32", "tensorShape": {"dim": [{"size": "1"}]}}}}}, {"name": "StatefulPartitionedCall/depth_estimate/decoder/upscale_block/up1_upsampling2d/Const", "op": "Const", "attr": {"value": {"tensor": {"dtype": "DT_INT32", "tensorShape": {"dim": [{"size": "2"}]}}}, "dtype": {"type": "DT_INT32"}}}, {"name": "unknown_78", "op": "Const", "attr": {"value": {"tensor": {"dtype": "DT_FLOAT", "tensorShape": {"dim": [{"size": "3"}, {"size": "3"}, {"size": "128"}, {"size": "32"}]}}}, "dtype": {"type": "DT_FLOAT"}}}, {"name": "StatefulPartitionedCall/depth_estimate/encoder/functional_1/conv3_block1_concat/concat/axis", "op": "Const", "attr": {"value": {"tensor": {"dtype": "DT_INT32", "tensorShape": {}}}, "dtype": {"type": "DT_INT32"}}}, {"name": "unknown_88", "op": "Const", "attr": {"value": {"tensor": {"dtype": "DT_FLOAT", "tensorShape": {"dim": [{"size": "3"}, {"size": "3"}, {"size": "128"}, {"size": "32"}]}}}, "dtype": {"type": "DT_FLOAT"}}}, {"name": "StatefulPartitionedCall/depth_estimate/encoder/functional_1/conv3_block2_concat/concat/axis", "op": "Const", "attr": {"value": {"tensor": {"dtype": "DT_INT32", "tensorShape": {}}}, "dtype": {"type": "DT_INT32"}}}, {"name": "unknown_98", "op": "Const", "attr": {"value": {"tensor": {"dtype": "DT_FLOAT", "tensorShape": {"dim": [{"size": "3"}, {"size": "3"}, {"size": "128"}, {"size": "32"}]}}}, "dtype": {"type": "DT_FLOAT"}}}, {"name": "StatefulPartitionedCall/depth_estimate/encoder/functional_1/conv3_block3_concat/concat/axis", "op": "Const", "attr": {"value": {"tensor": {"dtype": "DT_INT32", "tensorShape": {}}}, "dtype": {"type": "DT_INT32"}}}, {"name": "unknown_108", "op": "Const", "attr": {"value": {"tensor": {"dtype": "DT_FLOAT", "tensorShape": {"dim": [{"size": "3"}, {"size": "3"}, {"size": "128"}, {"size": "32"}]}}}, "dtype": {"type": "DT_FLOAT"}}}, {"name": "StatefulPartitionedCall/depth_estimate/encoder/functional_1/conv3_block4_concat/concat/axis", "op": "Const", "attr": {"dtype": {"type": "DT_INT32"}, "value": {"tensor": {"dtype": "DT_INT32", "tensorShape": {}}}}}, {"name": "unknown_118", "op": "Const", "attr": {"dtype": {"type": "DT_FLOAT"}, "value": {"tensor": {"dtype": "DT_FLOAT", "tensorShape": {"dim": [{"size": "3"}, {"size": "3"}, {"size": "128"}, {"size": "32"}]}}}}}, {"name": "StatefulPartitionedCall/depth_estimate/encoder/functional_1/conv3_block5_concat/concat/axis", "op": "Const", "attr": {"dtype": {"type": "DT_INT32"}, "value": {"tensor": {"dtype": "DT_INT32", "tensorShape": {}}}}}, {"name": "unknown_128", "op": "Const", "attr": {"dtype": {"type": "DT_FLOAT"}, "value": {"tensor": {"dtype": "DT_FLOAT", "tensorShape": {"dim": [{"size": "3"}, {"size": "3"}, {"size": "128"}, {"size": "32"}]}}}}}, {"name": "StatefulPartitionedCall/depth_estimate/encoder/functional_1/conv3_block6_concat/concat/axis", "op": "Const", "attr": {"dtype": {"type": "DT_INT32"}, "value": {"tensor": {"dtype": "DT_INT32", "tensorShape": {}}}}}, {"name": "unknown_138", "op": "Const", "attr": {"value": {"tensor": {"dtype": "DT_FLOAT", "tensorShape": {"dim": [{"size": "3"}, {"size": "3"}, {"size": "128"}, {"size": "32"}]}}}, "dtype": {"type": "DT_FLOAT"}}}, {"name": "StatefulPartitionedCall/depth_estimate/encoder/functional_1/conv3_block7_concat/concat/axis", "op": "Const", "attr": {"dtype": {"type": "DT_INT32"}, "value": {"tensor": {"dtype": "DT_INT32", "tensorShape": {}}}}}, {"name": "unknown_148", "op": "Const", "attr": {"value": {"tensor": {"dtype": "DT_FLOAT", "tensorShape": {"dim": [{"size": "3"}, {"size": "3"}, {"size": "128"}, {"size": "32"}]}}}, "dtype": {"type": "DT_FLOAT"}}}, {"name": "StatefulPartitionedCall/depth_estimate/encoder/functional_1/conv3_block8_concat/concat/axis", "op": "Const", "attr": {"dtype": {"type": "DT_INT32"}, "value": {"tensor": {"dtype": "DT_INT32", "tensorShape": {}}}}}, {"name": "unknown_158", "op": "Const", "attr": {"value": {"tensor": {"dtype": "DT_FLOAT", "tensorShape": {"dim": [{"size": "3"}, {"size": "3"}, {"size": "128"}, {"size": "32"}]}}}, "dtype": {"type": "DT_FLOAT"}}}, {"name": "StatefulPartitionedCall/depth_estimate/encoder/functional_1/conv3_block9_concat/concat/axis", "op": "Const", "attr": {"value": {"tensor": {"dtype": "DT_INT32", "tensorShape": {}}}, "dtype": {"type": "DT_INT32"}}}, {"name": "unknown_168", "op": "Const", "attr": {"dtype": {"type": "DT_FLOAT"}, "value": {"tensor": {"dtype": "DT_FLOAT", "tensorShape": {"dim": [{"size": "3"}, {"size": "3"}, {"size": "128"}, {"size": "32"}]}}}}}, {"name": "StatefulPartitionedCall/depth_estimate/encoder/functional_1/conv3_block10_concat/concat/axis", "op": "Const", "attr": {"value": {"tensor": {"dtype": "DT_INT32", "tensorShape": {}}}, "dtype": {"type": "DT_INT32"}}}, {"name": "unknown_178", "op": "Const", "attr": {"value": {"tensor": {"dtype": "DT_FLOAT", "tensorShape": {"dim": [{"size": "3"}, {"size": "3"}, {"size": "128"}, {"size": "32"}]}}}, "dtype": {"type": "DT_FLOAT"}}}, {"name": "StatefulPartitionedCall/depth_estimate/encoder/functional_1/conv3_block11_concat/concat/axis", "op": "Const", "attr": {"dtype": {"type": "DT_INT32"}, "value": {"tensor": {"dtype": "DT_INT32", "tensorShape": {}}}}}, {"name": "unknown_188", "op": "Const", "attr": {"value": {"tensor": {"dtype": "DT_FLOAT", "tensorShape": {"dim": [{"size": "3"}, {"size": "3"}, {"size": "128"}, {"size": "32"}]}}}, "dtype": {"type": "DT_FLOAT"}}}, {"name": "StatefulPartitionedCall/depth_estimate/encoder/functional_1/conv3_block12_concat/concat/axis", "op": "Const", "attr": {"value": {"tensor": {"dtype": "DT_INT32", "tensorShape": {}}}, "dtype": {"type": "DT_INT32"}}}, {"name": "unknown_193", "op": "Const", "attr": {"value": {"tensor": {"dtype": "DT_FLOAT", "tensorShape": {"dim": [{"size": "1"}, {"size": "1"}, {"size": "512"}, {"size": "256"}]}}}, "dtype": {"type": "DT_FLOAT"}}}, {"name": "StatefulPartitionedCall/depth_estimate/decoder/upscale_block/up1_concat/concat/axis", "op": "Const", "attr": {"value": {"tensor": {"dtype": "DT_INT32", "tensorShape": {}}}, "dtype": {"type": "DT_INT32"}}}, {"name": "unknown_845", "op": "Const", "attr": {"value": {"tensor": {"dtype": "DT_FLOAT", "tensorShape": {"dim": [{"size": "3"}, {"size": "3"}, {"size": "1088"}, {"size": "416"}]}}}, "dtype": {"type": "DT_FLOAT"}}}, {"name": "unknown_846", "op": "Const", "attr": {"dtype": {"type": "DT_FLOAT"}, "value": {"tensor": {"dtype": "DT_FLOAT", "tensorShape": {"dim": [{"size": "416"}]}}}}}, {"name": "unknown_847", "op": "Const", "attr": {"value": {"tensor": {"dtype": "DT_FLOAT", "tensorShape": {"dim": [{"size": "3"}, {"size": "3"}, {"size": "416"}, {"size": "416"}]}}}, "dtype": {"type": "DT_FLOAT"}}}, {"name": "unknown_848", "op": "Const", "attr": {"value": {"tensor": {"dtype": "DT_FLOAT", "tensorShape": {"dim": [{"size": "416"}]}}}, "dtype": {"type": "DT_FLOAT"}}}, {"name": "StatefulPartitionedCall/depth_estimate/decoder/upscale_block_1/up2_upsampling2d/strided_slice/stack", "op": "Const", "attr": {"value": {"tensor": {"dtype": "DT_INT32", "tensorShape": {"dim": [{"size": "1"}]}}}, "dtype": {"type": "DT_INT32"}}}, {"name": "StatefulPartitionedCall/depth_estimate/decoder/upscale_block_1/up2_upsampling2d/strided_slice/stack_1", "op": "Const", "attr": {"value": {"tensor": {"dtype": "DT_INT32", "tensorShape": {"dim": [{"size": "1"}]}}}, "dtype": {"type": "DT_INT32"}}}, {"name": "StatefulPartitionedCall/depth_estimate/decoder/upscale_block_1/up2_upsampling2d/strided_slice/stack_2", "op": "Const", "attr": {"value": {"tensor": {"dtype": "DT_INT32", "tensorShape": {"dim": [{"size": "1"}]}}}, "dtype": {"type": "DT_INT32"}}}, {"name": "StatefulPartitionedCall/depth_estimate/decoder/upscale_block_1/up2_upsampling2d/Const", "op": "Const", "attr": {"value": {"tensor": {"dtype": "DT_INT32", "tensorShape": {"dim": [{"size": "2"}]}}}, "dtype": {"type": "DT_INT32"}}}, {"name": "unknown_13", "op": "Const", "attr": {"value": {"tensor": {"dtype": "DT_FLOAT", "tensorShape": {"dim": [{"size": "3"}, {"size": "3"}, {"size": "128"}, {"size": "32"}]}}}, "dtype": {"type": "DT_FLOAT"}}}, {"name": "StatefulPartitionedCall/depth_estimate/encoder/functional_1/conv2_block1_concat/concat/axis", "op": "Const", "attr": {"value": {"tensor": {"dtype": "DT_INT32", "tensorShape": {}}}, "dtype": {"type": "DT_INT32"}}}, {"name": "unknown_23", "op": "Const", "attr": {"value": {"tensor": {"dtype": "DT_FLOAT", "tensorShape": {"dim": [{"size": "3"}, {"size": "3"}, {"size": "128"}, {"size": "32"}]}}}, "dtype": {"type": "DT_FLOAT"}}}, {"name": "StatefulPartitionedCall/depth_estimate/encoder/functional_1/conv2_block2_concat/concat/axis", "op": "Const", "attr": {"value": {"tensor": {"dtype": "DT_INT32", "tensorShape": {}}}, "dtype": {"type": "DT_INT32"}}}, {"name": "unknown_33", "op": "Const", "attr": {"value": {"tensor": {"dtype": "DT_FLOAT", "tensorShape": {"dim": [{"size": "3"}, {"size": "3"}, {"size": "128"}, {"size": "32"}]}}}, "dtype": {"type": "DT_FLOAT"}}}, {"name": "StatefulPartitionedCall/depth_estimate/encoder/functional_1/conv2_block3_concat/concat/axis", "op": "Const", "attr": {"dtype": {"type": "DT_INT32"}, "value": {"tensor": {"dtype": "DT_INT32", "tensorShape": {}}}}}, {"name": "unknown_43", "op": "Const", "attr": {"value": {"tensor": {"dtype": "DT_FLOAT", "tensorShape": {"dim": [{"size": "3"}, {"size": "3"}, {"size": "128"}, {"size": "32"}]}}}, "dtype": {"type": "DT_FLOAT"}}}, {"name": "StatefulPartitionedCall/depth_estimate/encoder/functional_1/conv2_block4_concat/concat/axis", "op": "Const", "attr": {"dtype": {"type": "DT_INT32"}, "value": {"tensor": {"dtype": "DT_INT32", "tensorShape": {}}}}}, {"name": "unknown_53", "op": "Const", "attr": {"value": {"tensor": {"dtype": "DT_FLOAT", "tensorShape": {"dim": [{"size": "3"}, {"size": "3"}, {"size": "128"}, {"size": "32"}]}}}, "dtype": {"type": "DT_FLOAT"}}}, {"name": "StatefulPartitionedCall/depth_estimate/encoder/functional_1/conv2_block5_concat/concat/axis", "op": "Const", "attr": {"value": {"tensor": {"dtype": "DT_INT32", "tensorShape": {}}}, "dtype": {"type": "DT_INT32"}}}, {"name": "unknown_63", "op": "Const", "attr": {"dtype": {"type": "DT_FLOAT"}, "value": {"tensor": {"dtype": "DT_FLOAT", "tensorShape": {"dim": [{"size": "3"}, {"size": "3"}, {"size": "128"}, {"size": "32"}]}}}}}, {"name": "StatefulPartitionedCall/depth_estimate/encoder/functional_1/conv2_block6_concat/concat/axis", "op": "Const", "attr": {"value": {"tensor": {"dtype": "DT_INT32", "tensorShape": {}}}, "dtype": {"type": "DT_INT32"}}}, {"name": "unknown_68", "op": "Const", "attr": {"value": {"tensor": {"dtype": "DT_FLOAT", "tensorShape": {"dim": [{"size": "1"}, {"size": "1"}, {"size": "256"}, {"size": "128"}]}}}, "dtype": {"type": "DT_FLOAT"}}}, {"name": "StatefulPartitionedCall/depth_estimate/decoder/upscale_block_1/up2_concat/concat/axis", "op": "Const", "attr": {"dtype": {"type": "DT_INT32"}, "value": {"tensor": {"dtype": "DT_INT32", "tensorShape": {}}}}}, {"name": "unknown_849", "op": "Const", "attr": {"value": {"tensor": {"dtype": "DT_FLOAT", "tensorShape": {"dim": [{"size": "3"}, {"size": "3"}, {"size": "544"}, {"size": "208"}]}}}, "dtype": {"type": "DT_FLOAT"}}}, {"name": "unknown_850", "op": "Const", "attr": {"value": {"tensor": {"dtype": "DT_FLOAT", "tensorShape": {"dim": [{"size": "208"}]}}}, "dtype": {"type": "DT_FLOAT"}}}, {"name": "unknown_851", "op": "Const", "attr": {"value": {"tensor": {"dtype": "DT_FLOAT", "tensorShape": {"dim": [{"size": "3"}, {"size": "3"}, {"size": "208"}, {"size": "208"}]}}}, "dtype": {"type": "DT_FLOAT"}}}, {"name": "unknown_852", "op": "Const", "attr": {"value": {"tensor": {"dtype": "DT_FLOAT", "tensorShape": {"dim": [{"size": "208"}]}}}, "dtype": {"type": "DT_FLOAT"}}}, {"name": "StatefulPartitionedCall/depth_estimate/decoder/upscale_block_2/up3_upsampling2d/strided_slice/stack", "op": "Const", "attr": {"dtype": {"type": "DT_INT32"}, "value": {"tensor": {"dtype": "DT_INT32", "tensorShape": {"dim": [{"size": "1"}]}}}}}, {"name": "StatefulPartitionedCall/depth_estimate/decoder/upscale_block_2/up3_upsampling2d/strided_slice/stack_1", "op": "Const", "attr": {"dtype": {"type": "DT_INT32"}, "value": {"tensor": {"dtype": "DT_INT32", "tensorShape": {"dim": [{"size": "1"}]}}}}}, {"name": "StatefulPartitionedCall/depth_estimate/decoder/upscale_block_2/up3_upsampling2d/strided_slice/stack_2", "op": "Const", "attr": {"value": {"tensor": {"dtype": "DT_INT32", "tensorShape": {"dim": [{"size": "1"}]}}}, "dtype": {"type": "DT_INT32"}}}, {"name": "StatefulPartitionedCall/depth_estimate/decoder/upscale_block_2/up3_upsampling2d/Const", "op": "Const", "attr": {"value": {"tensor": {"dtype": "DT_INT32", "tensorShape": {"dim": [{"size": "2"}]}}}, "dtype": {"type": "DT_INT32"}}}, {"name": "StatefulPartitionedCall/depth_estimate/encoder/functional_1/zero_padding2d_1/Pad/paddings", "op": "Const", "attr": {"value": {"tensor": {"dtype": "DT_INT32", "tensorShape": {"dim": [{"size": "4"}, {"size": "2"}]}}}, "dtype": {"type": "DT_INT32"}}}, {"name": "StatefulPartitionedCall/depth_estimate/decoder/upscale_block_2/up3_concat/concat/axis", "op": "Const", "attr": {"dtype": {"type": "DT_INT32"}, "value": {"tensor": {"dtype": "DT_INT32", "tensorShape": {}}}}}, {"name": "unknown_853", "op": "Const", "attr": {"value": {"tensor": {"dtype": "DT_FLOAT", "tensorShape": {"dim": [{"size": "3"}, {"size": "3"}, {"size": "272"}, {"size": "104"}]}}}, "dtype": {"type": "DT_FLOAT"}}}, {"name": "unknown_854", "op": "Const", "attr": {"value": {"tensor": {"dtype": "DT_FLOAT", "tensorShape": {"dim": [{"size": "104"}]}}}, "dtype": {"type": "DT_FLOAT"}}}, {"name": "unknown_855", "op": "Const", "attr": {"value": {"tensor": {"dtype": "DT_FLOAT", "tensorShape": {"dim": [{"size": "3"}, {"size": "3"}, {"size": "104"}, {"size": "104"}]}}}, "dtype": {"type": "DT_FLOAT"}}}, {"name": "unknown_856", "op": "Const", "attr": {"value": {"tensor": {"dtype": "DT_FLOAT", "tensorShape": {"dim": [{"size": "104"}]}}}, "dtype": {"type": "DT_FLOAT"}}}, {"name": "StatefulPartitionedCall/depth_estimate/decoder/upscale_block_3/up4_upsampling2d/strided_slice/stack", "op": "Const", "attr": {"dtype": {"type": "DT_INT32"}, "value": {"tensor": {"dtype": "DT_INT32", "tensorShape": {"dim": [{"size": "1"}]}}}}}, {"name": "StatefulPartitionedCall/depth_estimate/decoder/upscale_block_3/up4_upsampling2d/strided_slice/stack_1", "op": "Const", "attr": {"value": {"tensor": {"dtype": "DT_INT32", "tensorShape": {"dim": [{"size": "1"}]}}}, "dtype": {"type": "DT_INT32"}}}, {"name": "StatefulPartitionedCall/depth_estimate/decoder/upscale_block_3/up4_upsampling2d/strided_slice/stack_2", "op": "Const", "attr": {"dtype": {"type": "DT_INT32"}, "value": {"tensor": {"dtype": "DT_INT32", "tensorShape": {"dim": [{"size": "1"}]}}}}}, {"name": "StatefulPartitionedCall/depth_estimate/decoder/upscale_block_3/up4_upsampling2d/Const", "op": "Const", "attr": {"value": {"tensor": {"dtype": "DT_INT32", "tensorShape": {"dim": [{"size": "2"}]}}}, "dtype": {"type": "DT_INT32"}}}, {"name": "StatefulPartitionedCall/depth_estimate/encoder/functional_1/zero_padding2d/Pad/paddings", "op": "Const", "attr": {"value": {"tensor": {"dtype": "DT_INT32", "tensorShape": {"dim": [{"size": "4"}, {"size": "2"}]}}}, "dtype": {"type": "DT_INT32"}}}, {"name": "StatefulPartitionedCall/depth_estimate/decoder/upscale_block_3/up4_concat/concat/axis", "op": "Const", "attr": {"value": {"tensor": {"dtype": "DT_INT32", "tensorShape": {}}}, "dtype": {"type": "DT_INT32"}}}, {"name": "unknown_857", "op": "Const", "attr": {"value": {"tensor": {"dtype": "DT_FLOAT", "tensorShape": {"dim": [{"size": "3"}, {"size": "3"}, {"size": "168"}, {"size": "52"}]}}}, "dtype": {"type": "DT_FLOAT"}}}, {"name": "unknown_858", "op": "Const", "attr": {"dtype": {"type": "DT_FLOAT"}, "value": {"tensor": {"dtype": "DT_FLOAT", "tensorShape": {"dim": [{"size": "52"}]}}}}}, {"name": "unknown_859", "op": "Const", "attr": {"value": {"tensor": {"dtype": "DT_FLOAT", "tensorShape": {"dim": [{"size": "3"}, {"size": "3"}, {"size": "52"}, {"size": "52"}]}}}, "dtype": {"type": "DT_FLOAT"}}}, {"name": "unknown_860", "op": "Const", "attr": {"value": {"tensor": {"dtype": "DT_FLOAT", "tensorShape": {"dim": [{"size": "52"}]}}}, "dtype": {"type": "DT_FLOAT"}}}, {"name": "unknown_861", "op": "Const", "attr": {"value": {"tensor": {"dtype": "DT_FLOAT", "tensorShape": {"dim": [{"size": "3"}, {"size": "3"}, {"size": "52"}, {"size": "1"}]}}}, "dtype": {"type": "DT_FLOAT"}}}, {"name": "unknown_862", "op": "Const", "attr": {"value": {"tensor": {"dtype": "DT_FLOAT", "tensorShape": {"dim": [{"size": "1"}]}}}, "dtype": {"type": "DT_FLOAT"}}}, {"name": "input_1", "op": "Placeholder", "attr": {"dtype": {"type": "DT_FLOAT"}, "shape": {"shape": {"dim": [{"size": "-1"}, {"size": "480"}, {"size": "640"}, {"size": "3"}]}}}}, {"name": "StatefulPartitionedCall/depth_estimate/encoder/functional_1/conv1/conv/Conv2D_weights", "op": "Const", "attr": {"value": {"tensor": {"dtype": "DT_FLOAT", "tensorShape": {"dim": [{"size": "7"}, {"size": "7"}, {"size": "3"}, {"size": "64"}]}}}, "dtype": {"type": "DT_FLOAT"}}}, {"name": "StatefulPartitionedCall/depth_estimate/encoder/functional_1/conv4_block6_0_bn/FusedBatchNormV3/Offset", "op": "Const", "attr": {"dtype": {"type": "DT_FLOAT"}, "value": {"tensor": {"dtype": "DT_FLOAT", "tensorShape": {"dim": [{"size": "416"}]}}}}}, {"name": "StatefulPartitionedCall/depth_estimate/encoder/functional_1/conv1/conv/Conv2D_bn_offset", "op": "Const", "attr": {"dtype": {"type": "DT_FLOAT"}, "value": {"tensor": {"dtype": "DT_FLOAT", "tensorShape": {"dim": [{"size": "64"}]}}}}}, {"name": "StatefulPartitionedCall/depth_estimate/encoder/functional_1/conv2_block1_1_conv/Conv2D_weights", "op": "Const", "attr": {"value": {"tensor": {"dtype": "DT_FLOAT", "tensorShape": {"dim": [{"size": "1"}, {"size": "1"}, {"size": "64"}, {"size": "128"}]}}}, "dtype": {"type": "DT_FLOAT"}}}, {"name": "StatefulPartitionedCall/depth_estimate/encoder/functional_1/conv2_block1_1_conv/Conv2D_bn_offset", "op": "Const", "attr": {"value": {"tensor": {"dtype": "DT_FLOAT", "tensorShape": {"dim": [{"size": "128"}]}}}, "dtype": {"type": "DT_FLOAT"}}}, {"name": "StatefulPartitionedCall/depth_estimate/encoder/functional_1/conv2_block2_1_conv/Conv2D_weights", "op": "Const", "attr": {"value": {"tensor": {"dtype": "DT_FLOAT", "tensorShape": {"dim": [{"size": "1"}, {"size": "1"}, {"size": "96"}, {"size": "128"}]}}}, "dtype": {"type": "DT_FLOAT"}}}, {"name": "StatefulPartitionedCall/depth_estimate/encoder/functional_1/conv4_block5_0_bn/FusedBatchNormV3/Scaled", "op": "Const", "attr": {"dtype": {"type": "DT_FLOAT"}, "value": {"tensor": {"dtype": "DT_FLOAT", "tensorShape": {"dim": [{"size": "384"}]}}}}}, {"name": "StatefulPartitionedCall/depth_estimate/encoder/functional_1/conv2_block2_1_conv/Conv2D_bn_offset", "op": "Const", "attr": {"value": {"tensor": {"dtype": "DT_FLOAT", "tensorShape": {"dim": [{"size": "128"}]}}}, "dtype": {"type": "DT_FLOAT"}}}, {"name": "StatefulPartitionedCall/depth_estimate/encoder/functional_1/conv2_block3_1_conv/Conv2D_weights", "op": "Const", "attr": {"dtype": {"type": "DT_FLOAT"}, "value": {"tensor": {"dtype": "DT_FLOAT", "tensorShape": {"dim": [{"size": "1"}, {"size": "1"}, {"size": "128"}, {"size": "128"}]}}}}}, {"name": "StatefulPartitionedCall/depth_estimate/encoder/functional_1/conv2_block3_1_conv/Conv2D_bn_offset", "op": "Const", "attr": {"value": {"tensor": {"dtype": "DT_FLOAT", "tensorShape": {"dim": [{"size": "128"}]}}}, "dtype": {"type": "DT_FLOAT"}}}, {"name": "StatefulPartitionedCall/depth_estimate/encoder/functional_1/conv4_block5_0_bn/FusedBatchNormV3/Offset", "op": "Const", "attr": {"dtype": {"type": "DT_FLOAT"}, "value": {"tensor": {"dtype": "DT_FLOAT", "tensorShape": {"dim": [{"size": "384"}]}}}}}, {"name": "StatefulPartitionedCall/depth_estimate/encoder/functional_1/conv2_block4_1_conv/Conv2D_weights", "op": "Const", "attr": {"value": {"tensor": {"dtype": "DT_FLOAT", "tensorShape": {"dim": [{"size": "1"}, {"size": "1"}, {"size": "160"}, {"size": "128"}]}}}, "dtype": {"type": "DT_FLOAT"}}}, {"name": "StatefulPartitionedCall/depth_estimate/encoder/functional_1/conv2_block4_1_conv/Conv2D_bn_offset", "op": "Const", "attr": {"dtype": {"type": "DT_FLOAT"}, "value": {"tensor": {"dtype": "DT_FLOAT", "tensorShape": {"dim": [{"size": "128"}]}}}}}, {"name": "StatefulPartitionedCall/depth_estimate/encoder/functional_1/conv2_block5_1_conv/Conv2D_weights", "op": "Const", "attr": {"value": {"tensor": {"dtype": "DT_FLOAT", "tensorShape": {"dim": [{"size": "1"}, {"size": "1"}, {"size": "192"}, {"size": "128"}]}}}, "dtype": {"type": "DT_FLOAT"}}}, {"name": "StatefulPartitionedCall/depth_estimate/encoder/functional_1/conv2_block5_1_conv/Conv2D_bn_offset", "op": "Const", "attr": {"value": {"tensor": {"dtype": "DT_FLOAT", "tensorShape": {"dim": [{"size": "128"}]}}}, "dtype": {"type": "DT_FLOAT"}}}, {"name": "StatefulPartitionedCall/depth_estimate/encoder/functional_1/conv4_block4_0_bn/FusedBatchNormV3/Scaled", "op": "Const", "attr": {"value": {"tensor": {"dtype": "DT_FLOAT", "tensorShape": {"dim": [{"size": "352"}]}}}, "dtype": {"type": "DT_FLOAT"}}}, {"name": "StatefulPartitionedCall/depth_estimate/encoder/functional_1/conv2_block6_1_conv/Conv2D_weights", "op": "Const", "attr": {"dtype": {"type": "DT_FLOAT"}, "value": {"tensor": {"dtype": "DT_FLOAT", "tensorShape": {"dim": [{"size": "1"}, {"size": "1"}, {"size": "224"}, {"size": "128"}]}}}}}, {"name": "StatefulPartitionedCall/depth_estimate/encoder/functional_1/conv2_block6_1_conv/Conv2D_bn_offset", "op": "Const", "attr": {"value": {"tensor": {"dtype": "DT_FLOAT", "tensorShape": {"dim": [{"size": "128"}]}}}, "dtype": {"type": "DT_FLOAT"}}}, {"name": "StatefulPartitionedCall/depth_estimate/encoder/functional_1/conv3_block1_1_conv/Conv2D_weights", "op": "Const", "attr": {"value": {"tensor": {"dtype": "DT_FLOAT", "tensorShape": {"dim": [{"size": "1"}, {"size": "1"}, {"size": "128"}, {"size": "128"}]}}}, "dtype": {"type": "DT_FLOAT"}}}, {"name": "StatefulPartitionedCall/depth_estimate/encoder/functional_1/conv4_block4_0_bn/FusedBatchNormV3/Offset", "op": "Const", "attr": {"value": {"tensor": {"dtype": "DT_FLOAT", "tensorShape": {"dim": [{"size": "352"}]}}}, "dtype": {"type": "DT_FLOAT"}}}, {"name": "StatefulPartitionedCall/depth_estimate/encoder/functional_1/conv3_block1_1_conv/Conv2D_bn_offset", "op": "Const", "attr": {"value": {"tensor": {"dtype": "DT_FLOAT", "tensorShape": {"dim": [{"size": "128"}]}}}, "dtype": {"type": "DT_FLOAT"}}}, {"name": "StatefulPartitionedCall/depth_estimate/encoder/functional_1/conv3_block2_1_conv/Conv2D_weights", "op": "Const", "attr": {"dtype": {"type": "DT_FLOAT"}, "value": {"tensor": {"dtype": "DT_FLOAT", "tensorShape": {"dim": [{"size": "1"}, {"size": "1"}, {"size": "160"}, {"size": "128"}]}}}}}, {"name": "StatefulPartitionedCall/depth_estimate/encoder/functional_1/conv3_block2_1_conv/Conv2D_bn_offset", "op": "Const", "attr": {"value": {"tensor": {"dtype": "DT_FLOAT", "tensorShape": {"dim": [{"size": "128"}]}}}, "dtype": {"type": "DT_FLOAT"}}}, {"name": "StatefulPartitionedCall/depth_estimate/encoder/functional_1/conv3_block3_1_conv/Conv2D_weights", "op": "Const", "attr": {"value": {"tensor": {"dtype": "DT_FLOAT", "tensorShape": {"dim": [{"size": "1"}, {"size": "1"}, {"size": "192"}, {"size": "128"}]}}}, "dtype": {"type": "DT_FLOAT"}}}, {"name": "StatefulPartitionedCall/depth_estimate/encoder/functional_1/conv4_block3_0_bn/FusedBatchNormV3/Scaled", "op": "Const", "attr": {"value": {"tensor": {"dtype": "DT_FLOAT", "tensorShape": {"dim": [{"size": "320"}]}}}, "dtype": {"type": "DT_FLOAT"}}}, {"name": "StatefulPartitionedCall/depth_estimate/encoder/functional_1/conv3_block3_1_conv/Conv2D_bn_offset", "op": "Const", "attr": {"value": {"tensor": {"dtype": "DT_FLOAT", "tensorShape": {"dim": [{"size": "128"}]}}}, "dtype": {"type": "DT_FLOAT"}}}, {"name": "StatefulPartitionedCall/depth_estimate/encoder/functional_1/conv3_block4_1_conv/Conv2D_weights", "op": "Const", "attr": {"value": {"tensor": {"dtype": "DT_FLOAT", "tensorShape": {"dim": [{"size": "1"}, {"size": "1"}, {"size": "224"}, {"size": "128"}]}}}, "dtype": {"type": "DT_FLOAT"}}}, {"name": "StatefulPartitionedCall/depth_estimate/encoder/functional_1/conv3_block4_1_conv/Conv2D_bn_offset", "op": "Const", "attr": {"dtype": {"type": "DT_FLOAT"}, "value": {"tensor": {"dtype": "DT_FLOAT", "tensorShape": {"dim": [{"size": "128"}]}}}}}, {"name": "StatefulPartitionedCall/depth_estimate/encoder/functional_1/conv4_block3_0_bn/FusedBatchNormV3/Offset", "op": "Const", "attr": {"value": {"tensor": {"dtype": "DT_FLOAT", "tensorShape": {"dim": [{"size": "320"}]}}}, "dtype": {"type": "DT_FLOAT"}}}, {"name": "StatefulPartitionedCall/depth_estimate/encoder/functional_1/conv3_block5_1_conv/Conv2D_weights", "op": "Const", "attr": {"value": {"tensor": {"dtype": "DT_FLOAT", "tensorShape": {"dim": [{"size": "1"}, {"size": "1"}, {"size": "256"}, {"size": "128"}]}}}, "dtype": {"type": "DT_FLOAT"}}}, {"name": "StatefulPartitionedCall/depth_estimate/encoder/functional_1/conv3_block5_1_conv/Conv2D_bn_offset", "op": "Const", "attr": {"value": {"tensor": {"dtype": "DT_FLOAT", "tensorShape": {"dim": [{"size": "128"}]}}}, "dtype": {"type": "DT_FLOAT"}}}, {"name": "StatefulPartitionedCall/depth_estimate/encoder/functional_1/conv3_block6_1_conv/Conv2D_weights", "op": "Const", "attr": {"value": {"tensor": {"dtype": "DT_FLOAT", "tensorShape": {"dim": [{"size": "1"}, {"size": "1"}, {"size": "288"}, {"size": "128"}]}}}, "dtype": {"type": "DT_FLOAT"}}}, {"name": "StatefulPartitionedCall/depth_estimate/encoder/functional_1/conv3_block6_1_conv/Conv2D_bn_offset", "op": "Const", "attr": {"dtype": {"type": "DT_FLOAT"}, "value": {"tensor": {"dtype": "DT_FLOAT", "tensorShape": {"dim": [{"size": "128"}]}}}}}, {"name": "StatefulPartitionedCall/depth_estimate/encoder/functional_1/conv4_block2_0_bn/FusedBatchNormV3/Scaled", "op": "Const", "attr": {"value": {"tensor": {"dtype": "DT_FLOAT", "tensorShape": {"dim": [{"size": "288"}]}}}, "dtype": {"type": "DT_FLOAT"}}}, {"name": "StatefulPartitionedCall/depth_estimate/encoder/functional_1/conv3_block7_1_conv/Conv2D_weights", "op": "Const", "attr": {"value": {"tensor": {"dtype": "DT_FLOAT", "tensorShape": {"dim": [{"size": "1"}, {"size": "1"}, {"size": "320"}, {"size": "128"}]}}}, "dtype": {"type": "DT_FLOAT"}}}, {"name": "StatefulPartitionedCall/depth_estimate/encoder/functional_1/conv3_block7_1_conv/Conv2D_bn_offset", "op": "Const", "attr": {"value": {"tensor": {"dtype": "DT_FLOAT", "tensorShape": {"dim": [{"size": "128"}]}}}, "dtype": {"type": "DT_FLOAT"}}}, {"name": "StatefulPartitionedCall/depth_estimate/encoder/functional_1/conv3_block8_1_conv/Conv2D_weights", "op": "Const", "attr": {"dtype": {"type": "DT_FLOAT"}, "value": {"tensor": {"dtype": "DT_FLOAT", "tensorShape": {"dim": [{"size": "1"}, {"size": "1"}, {"size": "352"}, {"size": "128"}]}}}}}, {"name": "StatefulPartitionedCall/depth_estimate/encoder/functional_1/conv4_block2_0_bn/FusedBatchNormV3/Offset", "op": "Const", "attr": {"dtype": {"type": "DT_FLOAT"}, "value": {"tensor": {"dtype": "DT_FLOAT", "tensorShape": {"dim": [{"size": "288"}]}}}}}, {"name": "StatefulPartitionedCall/depth_estimate/encoder/functional_1/conv3_block8_1_conv/Conv2D_bn_offset", "op": "Const", "attr": {"value": {"tensor": {"dtype": "DT_FLOAT", "tensorShape": {"dim": [{"size": "128"}]}}}, "dtype": {"type": "DT_FLOAT"}}}, {"name": "StatefulPartitionedCall/depth_estimate/encoder/functional_1/conv3_block9_1_conv/Conv2D_weights", "op": "Const", "attr": {"value": {"tensor": {"dtype": "DT_FLOAT", "tensorShape": {"dim": [{"size": "1"}, {"size": "1"}, {"size": "384"}, {"size": "128"}]}}}, "dtype": {"type": "DT_FLOAT"}}}, {"name": "StatefulPartitionedCall/depth_estimate/encoder/functional_1/conv3_block9_1_conv/Conv2D_bn_offset", "op": "Const", "attr": {"value": {"tensor": {"dtype": "DT_FLOAT", "tensorShape": {"dim": [{"size": "128"}]}}}, "dtype": {"type": "DT_FLOAT"}}}, {"name": "StatefulPartitionedCall/depth_estimate/encoder/functional_1/conv3_block10_1_conv/Conv2D_weights", "op": "Const", "attr": {"value": {"tensor": {"dtype": "DT_FLOAT", "tensorShape": {"dim": [{"size": "1"}, {"size": "1"}, {"size": "416"}, {"size": "128"}]}}}, "dtype": {"type": "DT_FLOAT"}}}, {"name": "StatefulPartitionedCall/depth_estimate/encoder/functional_1/conv4_block1_0_bn/FusedBatchNormV3/Scaled", "op": "Const", "attr": {"value": {"tensor": {"dtype": "DT_FLOAT", "tensorShape": {"dim": [{"size": "256"}]}}}, "dtype": {"type": "DT_FLOAT"}}}, {"name": "StatefulPartitionedCall/depth_estimate/encoder/functional_1/conv3_block10_1_conv/Conv2D_bn_offset", "op": "Const", "attr": {"dtype": {"type": "DT_FLOAT"}, "value": {"tensor": {"dtype": "DT_FLOAT", "tensorShape": {"dim": [{"size": "128"}]}}}}}, {"name": "StatefulPartitionedCall/depth_estimate/encoder/functional_1/conv3_block11_1_conv/Conv2D_weights", "op": "Const", "attr": {"value": {"tensor": {"dtype": "DT_FLOAT", "tensorShape": {"dim": [{"size": "1"}, {"size": "1"}, {"size": "448"}, {"size": "128"}]}}}, "dtype": {"type": "DT_FLOAT"}}}, {"name": "StatefulPartitionedCall/depth_estimate/encoder/functional_1/conv3_block11_1_conv/Conv2D_bn_offset", "op": "Const", "attr": {"value": {"tensor": {"dtype": "DT_FLOAT", "tensorShape": {"dim": [{"size": "128"}]}}}, "dtype": {"type": "DT_FLOAT"}}}, {"name": "StatefulPartitionedCall/depth_estimate/encoder/functional_1/conv4_block1_0_bn/FusedBatchNormV3/Offset", "op": "Const", "attr": {"value": {"tensor": {"dtype": "DT_FLOAT", "tensorShape": {"dim": [{"size": "256"}]}}}, "dtype": {"type": "DT_FLOAT"}}}, {"name": "StatefulPartitionedCall/depth_estimate/encoder/functional_1/conv3_block12_1_conv/Conv2D_weights", "op": "Const", "attr": {"value": {"tensor": {"dtype": "DT_FLOAT", "tensorShape": {"dim": [{"size": "1"}, {"size": "1"}, {"size": "480"}, {"size": "128"}]}}}, "dtype": {"type": "DT_FLOAT"}}}, {"name": "StatefulPartitionedCall/depth_estimate/encoder/functional_1/conv3_block12_1_conv/Conv2D_bn_offset", "op": "Const", "attr": {"value": {"tensor": {"dtype": "DT_FLOAT", "tensorShape": {"dim": [{"size": "128"}]}}}, "dtype": {"type": "DT_FLOAT"}}}, {"name": "StatefulPartitionedCall/depth_estimate/encoder/functional_1/conv4_block1_1_conv/Conv2D_weights", "op": "Const", "attr": {"value": {"tensor": {"dtype": "DT_FLOAT", "tensorShape": {"dim": [{"size": "1"}, {"size": "1"}, {"size": "256"}, {"size": "128"}]}}}, "dtype": {"type": "DT_FLOAT"}}}, {"name": "StatefulPartitionedCall/depth_estimate/encoder/functional_1/conv4_block1_1_conv/Conv2D_bn_offset", "op": "Const", "attr": {"value": {"tensor": {"dtype": "DT_FLOAT", "tensorShape": {"dim": [{"size": "128"}]}}}, "dtype": {"type": "DT_FLOAT"}}}, {"name": "StatefulPartitionedCall/depth_estimate/encoder/functional_1/pool3_bn/FusedBatchNormV3/Scaled", "op": "Const", "attr": {"dtype": {"type": "DT_FLOAT"}, "value": {"tensor": {"dtype": "DT_FLOAT", "tensorShape": {"dim": [{"size": "512"}]}}}}}, {"name": "StatefulPartitionedCall/depth_estimate/encoder/functional_1/conv4_block2_1_conv/Conv2D_weights", "op": "Const", "attr": {"value": {"tensor": {"dtype": "DT_FLOAT", "tensorShape": {"dim": [{"size": "1"}, {"size": "1"}, {"size": "288"}, {"size": "128"}]}}}, "dtype": {"type": "DT_FLOAT"}}}, {"name": "StatefulPartitionedCall/depth_estimate/encoder/functional_1/conv4_block2_1_conv/Conv2D_bn_offset", "op": "Const", "attr": {"value": {"tensor": {"dtype": "DT_FLOAT", "tensorShape": {"dim": [{"size": "128"}]}}}, "dtype": {"type": "DT_FLOAT"}}}, {"name": "StatefulPartitionedCall/depth_estimate/encoder/functional_1/conv4_block3_1_conv/Conv2D_weights", "op": "Const", "attr": {"value": {"tensor": {"dtype": "DT_FLOAT", "tensorShape": {"dim": [{"size": "1"}, {"size": "1"}, {"size": "320"}, {"size": "128"}]}}}, "dtype": {"type": "DT_FLOAT"}}}, {"name": "StatefulPartitionedCall/depth_estimate/encoder/functional_1/pool3_bn/FusedBatchNormV3/Offset", "op": "Const", "attr": {"value": {"tensor": {"dtype": "DT_FLOAT", "tensorShape": {"dim": [{"size": "512"}]}}}, "dtype": {"type": "DT_FLOAT"}}}, {"name": "StatefulPartitionedCall/depth_estimate/encoder/functional_1/conv4_block3_1_conv/Conv2D_bn_offset", "op": "Const", "attr": {"value": {"tensor": {"dtype": "DT_FLOAT", "tensorShape": {"dim": [{"size": "128"}]}}}, "dtype": {"type": "DT_FLOAT"}}}, {"name": "StatefulPartitionedCall/depth_estimate/encoder/functional_1/conv4_block4_1_conv/Conv2D_weights", "op": "Const", "attr": {"value": {"tensor": {"dtype": "DT_FLOAT", "tensorShape": {"dim": [{"size": "1"}, {"size": "1"}, {"size": "352"}, {"size": "128"}]}}}, "dtype": {"type": "DT_FLOAT"}}}, {"name": "StatefulPartitionedCall/depth_estimate/encoder/functional_1/conv4_block4_1_conv/Conv2D_bn_offset", "op": "Const", "attr": {"value": {"tensor": {"dtype": "DT_FLOAT", "tensorShape": {"dim": [{"size": "128"}]}}}, "dtype": {"type": "DT_FLOAT"}}}, {"name": "StatefulPartitionedCall/depth_estimate/encoder/functional_1/conv4_block5_1_conv/Conv2D_weights", "op": "Const", "attr": {"value": {"tensor": {"dtype": "DT_FLOAT", "tensorShape": {"dim": [{"size": "1"}, {"size": "1"}, {"size": "384"}, {"size": "128"}]}}}, "dtype": {"type": "DT_FLOAT"}}}, {"name": "StatefulPartitionedCall/depth_estimate/encoder/functional_1/conv3_block12_0_bn/FusedBatchNormV3/Scaled", "op": "Const", "attr": {"value": {"tensor": {"dtype": "DT_FLOAT", "tensorShape": {"dim": [{"size": "480"}]}}}, "dtype": {"type": "DT_FLOAT"}}}, {"name": "StatefulPartitionedCall/depth_estimate/encoder/functional_1/conv4_block5_1_conv/Conv2D_bn_offset", "op": "Const", "attr": {"value": {"tensor": {"dtype": "DT_FLOAT", "tensorShape": {"dim": [{"size": "128"}]}}}, "dtype": {"type": "DT_FLOAT"}}}, {"name": "StatefulPartitionedCall/depth_estimate/encoder/functional_1/conv4_block6_1_conv/Conv2D_weights", "op": "Const", "attr": {"value": {"tensor": {"dtype": "DT_FLOAT", "tensorShape": {"dim": [{"size": "1"}, {"size": "1"}, {"size": "416"}, {"size": "128"}]}}}, "dtype": {"type": "DT_FLOAT"}}}, {"name": "StatefulPartitionedCall/depth_estimate/encoder/functional_1/conv4_block6_1_conv/Conv2D_bn_offset", "op": "Const", "attr": {"value": {"tensor": {"dtype": "DT_FLOAT", "tensorShape": {"dim": [{"size": "128"}]}}}, "dtype": {"type": "DT_FLOAT"}}}, {"name": "StatefulPartitionedCall/depth_estimate/encoder/functional_1/conv3_block12_0_bn/FusedBatchNormV3/Offset", "op": "Const", "attr": {"dtype": {"type": "DT_FLOAT"}, "value": {"tensor": {"dtype": "DT_FLOAT", "tensorShape": {"dim": [{"size": "480"}]}}}}}, {"name": "StatefulPartitionedCall/depth_estimate/encoder/functional_1/conv4_block7_1_conv/Conv2D_weights", "op": "Const", "attr": {"value": {"tensor": {"dtype": "DT_FLOAT", "tensorShape": {"dim": [{"size": "1"}, {"size": "1"}, {"size": "448"}, {"size": "128"}]}}}, "dtype": {"type": "DT_FLOAT"}}}, {"name": "StatefulPartitionedCall/depth_estimate/encoder/functional_1/conv4_block7_1_conv/Conv2D_bn_offset", "op": "Const", "attr": {"value": {"tensor": {"dtype": "DT_FLOAT", "tensorShape": {"dim": [{"size": "128"}]}}}, "dtype": {"type": "DT_FLOAT"}}}, {"name": "StatefulPartitionedCall/depth_estimate/encoder/functional_1/conv4_block8_1_conv/Conv2D_weights", "op": "Const", "attr": {"value": {"tensor": {"dtype": "DT_FLOAT", "tensorShape": {"dim": [{"size": "1"}, {"size": "1"}, {"size": "480"}, {"size": "128"}]}}}, "dtype": {"type": "DT_FLOAT"}}}, {"name": "StatefulPartitionedCall/depth_estimate/encoder/functional_1/conv4_block8_1_conv/Conv2D_bn_offset", "op": "Const", "attr": {"dtype": {"type": "DT_FLOAT"}, "value": {"tensor": {"dtype": "DT_FLOAT", "tensorShape": {"dim": [{"size": "128"}]}}}}}, {"name": "StatefulPartitionedCall/depth_estimate/encoder/functional_1/conv3_block11_0_bn/FusedBatchNormV3/Scaled", "op": "Const", "attr": {"dtype": {"type": "DT_FLOAT"}, "value": {"tensor": {"dtype": "DT_FLOAT", "tensorShape": {"dim": [{"size": "448"}]}}}}}, {"name": "StatefulPartitionedCall/depth_estimate/encoder/functional_1/conv4_block9_1_conv/Conv2D_weights", "op": "Const", "attr": {"value": {"tensor": {"dtype": "DT_FLOAT", "tensorShape": {"dim": [{"size": "1"}, {"size": "1"}, {"size": "512"}, {"size": "128"}]}}}, "dtype": {"type": "DT_FLOAT"}}}, {"name": "StatefulPartitionedCall/depth_estimate/encoder/functional_1/conv4_block9_1_conv/Conv2D_bn_offset", "op": "Const", "attr": {"value": {"tensor": {"dtype": "DT_FLOAT", "tensorShape": {"dim": [{"size": "128"}]}}}, "dtype": {"type": "DT_FLOAT"}}}, {"name": "StatefulPartitionedCall/depth_estimate/encoder/functional_1/conv4_block10_1_conv/Conv2D_weights", "op": "Const", "attr": {"value": {"tensor": {"dtype": "DT_FLOAT", "tensorShape": {"dim": [{"size": "1"}, {"size": "1"}, {"size": "544"}, {"size": "128"}]}}}, "dtype": {"type": "DT_FLOAT"}}}, {"name": "StatefulPartitionedCall/depth_estimate/encoder/functional_1/conv3_block11_0_bn/FusedBatchNormV3/Offset", "op": "Const", "attr": {"value": {"tensor": {"dtype": "DT_FLOAT", "tensorShape": {"dim": [{"size": "448"}]}}}, "dtype": {"type": "DT_FLOAT"}}}, {"name": "StatefulPartitionedCall/depth_estimate/encoder/functional_1/conv4_block10_1_conv/Conv2D_bn_offset", "op": "Const", "attr": {"value": {"tensor": {"dtype": "DT_FLOAT", "tensorShape": {"dim": [{"size": "128"}]}}}, "dtype": {"type": "DT_FLOAT"}}}, {"name": "StatefulPartitionedCall/depth_estimate/encoder/functional_1/conv4_block11_1_conv/Conv2D_weights", "op": "Const", "attr": {"value": {"tensor": {"dtype": "DT_FLOAT", "tensorShape": {"dim": [{"size": "1"}, {"size": "1"}, {"size": "576"}, {"size": "128"}]}}}, "dtype": {"type": "DT_FLOAT"}}}, {"name": "StatefulPartitionedCall/depth_estimate/encoder/functional_1/conv4_block11_1_conv/Conv2D_bn_offset", "op": "Const", "attr": {"dtype": {"type": "DT_FLOAT"}, "value": {"tensor": {"dtype": "DT_FLOAT", "tensorShape": {"dim": [{"size": "128"}]}}}}}, {"name": "StatefulPartitionedCall/depth_estimate/encoder/functional_1/conv4_block12_1_conv/Conv2D_weights", "op": "Const", "attr": {"value": {"tensor": {"dtype": "DT_FLOAT", "tensorShape": {"dim": [{"size": "1"}, {"size": "1"}, {"size": "608"}, {"size": "128"}]}}}, "dtype": {"type": "DT_FLOAT"}}}, {"name": "StatefulPartitionedCall/depth_estimate/encoder/functional_1/conv3_block10_0_bn/FusedBatchNormV3/Scaled", "op": "Const", "attr": {"value": {"tensor": {"dtype": "DT_FLOAT", "tensorShape": {"dim": [{"size": "416"}]}}}, "dtype": {"type": "DT_FLOAT"}}}, {"name": "StatefulPartitionedCall/depth_estimate/encoder/functional_1/conv4_block12_1_conv/Conv2D_bn_offset", "op": "Const", "attr": {"dtype": {"type": "DT_FLOAT"}, "value": {"tensor": {"dtype": "DT_FLOAT", "tensorShape": {"dim": [{"size": "128"}]}}}}}, {"name": "StatefulPartitionedCall/depth_estimate/encoder/functional_1/conv4_block13_1_conv/Conv2D_weights", "op": "Const", "attr": {"value": {"tensor": {"dtype": "DT_FLOAT", "tensorShape": {"dim": [{"size": "1"}, {"size": "1"}, {"size": "640"}, {"size": "128"}]}}}, "dtype": {"type": "DT_FLOAT"}}}, {"name": "StatefulPartitionedCall/depth_estimate/encoder/functional_1/conv4_block13_1_conv/Conv2D_bn_offset", "op": "Const", "attr": {"value": {"tensor": {"dtype": "DT_FLOAT", "tensorShape": {"dim": [{"size": "128"}]}}}, "dtype": {"type": "DT_FLOAT"}}}, {"name": "StatefulPartitionedCall/depth_estimate/encoder/functional_1/conv3_block10_0_bn/FusedBatchNormV3/Offset", "op": "Const", "attr": {"value": {"tensor": {"dtype": "DT_FLOAT", "tensorShape": {"dim": [{"size": "416"}]}}}, "dtype": {"type": "DT_FLOAT"}}}, {"name": "StatefulPartitionedCall/depth_estimate/encoder/functional_1/conv4_block14_1_conv/Conv2D_weights", "op": "Const", "attr": {"value": {"tensor": {"dtype": "DT_FLOAT", "tensorShape": {"dim": [{"size": "1"}, {"size": "1"}, {"size": "672"}, {"size": "128"}]}}}, "dtype": {"type": "DT_FLOAT"}}}, {"name": "StatefulPartitionedCall/depth_estimate/encoder/functional_1/conv4_block14_1_conv/Conv2D_bn_offset", "op": "Const", "attr": {"value": {"tensor": {"dtype": "DT_FLOAT", "tensorShape": {"dim": [{"size": "128"}]}}}, "dtype": {"type": "DT_FLOAT"}}}, {"name": "StatefulPartitionedCall/depth_estimate/encoder/functional_1/conv4_block15_1_conv/Conv2D_weights", "op": "Const", "attr": {"value": {"tensor": {"dtype": "DT_FLOAT", "tensorShape": {"dim": [{"size": "1"}, {"size": "1"}, {"size": "704"}, {"size": "128"}]}}}, "dtype": {"type": "DT_FLOAT"}}}, {"name": "StatefulPartitionedCall/depth_estimate/encoder/functional_1/conv4_block15_1_conv/Conv2D_bn_offset", "op": "Const", "attr": {"dtype": {"type": "DT_FLOAT"}, "value": {"tensor": {"dtype": "DT_FLOAT", "tensorShape": {"dim": [{"size": "128"}]}}}}}, {"name": "StatefulPartitionedCall/depth_estimate/encoder/functional_1/conv3_block9_0_bn/FusedBatchNormV3/Scaled", "op": "Const", "attr": {"value": {"tensor": {"dtype": "DT_FLOAT", "tensorShape": {"dim": [{"size": "384"}]}}}, "dtype": {"type": "DT_FLOAT"}}}, {"name": "StatefulPartitionedCall/depth_estimate/encoder/functional_1/conv4_block16_1_conv/Conv2D_weights", "op": "Const", "attr": {"dtype": {"type": "DT_FLOAT"}, "value": {"tensor": {"dtype": "DT_FLOAT", "tensorShape": {"dim": [{"size": "1"}, {"size": "1"}, {"size": "736"}, {"size": "128"}]}}}}}, {"name": "StatefulPartitionedCall/depth_estimate/encoder/functional_1/conv4_block16_1_conv/Conv2D_bn_offset", "op": "Const", "attr": {"value": {"tensor": {"dtype": "DT_FLOAT", "tensorShape": {"dim": [{"size": "128"}]}}}, "dtype": {"type": "DT_FLOAT"}}}, {"name": "StatefulPartitionedCall/depth_estimate/encoder/functional_1/conv4_block17_1_conv/Conv2D_weights", "op": "Const", "attr": {"value": {"tensor": {"dtype": "DT_FLOAT", "tensorShape": {"dim": [{"size": "1"}, {"size": "1"}, {"size": "768"}, {"size": "128"}]}}}, "dtype": {"type": "DT_FLOAT"}}}, {"name": "StatefulPartitionedCall/depth_estimate/encoder/functional_1/conv3_block9_0_bn/FusedBatchNormV3/Offset", "op": "Const", "attr": {"dtype": {"type": "DT_FLOAT"}, "value": {"tensor": {"dtype": "DT_FLOAT", "tensorShape": {"dim": [{"size": "384"}]}}}}}, {"name": "StatefulPartitionedCall/depth_estimate/encoder/functional_1/conv4_block17_1_conv/Conv2D_bn_offset", "op": "Const", "attr": {"value": {"tensor": {"dtype": "DT_FLOAT", "tensorShape": {"dim": [{"size": "128"}]}}}, "dtype": {"type": "DT_FLOAT"}}}, {"name": "StatefulPartitionedCall/depth_estimate/encoder/functional_1/conv4_block18_1_conv/Conv2D_weights", "op": "Const", "attr": {"value": {"tensor": {"dtype": "DT_FLOAT", "tensorShape": {"dim": [{"size": "1"}, {"size": "1"}, {"size": "800"}, {"size": "128"}]}}}, "dtype": {"type": "DT_FLOAT"}}}, {"name": "StatefulPartitionedCall/depth_estimate/encoder/functional_1/conv4_block18_1_conv/Conv2D_bn_offset", "op": "Const", "attr": {"dtype": {"type": "DT_FLOAT"}, "value": {"tensor": {"dtype": "DT_FLOAT", "tensorShape": {"dim": [{"size": "128"}]}}}}}, {"name": "StatefulPartitionedCall/depth_estimate/encoder/functional_1/conv4_block19_1_conv/Conv2D_weights", "op": "Const", "attr": {"value": {"tensor": {"dtype": "DT_FLOAT", "tensorShape": {"dim": [{"size": "1"}, {"size": "1"}, {"size": "832"}, {"size": "128"}]}}}, "dtype": {"type": "DT_FLOAT"}}}, {"name": "StatefulPartitionedCall/depth_estimate/encoder/functional_1/conv3_block8_0_bn/FusedBatchNormV3/Scaled", "op": "Const", "attr": {"value": {"tensor": {"dtype": "DT_FLOAT", "tensorShape": {"dim": [{"size": "352"}]}}}, "dtype": {"type": "DT_FLOAT"}}}, {"name": "StatefulPartitionedCall/depth_estimate/encoder/functional_1/conv4_block19_1_conv/Conv2D_bn_offset", "op": "Const", "attr": {"dtype": {"type": "DT_FLOAT"}, "value": {"tensor": {"dtype": "DT_FLOAT", "tensorShape": {"dim": [{"size": "128"}]}}}}}, {"name": "StatefulPartitionedCall/depth_estimate/encoder/functional_1/conv4_block20_1_conv/Conv2D_weights", "op": "Const", "attr": {"dtype": {"type": "DT_FLOAT"}, "value": {"tensor": {"dtype": "DT_FLOAT", "tensorShape": {"dim": [{"size": "1"}, {"size": "1"}, {"size": "864"}, {"size": "128"}]}}}}}, {"name": "StatefulPartitionedCall/depth_estimate/encoder/functional_1/conv4_block20_1_conv/Conv2D_bn_offset", "op": "Const", "attr": {"value": {"tensor": {"dtype": "DT_FLOAT", "tensorShape": {"dim": [{"size": "128"}]}}}, "dtype": {"type": "DT_FLOAT"}}}, {"name": "StatefulPartitionedCall/depth_estimate/encoder/functional_1/conv3_block8_0_bn/FusedBatchNormV3/Offset", "op": "Const", "attr": {"value": {"tensor": {"dtype": "DT_FLOAT", "tensorShape": {"dim": [{"size": "352"}]}}}, "dtype": {"type": "DT_FLOAT"}}}, {"name": "StatefulPartitionedCall/depth_estimate/encoder/functional_1/conv4_block21_1_conv/Conv2D_weights", "op": "Const", "attr": {"value": {"tensor": {"dtype": "DT_FLOAT", "tensorShape": {"dim": [{"size": "1"}, {"size": "1"}, {"size": "896"}, {"size": "128"}]}}}, "dtype": {"type": "DT_FLOAT"}}}, {"name": "StatefulPartitionedCall/depth_estimate/encoder/functional_1/conv4_block21_1_conv/Conv2D_bn_offset", "op": "Const", "attr": {"value": {"tensor": {"dtype": "DT_FLOAT", "tensorShape": {"dim": [{"size": "128"}]}}}, "dtype": {"type": "DT_FLOAT"}}}, {"name": "StatefulPartitionedCall/depth_estimate/encoder/functional_1/conv4_block22_1_conv/Conv2D_weights", "op": "Const", "attr": {"value": {"tensor": {"dtype": "DT_FLOAT", "tensorShape": {"dim": [{"size": "1"}, {"size": "1"}, {"size": "928"}, {"size": "128"}]}}}, "dtype": {"type": "DT_FLOAT"}}}, {"name": "StatefulPartitionedCall/depth_estimate/encoder/functional_1/conv4_block22_1_conv/Conv2D_bn_offset", "op": "Const", "attr": {"dtype": {"type": "DT_FLOAT"}, "value": {"tensor": {"dtype": "DT_FLOAT", "tensorShape": {"dim": [{"size": "128"}]}}}}}, {"name": "StatefulPartitionedCall/depth_estimate/encoder/functional_1/conv3_block7_0_bn/FusedBatchNormV3/Scaled", "op": "Const", "attr": {"value": {"tensor": {"dtype": "DT_FLOAT", "tensorShape": {"dim": [{"size": "320"}]}}}, "dtype": {"type": "DT_FLOAT"}}}, {"name": "StatefulPartitionedCall/depth_estimate/encoder/functional_1/conv4_block23_1_conv/Conv2D_weights", "op": "Const", "attr": {"dtype": {"type": "DT_FLOAT"}, "value": {"tensor": {"dtype": "DT_FLOAT", "tensorShape": {"dim": [{"size": "1"}, {"size": "1"}, {"size": "960"}, {"size": "128"}]}}}}}, {"name": "StatefulPartitionedCall/depth_estimate/encoder/functional_1/conv4_block23_1_conv/Conv2D_bn_offset", "op": "Const", "attr": {"value": {"tensor": {"dtype": "DT_FLOAT", "tensorShape": {"dim": [{"size": "128"}]}}}, "dtype": {"type": "DT_FLOAT"}}}, {"name": "StatefulPartitionedCall/depth_estimate/encoder/functional_1/conv4_block24_1_conv/Conv2D_weights", "op": "Const", "attr": {"value": {"tensor": {"dtype": "DT_FLOAT", "tensorShape": {"dim": [{"size": "1"}, {"size": "1"}, {"size": "992"}, {"size": "128"}]}}}, "dtype": {"type": "DT_FLOAT"}}}, {"name": "StatefulPartitionedCall/depth_estimate/encoder/functional_1/conv3_block7_0_bn/FusedBatchNormV3/Offset", "op": "Const", "attr": {"value": {"tensor": {"dtype": "DT_FLOAT", "tensorShape": {"dim": [{"size": "320"}]}}}, "dtype": {"type": "DT_FLOAT"}}}, {"name": "StatefulPartitionedCall/depth_estimate/encoder/functional_1/conv4_block24_1_conv/Conv2D_bn_offset", "op": "Const", "attr": {"value": {"tensor": {"dtype": "DT_FLOAT", "tensorShape": {"dim": [{"size": "128"}]}}}, "dtype": {"type": "DT_FLOAT"}}}, {"name": "StatefulPartitionedCall/depth_estimate/encoder/functional_1/conv4_block25_1_conv/Conv2D_weights", "op": "Const", "attr": {"dtype": {"type": "DT_FLOAT"}, "value": {"tensor": {"dtype": "DT_FLOAT", "tensorShape": {"dim": [{"size": "1"}, {"size": "1"}, {"size": "1024"}, {"size": "128"}]}}}}}, {"name": "StatefulPartitionedCall/depth_estimate/encoder/functional_1/conv4_block25_1_conv/Conv2D_bn_offset", "op": "Const", "attr": {"value": {"tensor": {"dtype": "DT_FLOAT", "tensorShape": {"dim": [{"size": "128"}]}}}, "dtype": {"type": "DT_FLOAT"}}}, {"name": "StatefulPartitionedCall/depth_estimate/encoder/functional_1/conv4_block26_1_conv/Conv2D_weights", "op": "Const", "attr": {"value": {"tensor": {"dtype": "DT_FLOAT", "tensorShape": {"dim": [{"size": "1"}, {"size": "1"}, {"size": "1056"}, {"size": "128"}]}}}, "dtype": {"type": "DT_FLOAT"}}}, {"name": "StatefulPartitionedCall/depth_estimate/encoder/functional_1/conv3_block6_0_bn/FusedBatchNormV3/Scaled", "op": "Const", "attr": {"value": {"tensor": {"dtype": "DT_FLOAT", "tensorShape": {"dim": [{"size": "288"}]}}}, "dtype": {"type": "DT_FLOAT"}}}, {"name": "StatefulPartitionedCall/depth_estimate/encoder/functional_1/conv4_block26_1_conv/Conv2D_bn_offset", "op": "Const", "attr": {"value": {"tensor": {"dtype": "DT_FLOAT", "tensorShape": {"dim": [{"size": "128"}]}}}, "dtype": {"type": "DT_FLOAT"}}}, {"name": "StatefulPartitionedCall/depth_estimate/encoder/functional_1/conv4_block27_1_conv/Conv2D_weights", "op": "Const", "attr": {"value": {"tensor": {"dtype": "DT_FLOAT", "tensorShape": {"dim": [{"size": "1"}, {"size": "1"}, {"size": "1088"}, {"size": "128"}]}}}, "dtype": {"type": "DT_FLOAT"}}}, {"name": "StatefulPartitionedCall/depth_estimate/encoder/functional_1/conv4_block27_1_conv/Conv2D_bn_offset", "op": "Const", "attr": {"value": {"tensor": {"dtype": "DT_FLOAT", "tensorShape": {"dim": [{"size": "128"}]}}}, "dtype": {"type": "DT_FLOAT"}}}, {"name": "StatefulPartitionedCall/depth_estimate/encoder/functional_1/conv3_block6_0_bn/FusedBatchNormV3/Offset", "op": "Const", "attr": {"value": {"tensor": {"dtype": "DT_FLOAT", "tensorShape": {"dim": [{"size": "288"}]}}}, "dtype": {"type": "DT_FLOAT"}}}, {"name": "StatefulPartitionedCall/depth_estimate/encoder/functional_1/conv4_block28_1_conv/Conv2D_weights", "op": "Const", "attr": {"value": {"tensor": {"dtype": "DT_FLOAT", "tensorShape": {"dim": [{"size": "1"}, {"size": "1"}, {"size": "1120"}, {"size": "128"}]}}}, "dtype": {"type": "DT_FLOAT"}}}, {"name": "StatefulPartitionedCall/depth_estimate/encoder/functional_1/conv4_block28_1_conv/Conv2D_bn_offset", "op": "Const", "attr": {"value": {"tensor": {"dtype": "DT_FLOAT", "tensorShape": {"dim": [{"size": "128"}]}}}, "dtype": {"type": "DT_FLOAT"}}}, {"name": "StatefulPartitionedCall/depth_estimate/encoder/functional_1/conv4_block29_1_conv/Conv2D_weights", "op": "Const", "attr": {"value": {"tensor": {"dtype": "DT_FLOAT", "tensorShape": {"dim": [{"size": "1"}, {"size": "1"}, {"size": "1152"}, {"size": "128"}]}}}, "dtype": {"type": "DT_FLOAT"}}}, {"name": "StatefulPartitionedCall/depth_estimate/encoder/functional_1/conv4_block29_1_conv/Conv2D_bn_offset", "op": "Const", "attr": {"dtype": {"type": "DT_FLOAT"}, "value": {"tensor": {"dtype": "DT_FLOAT", "tensorShape": {"dim": [{"size": "128"}]}}}}}, {"name": "StatefulPartitionedCall/depth_estimate/encoder/functional_1/conv3_block5_0_bn/FusedBatchNormV3/Scaled", "op": "Const", "attr": {"dtype": {"type": "DT_FLOAT"}, "value": {"tensor": {"dtype": "DT_FLOAT", "tensorShape": {"dim": [{"size": "256"}]}}}}}, {"name": "StatefulPartitionedCall/depth_estimate/encoder/functional_1/conv4_block30_1_conv/Conv2D_weights", "op": "Const", "attr": {"value": {"tensor": {"dtype": "DT_FLOAT", "tensorShape": {"dim": [{"size": "1"}, {"size": "1"}, {"size": "1184"}, {"size": "128"}]}}}, "dtype": {"type": "DT_FLOAT"}}}, {"name": "StatefulPartitionedCall/depth_estimate/encoder/functional_1/conv4_block30_1_conv/Conv2D_bn_offset", "op": "Const", "attr": {"dtype": {"type": "DT_FLOAT"}, "value": {"tensor": {"dtype": "DT_FLOAT", "tensorShape": {"dim": [{"size": "128"}]}}}}}, {"name": "StatefulPartitionedCall/depth_estimate/encoder/functional_1/conv4_block31_1_conv/Conv2D_weights", "op": "Const", "attr": {"value": {"tensor": {"dtype": "DT_FLOAT", "tensorShape": {"dim": [{"size": "1"}, {"size": "1"}, {"size": "1216"}, {"size": "128"}]}}}, "dtype": {"type": "DT_FLOAT"}}}, {"name": "StatefulPartitionedCall/depth_estimate/encoder/functional_1/conv3_block5_0_bn/FusedBatchNormV3/Offset", "op": "Const", "attr": {"value": {"tensor": {"dtype": "DT_FLOAT", "tensorShape": {"dim": [{"size": "256"}]}}}, "dtype": {"type": "DT_FLOAT"}}}, {"name": "StatefulPartitionedCall/depth_estimate/encoder/functional_1/conv4_block31_1_conv/Conv2D_bn_offset", "op": "Const", "attr": {"dtype": {"type": "DT_FLOAT"}, "value": {"tensor": {"dtype": "DT_FLOAT", "tensorShape": {"dim": [{"size": "128"}]}}}}}, {"name": "StatefulPartitionedCall/depth_estimate/encoder/functional_1/conv4_block32_1_conv/Conv2D_weights", "op": "Const", "attr": {"value": {"tensor": {"dtype": "DT_FLOAT", "tensorShape": {"dim": [{"size": "1"}, {"size": "1"}, {"size": "1248"}, {"size": "128"}]}}}, "dtype": {"type": "DT_FLOAT"}}}, {"name": "StatefulPartitionedCall/depth_estimate/encoder/functional_1/conv4_block32_1_conv/Conv2D_bn_offset", "op": "Const", "attr": {"value": {"tensor": {"dtype": "DT_FLOAT", "tensorShape": {"dim": [{"size": "128"}]}}}, "dtype": {"type": "DT_FLOAT"}}}, {"name": "StatefulPartitionedCall/depth_estimate/encoder/functional_1/conv5_block1_1_conv/Conv2D_weights", "op": "Const", "attr": {"value": {"tensor": {"dtype": "DT_FLOAT", "tensorShape": {"dim": [{"size": "1"}, {"size": "1"}, {"size": "640"}, {"size": "128"}]}}}, "dtype": {"type": "DT_FLOAT"}}}, {"name": "StatefulPartitionedCall/depth_estimate/encoder/functional_1/conv3_block4_0_bn/FusedBatchNormV3/Scaled", "op": "Const", "attr": {"value": {"tensor": {"dtype": "DT_FLOAT", "tensorShape": {"dim": [{"size": "224"}]}}}, "dtype": {"type": "DT_FLOAT"}}}, {"name": "StatefulPartitionedCall/depth_estimate/encoder/functional_1/conv5_block1_1_conv/Conv2D_bn_offset", "op": "Const", "attr": {"value": {"tensor": {"dtype": "DT_FLOAT", "tensorShape": {"dim": [{"size": "128"}]}}}, "dtype": {"type": "DT_FLOAT"}}}, {"name": "StatefulPartitionedCall/depth_estimate/encoder/functional_1/conv5_block2_1_conv/Conv2D_weights", "op": "Const", "attr": {"value": {"tensor": {"dtype": "DT_FLOAT", "tensorShape": {"dim": [{"size": "1"}, {"size": "1"}, {"size": "672"}, {"size": "128"}]}}}, "dtype": {"type": "DT_FLOAT"}}}, {"name": "StatefulPartitionedCall/depth_estimate/encoder/functional_1/conv5_block2_1_conv/Conv2D_bn_offset", "op": "Const", "attr": {"value": {"tensor": {"dtype": "DT_FLOAT", "tensorShape": {"dim": [{"size": "128"}]}}}, "dtype": {"type": "DT_FLOAT"}}}, {"name": "StatefulPartitionedCall/depth_estimate/encoder/functional_1/conv3_block4_0_bn/FusedBatchNormV3/Offset", "op": "Const", "attr": {"value": {"tensor": {"dtype": "DT_FLOAT", "tensorShape": {"dim": [{"size": "224"}]}}}, "dtype": {"type": "DT_FLOAT"}}}, {"name": "StatefulPartitionedCall/depth_estimate/encoder/functional_1/conv5_block3_1_conv/Conv2D_weights", "op": "Const", "attr": {"value": {"tensor": {"dtype": "DT_FLOAT", "tensorShape": {"dim": [{"size": "1"}, {"size": "1"}, {"size": "704"}, {"size": "128"}]}}}, "dtype": {"type": "DT_FLOAT"}}}, {"name": "StatefulPartitionedCall/depth_estimate/encoder/functional_1/conv5_block3_1_conv/Conv2D_bn_offset", "op": "Const", "attr": {"dtype": {"type": "DT_FLOAT"}, "value": {"tensor": {"dtype": "DT_FLOAT", "tensorShape": {"dim": [{"size": "128"}]}}}}}, {"name": "StatefulPartitionedCall/depth_estimate/encoder/functional_1/conv5_block4_1_conv/Conv2D_weights", "op": "Const", "attr": {"dtype": {"type": "DT_FLOAT"}, "value": {"tensor": {"dtype": "DT_FLOAT", "tensorShape": {"dim": [{"size": "1"}, {"size": "1"}, {"size": "736"}, {"size": "128"}]}}}}}, {"name": "StatefulPartitionedCall/depth_estimate/encoder/functional_1/conv5_block4_1_conv/Conv2D_bn_offset", "op": "Const", "attr": {"dtype": {"type": "DT_FLOAT"}, "value": {"tensor": {"dtype": "DT_FLOAT", "tensorShape": {"dim": [{"size": "128"}]}}}}}, {"name": "StatefulPartitionedCall/depth_estimate/encoder/functional_1/conv3_block3_0_bn/FusedBatchNormV3/Scaled", "op": "Const", "attr": {"value": {"tensor": {"dtype": "DT_FLOAT", "tensorShape": {"dim": [{"size": "192"}]}}}, "dtype": {"type": "DT_FLOAT"}}}, {"name": "StatefulPartitionedCall/depth_estimate/encoder/functional_1/conv5_block5_1_conv/Conv2D_weights", "op": "Const", "attr": {"value": {"tensor": {"dtype": "DT_FLOAT", "tensorShape": {"dim": [{"size": "1"}, {"size": "1"}, {"size": "768"}, {"size": "128"}]}}}, "dtype": {"type": "DT_FLOAT"}}}, {"name": "StatefulPartitionedCall/depth_estimate/encoder/functional_1/conv5_block5_1_conv/Conv2D_bn_offset", "op": "Const", "attr": {"value": {"tensor": {"dtype": "DT_FLOAT", "tensorShape": {"dim": [{"size": "128"}]}}}, "dtype": {"type": "DT_FLOAT"}}}, {"name": "StatefulPartitionedCall/depth_estimate/encoder/functional_1/conv5_block6_1_conv/Conv2D_weights", "op": "Const", "attr": {"value": {"tensor": {"dtype": "DT_FLOAT", "tensorShape": {"dim": [{"size": "1"}, {"size": "1"}, {"size": "800"}, {"size": "128"}]}}}, "dtype": {"type": "DT_FLOAT"}}}, {"name": "StatefulPartitionedCall/depth_estimate/encoder/functional_1/conv3_block3_0_bn/FusedBatchNormV3/Offset", "op": "Const", "attr": {"value": {"tensor": {"dtype": "DT_FLOAT", "tensorShape": {"dim": [{"size": "192"}]}}}, "dtype": {"type": "DT_FLOAT"}}}, {"name": "StatefulPartitionedCall/depth_estimate/encoder/functional_1/conv5_block6_1_conv/Conv2D_bn_offset", "op": "Const", "attr": {"value": {"tensor": {"dtype": "DT_FLOAT", "tensorShape": {"dim": [{"size": "128"}]}}}, "dtype": {"type": "DT_FLOAT"}}}, {"name": "StatefulPartitionedCall/depth_estimate/encoder/functional_1/conv5_block7_1_conv/Conv2D_weights", "op": "Const", "attr": {"value": {"tensor": {"dtype": "DT_FLOAT", "tensorShape": {"dim": [{"size": "1"}, {"size": "1"}, {"size": "832"}, {"size": "128"}]}}}, "dtype": {"type": "DT_FLOAT"}}}, {"name": "StatefulPartitionedCall/depth_estimate/encoder/functional_1/conv5_block7_1_conv/Conv2D_bn_offset", "op": "Const", "attr": {"dtype": {"type": "DT_FLOAT"}, "value": {"tensor": {"dtype": "DT_FLOAT", "tensorShape": {"dim": [{"size": "128"}]}}}}}, {"name": "StatefulPartitionedCall/depth_estimate/encoder/functional_1/conv5_block8_1_conv/Conv2D_weights", "op": "Const", "attr": {"value": {"tensor": {"dtype": "DT_FLOAT", "tensorShape": {"dim": [{"size": "1"}, {"size": "1"}, {"size": "864"}, {"size": "128"}]}}}, "dtype": {"type": "DT_FLOAT"}}}, {"name": "StatefulPartitionedCall/depth_estimate/encoder/functional_1/conv3_block2_0_bn/FusedBatchNormV3/Scaled", "op": "Const", "attr": {"value": {"tensor": {"dtype": "DT_FLOAT", "tensorShape": {"dim": [{"size": "160"}]}}}, "dtype": {"type": "DT_FLOAT"}}}, {"name": "StatefulPartitionedCall/depth_estimate/encoder/functional_1/conv5_block8_1_conv/Conv2D_bn_offset", "op": "Const", "attr": {"value": {"tensor": {"dtype": "DT_FLOAT", "tensorShape": {"dim": [{"size": "128"}]}}}, "dtype": {"type": "DT_FLOAT"}}}, {"name": "StatefulPartitionedCall/depth_estimate/encoder/functional_1/conv5_block9_1_conv/Conv2D_weights", "op": "Const", "attr": {"value": {"tensor": {"dtype": "DT_FLOAT", "tensorShape": {"dim": [{"size": "1"}, {"size": "1"}, {"size": "896"}, {"size": "128"}]}}}, "dtype": {"type": "DT_FLOAT"}}}, {"name": "StatefulPartitionedCall/depth_estimate/encoder/functional_1/conv5_block9_1_conv/Conv2D_bn_offset", "op": "Const", "attr": {"value": {"tensor": {"dtype": "DT_FLOAT", "tensorShape": {"dim": [{"size": "128"}]}}}, "dtype": {"type": "DT_FLOAT"}}}, {"name": "StatefulPartitionedCall/depth_estimate/encoder/functional_1/conv3_block2_0_bn/FusedBatchNormV3/Offset", "op": "Const", "attr": {"value": {"tensor": {"dtype": "DT_FLOAT", "tensorShape": {"dim": [{"size": "160"}]}}}, "dtype": {"type": "DT_FLOAT"}}}, {"name": "StatefulPartitionedCall/depth_estimate/encoder/functional_1/conv5_block10_1_conv/Conv2D_weights", "op": "Const", "attr": {"value": {"tensor": {"dtype": "DT_FLOAT", "tensorShape": {"dim": [{"size": "1"}, {"size": "1"}, {"size": "928"}, {"size": "128"}]}}}, "dtype": {"type": "DT_FLOAT"}}}, {"name": "StatefulPartitionedCall/depth_estimate/encoder/functional_1/conv5_block10_1_conv/Conv2D_bn_offset", "op": "Const", "attr": {"value": {"tensor": {"dtype": "DT_FLOAT", "tensorShape": {"dim": [{"size": "128"}]}}}, "dtype": {"type": "DT_FLOAT"}}}, {"name": "StatefulPartitionedCall/depth_estimate/encoder/functional_1/conv5_block11_1_conv/Conv2D_weights", "op": "Const", "attr": {"dtype": {"type": "DT_FLOAT"}, "value": {"tensor": {"dtype": "DT_FLOAT", "tensorShape": {"dim": [{"size": "1"}, {"size": "1"}, {"size": "960"}, {"size": "128"}]}}}}}, {"name": "StatefulPartitionedCall/depth_estimate/encoder/functional_1/conv5_block11_1_conv/Conv2D_bn_offset", "op": "Const", "attr": {"dtype": {"type": "DT_FLOAT"}, "value": {"tensor": {"dtype": "DT_FLOAT", "tensorShape": {"dim": [{"size": "128"}]}}}}}, {"name": "StatefulPartitionedCall/depth_estimate/encoder/functional_1/conv3_block1_0_bn/FusedBatchNormV3/Scaled", "op": "Const", "attr": {"value": {"tensor": {"dtype": "DT_FLOAT", "tensorShape": {"dim": [{"size": "128"}]}}}, "dtype": {"type": "DT_FLOAT"}}}, {"name": "StatefulPartitionedCall/depth_estimate/encoder/functional_1/conv5_block12_1_conv/Conv2D_weights", "op": "Const", "attr": {"value": {"tensor": {"dtype": "DT_FLOAT", "tensorShape": {"dim": [{"size": "1"}, {"size": "1"}, {"size": "992"}, {"size": "128"}]}}}, "dtype": {"type": "DT_FLOAT"}}}, {"name": "StatefulPartitionedCall/depth_estimate/encoder/functional_1/conv5_block12_1_conv/Conv2D_bn_offset", "op": "Const", "attr": {"dtype": {"type": "DT_FLOAT"}, "value": {"tensor": {"dtype": "DT_FLOAT", "tensorShape": {"dim": [{"size": "128"}]}}}}}, {"name": "StatefulPartitionedCall/depth_estimate/encoder/functional_1/conv5_block13_1_conv/Conv2D_weights", "op": "Const", "attr": {"dtype": {"type": "DT_FLOAT"}, "value": {"tensor": {"dtype": "DT_FLOAT", "tensorShape": {"dim": [{"size": "1"}, {"size": "1"}, {"size": "1024"}, {"size": "128"}]}}}}}, {"name": "StatefulPartitionedCall/depth_estimate/encoder/functional_1/conv3_block1_0_bn/FusedBatchNormV3/Offset", "op": "Const", "attr": {"dtype": {"type": "DT_FLOAT"}, "value": {"tensor": {"dtype": "DT_FLOAT", "tensorShape": {"dim": [{"size": "128"}]}}}}}, {"name": "StatefulPartitionedCall/depth_estimate/encoder/functional_1/conv5_block13_1_conv/Conv2D_bn_offset", "op": "Const", "attr": {"value": {"tensor": {"dtype": "DT_FLOAT", "tensorShape": {"dim": [{"size": "128"}]}}}, "dtype": {"type": "DT_FLOAT"}}}, {"name": "StatefulPartitionedCall/depth_estimate/encoder/functional_1/conv5_block14_1_conv/Conv2D_weights", "op": "Const", "attr": {"dtype": {"type": "DT_FLOAT"}, "value": {"tensor": {"dtype": "DT_FLOAT", "tensorShape": {"dim": [{"size": "1"}, {"size": "1"}, {"size": "1056"}, {"size": "128"}]}}}}}, {"name": "StatefulPartitionedCall/depth_estimate/encoder/functional_1/conv5_block14_1_conv/Conv2D_bn_offset", "op": "Const", "attr": {"value": {"tensor": {"dtype": "DT_FLOAT", "tensorShape": {"dim": [{"size": "128"}]}}}, "dtype": {"type": "DT_FLOAT"}}}, {"name": "StatefulPartitionedCall/depth_estimate/encoder/functional_1/conv5_block15_1_conv/Conv2D_weights", "op": "Const", "attr": {"value": {"tensor": {"dtype": "DT_FLOAT", "tensorShape": {"dim": [{"size": "1"}, {"size": "1"}, {"size": "1088"}, {"size": "128"}]}}}, "dtype": {"type": "DT_FLOAT"}}}, {"name": "StatefulPartitionedCall/depth_estimate/encoder/functional_1/pool2_bn/FusedBatchNormV3/Scaled", "op": "Const", "attr": {"value": {"tensor": {"dtype": "DT_FLOAT", "tensorShape": {"dim": [{"size": "256"}]}}}, "dtype": {"type": "DT_FLOAT"}}}, {"name": "StatefulPartitionedCall/depth_estimate/encoder/functional_1/conv5_block15_1_conv/Conv2D_bn_offset", "op": "Const", "attr": {"dtype": {"type": "DT_FLOAT"}, "value": {"tensor": {"dtype": "DT_FLOAT", "tensorShape": {"dim": [{"size": "128"}]}}}}}, {"name": "StatefulPartitionedCall/depth_estimate/encoder/functional_1/conv5_block16_1_conv/Conv2D_weights", "op": "Const", "attr": {"value": {"tensor": {"dtype": "DT_FLOAT", "tensorShape": {"dim": [{"size": "1"}, {"size": "1"}, {"size": "1120"}, {"size": "128"}]}}}, "dtype": {"type": "DT_FLOAT"}}}, {"name": "StatefulPartitionedCall/depth_estimate/encoder/functional_1/conv5_block16_1_conv/Conv2D_bn_offset", "op": "Const", "attr": {"value": {"tensor": {"dtype": "DT_FLOAT", "tensorShape": {"dim": [{"size": "128"}]}}}, "dtype": {"type": "DT_FLOAT"}}}, {"name": "StatefulPartitionedCall/depth_estimate/encoder/functional_1/pool2_bn/FusedBatchNormV3/Offset", "op": "Const", "attr": {"value": {"tensor": {"dtype": "DT_FLOAT", "tensorShape": {"dim": [{"size": "256"}]}}}, "dtype": {"type": "DT_FLOAT"}}}, {"name": "StatefulPartitionedCall/depth_estimate/encoder/functional_1/conv5_block17_1_conv/Conv2D_weights", "op": "Const", "attr": {"value": {"tensor": {"dtype": "DT_FLOAT", "tensorShape": {"dim": [{"size": "1"}, {"size": "1"}, {"size": "1152"}, {"size": "128"}]}}}, "dtype": {"type": "DT_FLOAT"}}}, {"name": "StatefulPartitionedCall/depth_estimate/encoder/functional_1/conv5_block17_1_conv/Conv2D_bn_offset", "op": "Const", "attr": {"value": {"tensor": {"dtype": "DT_FLOAT", "tensorShape": {"dim": [{"size": "128"}]}}}, "dtype": {"type": "DT_FLOAT"}}}, {"name": "StatefulPartitionedCall/depth_estimate/encoder/functional_1/conv5_block18_1_conv/Conv2D_weights", "op": "Const", "attr": {"dtype": {"type": "DT_FLOAT"}, "value": {"tensor": {"dtype": "DT_FLOAT", "tensorShape": {"dim": [{"size": "1"}, {"size": "1"}, {"size": "1184"}, {"size": "128"}]}}}}}, {"name": "StatefulPartitionedCall/depth_estimate/encoder/functional_1/conv5_block18_1_conv/Conv2D_bn_offset", "op": "Const", "attr": {"dtype": {"type": "DT_FLOAT"}, "value": {"tensor": {"dtype": "DT_FLOAT", "tensorShape": {"dim": [{"size": "128"}]}}}}}, {"name": "StatefulPartitionedCall/depth_estimate/encoder/functional_1/conv2_block6_0_bn/FusedBatchNormV3/Scaled", "op": "Const", "attr": {"value": {"tensor": {"dtype": "DT_FLOAT", "tensorShape": {"dim": [{"size": "224"}]}}}, "dtype": {"type": "DT_FLOAT"}}}, {"name": "StatefulPartitionedCall/depth_estimate/encoder/functional_1/conv5_block19_1_conv/Conv2D_weights", "op": "Const", "attr": {"dtype": {"type": "DT_FLOAT"}, "value": {"tensor": {"dtype": "DT_FLOAT", "tensorShape": {"dim": [{"size": "1"}, {"size": "1"}, {"size": "1216"}, {"size": "128"}]}}}}}, {"name": "StatefulPartitionedCall/depth_estimate/encoder/functional_1/conv5_block19_1_conv/Conv2D_bn_offset", "op": "Const", "attr": {"value": {"tensor": {"dtype": "DT_FLOAT", "tensorShape": {"dim": [{"size": "128"}]}}}, "dtype": {"type": "DT_FLOAT"}}}, {"name": "StatefulPartitionedCall/depth_estimate/encoder/functional_1/conv5_block20_1_conv/Conv2D_weights", "op": "Const", "attr": {"value": {"tensor": {"dtype": "DT_FLOAT", "tensorShape": {"dim": [{"size": "1"}, {"size": "1"}, {"size": "1248"}, {"size": "128"}]}}}, "dtype": {"type": "DT_FLOAT"}}}, {"name": "StatefulPartitionedCall/depth_estimate/encoder/functional_1/conv2_block6_0_bn/FusedBatchNormV3/Offset", "op": "Const", "attr": {"dtype": {"type": "DT_FLOAT"}, "value": {"tensor": {"dtype": "DT_FLOAT", "tensorShape": {"dim": [{"size": "224"}]}}}}}, {"name": "StatefulPartitionedCall/depth_estimate/encoder/functional_1/conv5_block20_1_conv/Conv2D_bn_offset", "op": "Const", "attr": {"dtype": {"type": "DT_FLOAT"}, "value": {"tensor": {"dtype": "DT_FLOAT", "tensorShape": {"dim": [{"size": "128"}]}}}}}, {"name": "StatefulPartitionedCall/depth_estimate/encoder/functional_1/conv5_block21_1_conv/Conv2D_weights", "op": "Const", "attr": {"value": {"tensor": {"dtype": "DT_FLOAT", "tensorShape": {"dim": [{"size": "1"}, {"size": "1"}, {"size": "1280"}, {"size": "128"}]}}}, "dtype": {"type": "DT_FLOAT"}}}, {"name": "StatefulPartitionedCall/depth_estimate/encoder/functional_1/conv5_block21_1_conv/Conv2D_bn_offset", "op": "Const", "attr": {"value": {"tensor": {"dtype": "DT_FLOAT", "tensorShape": {"dim": [{"size": "128"}]}}}, "dtype": {"type": "DT_FLOAT"}}}, {"name": "StatefulPartitionedCall/depth_estimate/encoder/functional_1/conv5_block22_1_conv/Conv2D_weights", "op": "Const", "attr": {"dtype": {"type": "DT_FLOAT"}, "value": {"tensor": {"dtype": "DT_FLOAT", "tensorShape": {"dim": [{"size": "1"}, {"size": "1"}, {"size": "1312"}, {"size": "128"}]}}}}}, {"name": "StatefulPartitionedCall/depth_estimate/encoder/functional_1/conv2_block5_0_bn/FusedBatchNormV3/Scaled", "op": "Const", "attr": {"value": {"tensor": {"dtype": "DT_FLOAT", "tensorShape": {"dim": [{"size": "192"}]}}}, "dtype": {"type": "DT_FLOAT"}}}, {"name": "StatefulPartitionedCall/depth_estimate/encoder/functional_1/conv5_block22_1_conv/Conv2D_bn_offset", "op": "Const", "attr": {"value": {"tensor": {"dtype": "DT_FLOAT", "tensorShape": {"dim": [{"size": "128"}]}}}, "dtype": {"type": "DT_FLOAT"}}}, {"name": "StatefulPartitionedCall/depth_estimate/encoder/functional_1/conv5_block23_1_conv/Conv2D_weights", "op": "Const", "attr": {"value": {"tensor": {"dtype": "DT_FLOAT", "tensorShape": {"dim": [{"size": "1"}, {"size": "1"}, {"size": "1344"}, {"size": "128"}]}}}, "dtype": {"type": "DT_FLOAT"}}}, {"name": "StatefulPartitionedCall/depth_estimate/encoder/functional_1/conv5_block23_1_conv/Conv2D_bn_offset", "op": "Const", "attr": {"value": {"tensor": {"dtype": "DT_FLOAT", "tensorShape": {"dim": [{"size": "128"}]}}}, "dtype": {"type": "DT_FLOAT"}}}, {"name": "StatefulPartitionedCall/depth_estimate/encoder/functional_1/conv2_block5_0_bn/FusedBatchNormV3/Offset", "op": "Const", "attr": {"value": {"tensor": {"dtype": "DT_FLOAT", "tensorShape": {"dim": [{"size": "192"}]}}}, "dtype": {"type": "DT_FLOAT"}}}, {"name": "StatefulPartitionedCall/depth_estimate/encoder/functional_1/conv5_block24_1_conv/Conv2D_weights", "op": "Const", "attr": {"dtype": {"type": "DT_FLOAT"}, "value": {"tensor": {"dtype": "DT_FLOAT", "tensorShape": {"dim": [{"size": "1"}, {"size": "1"}, {"size": "1376"}, {"size": "128"}]}}}}}, {"name": "StatefulPartitionedCall/depth_estimate/encoder/functional_1/conv5_block24_1_conv/Conv2D_bn_offset", "op": "Const", "attr": {"dtype": {"type": "DT_FLOAT"}, "value": {"tensor": {"dtype": "DT_FLOAT", "tensorShape": {"dim": [{"size": "128"}]}}}}}, {"name": "StatefulPartitionedCall/depth_estimate/encoder/functional_1/conv5_block25_1_conv/Conv2D_weights", "op": "Const", "attr": {"value": {"tensor": {"dtype": "DT_FLOAT", "tensorShape": {"dim": [{"size": "1"}, {"size": "1"}, {"size": "1408"}, {"size": "128"}]}}}, "dtype": {"type": "DT_FLOAT"}}}, {"name": "StatefulPartitionedCall/depth_estimate/encoder/functional_1/conv5_block25_1_conv/Conv2D_bn_offset", "op": "Const", "attr": {"value": {"tensor": {"dtype": "DT_FLOAT", "tensorShape": {"dim": [{"size": "128"}]}}}, "dtype": {"type": "DT_FLOAT"}}}, {"name": "StatefulPartitionedCall/depth_estimate/encoder/functional_1/conv2_block4_0_bn/FusedBatchNormV3/Scaled", "op": "Const", "attr": {"value": {"tensor": {"dtype": "DT_FLOAT", "tensorShape": {"dim": [{"size": "160"}]}}}, "dtype": {"type": "DT_FLOAT"}}}, {"name": "StatefulPartitionedCall/depth_estimate/encoder/functional_1/conv5_block26_1_conv/Conv2D_weights", "op": "Const", "attr": {"value": {"tensor": {"dtype": "DT_FLOAT", "tensorShape": {"dim": [{"size": "1"}, {"size": "1"}, {"size": "1440"}, {"size": "128"}]}}}, "dtype": {"type": "DT_FLOAT"}}}, {"name": "StatefulPartitionedCall/depth_estimate/encoder/functional_1/conv5_block26_1_conv/Conv2D_bn_offset", "op": "Const", "attr": {"value": {"tensor": {"dtype": "DT_FLOAT", "tensorShape": {"dim": [{"size": "128"}]}}}, "dtype": {"type": "DT_FLOAT"}}}, {"name": "StatefulPartitionedCall/depth_estimate/encoder/functional_1/conv5_block27_1_conv/Conv2D_weights", "op": "Const", "attr": {"value": {"tensor": {"dtype": "DT_FLOAT", "tensorShape": {"dim": [{"size": "1"}, {"size": "1"}, {"size": "1472"}, {"size": "128"}]}}}, "dtype": {"type": "DT_FLOAT"}}}, {"name": "StatefulPartitionedCall/depth_estimate/encoder/functional_1/conv2_block4_0_bn/FusedBatchNormV3/Offset", "op": "Const", "attr": {"dtype": {"type": "DT_FLOAT"}, "value": {"tensor": {"dtype": "DT_FLOAT", "tensorShape": {"dim": [{"size": "160"}]}}}}}, {"name": "StatefulPartitionedCall/depth_estimate/encoder/functional_1/conv5_block27_1_conv/Conv2D_bn_offset", "op": "Const", "attr": {"value": {"tensor": {"dtype": "DT_FLOAT", "tensorShape": {"dim": [{"size": "128"}]}}}, "dtype": {"type": "DT_FLOAT"}}}, {"name": "StatefulPartitionedCall/depth_estimate/encoder/functional_1/conv5_block28_1_conv/Conv2D_weights", "op": "Const", "attr": {"value": {"tensor": {"dtype": "DT_FLOAT", "tensorShape": {"dim": [{"size": "1"}, {"size": "1"}, {"size": "1504"}, {"size": "128"}]}}}, "dtype": {"type": "DT_FLOAT"}}}, {"name": "StatefulPartitionedCall/depth_estimate/encoder/functional_1/conv5_block28_1_conv/Conv2D_bn_offset", "op": "Const", "attr": {"value": {"tensor": {"dtype": "DT_FLOAT", "tensorShape": {"dim": [{"size": "128"}]}}}, "dtype": {"type": "DT_FLOAT"}}}, {"name": "StatefulPartitionedCall/depth_estimate/encoder/functional_1/conv5_block29_1_conv/Conv2D_weights", "op": "Const", "attr": {"value": {"tensor": {"dtype": "DT_FLOAT", "tensorShape": {"dim": [{"size": "1"}, {"size": "1"}, {"size": "1536"}, {"size": "128"}]}}}, "dtype": {"type": "DT_FLOAT"}}}, {"name": "StatefulPartitionedCall/depth_estimate/encoder/functional_1/conv2_block3_0_bn/FusedBatchNormV3/Scaled", "op": "Const", "attr": {"value": {"tensor": {"dtype": "DT_FLOAT", "tensorShape": {"dim": [{"size": "128"}]}}}, "dtype": {"type": "DT_FLOAT"}}}, {"name": "StatefulPartitionedCall/depth_estimate/encoder/functional_1/conv5_block29_1_conv/Conv2D_bn_offset", "op": "Const", "attr": {"value": {"tensor": {"dtype": "DT_FLOAT", "tensorShape": {"dim": [{"size": "128"}]}}}, "dtype": {"type": "DT_FLOAT"}}}, {"name": "StatefulPartitionedCall/depth_estimate/encoder/functional_1/conv5_block30_1_conv/Conv2D_weights", "op": "Const", "attr": {"value": {"tensor": {"dtype": "DT_FLOAT", "tensorShape": {"dim": [{"size": "1"}, {"size": "1"}, {"size": "1568"}, {"size": "128"}]}}}, "dtype": {"type": "DT_FLOAT"}}}, {"name": "StatefulPartitionedCall/depth_estimate/encoder/functional_1/conv5_block30_1_conv/Conv2D_bn_offset", "op": "Const", "attr": {"value": {"tensor": {"dtype": "DT_FLOAT", "tensorShape": {"dim": [{"size": "128"}]}}}, "dtype": {"type": "DT_FLOAT"}}}, {"name": "StatefulPartitionedCall/depth_estimate/encoder/functional_1/conv2_block3_0_bn/FusedBatchNormV3/Offset", "op": "Const", "attr": {"dtype": {"type": "DT_FLOAT"}, "value": {"tensor": {"dtype": "DT_FLOAT", "tensorShape": {"dim": [{"size": "128"}]}}}}}, {"name": "StatefulPartitionedCall/depth_estimate/encoder/functional_1/conv5_block31_1_conv/Conv2D_weights", "op": "Const", "attr": {"value": {"tensor": {"dtype": "DT_FLOAT", "tensorShape": {"dim": [{"size": "1"}, {"size": "1"}, {"size": "1600"}, {"size": "128"}]}}}, "dtype": {"type": "DT_FLOAT"}}}, {"name": "StatefulPartitionedCall/depth_estimate/encoder/functional_1/conv5_block31_1_conv/Conv2D_bn_offset", "op": "Const", "attr": {"value": {"tensor": {"dtype": "DT_FLOAT", "tensorShape": {"dim": [{"size": "128"}]}}}, "dtype": {"type": "DT_FLOAT"}}}, {"name": "StatefulPartitionedCall/depth_estimate/encoder/functional_1/conv5_block32_1_conv/Conv2D_weights", "op": "Const", "attr": {"value": {"tensor": {"dtype": "DT_FLOAT", "tensorShape": {"dim": [{"size": "1"}, {"size": "1"}, {"size": "1632"}, {"size": "128"}]}}}, "dtype": {"type": "DT_FLOAT"}}}, {"name": "StatefulPartitionedCall/depth_estimate/encoder/functional_1/conv5_block32_1_conv/Conv2D_bn_offset", "op": "Const", "attr": {"value": {"tensor": {"dtype": "DT_FLOAT", "tensorShape": {"dim": [{"size": "128"}]}}}, "dtype": {"type": "DT_FLOAT"}}}, {"name": "StatefulPartitionedCall/depth_estimate/encoder/functional_1/conv2_block2_0_bn/FusedBatchNormV3/Scaled", "op": "Const", "attr": {"value": {"tensor": {"dtype": "DT_FLOAT", "tensorShape": {"dim": [{"size": "96"}]}}}, "dtype": {"type": "DT_FLOAT"}}}, {"name": "StatefulPartitionedCall/depth_estimate/encoder/functional_1/conv2_block2_0_bn/FusedBatchNormV3/Offset", "op": "Const", "attr": {"value": {"tensor": {"dtype": "DT_FLOAT", "tensorShape": {"dim": [{"size": "96"}]}}}, "dtype": {"type": "DT_FLOAT"}}}, {"name": "StatefulPartitionedCall/depth_estimate/encoder/functional_1/conv2_block1_0_bn/FusedBatchNormV3/Scaled", "op": "Const", "attr": {"dtype": {"type": "DT_FLOAT"}, "value": {"tensor": {"dtype": "DT_FLOAT", "tensorShape": {"dim": [{"size": "64"}]}}}}}, {"name": "StatefulPartitionedCall/depth_estimate/encoder/functional_1/conv2_block1_0_bn/FusedBatchNormV3/Offset", "op": "Const", "attr": {"dtype": {"type": "DT_FLOAT"}, "value": {"tensor": {"dtype": "DT_FLOAT", "tensorShape": {"dim": [{"size": "64"}]}}}}}, {"name": "StatefulPartitionedCall/depth_estimate/encoder/functional_1/bn/FusedBatchNormV3/Scaled", "op": "Const", "attr": {"value": {"tensor": {"dtype": "DT_FLOAT", "tensorShape": {"dim": [{"size": "1664"}]}}}, "dtype": {"type": "DT_FLOAT"}}}, {"name": "StatefulPartitionedCall/depth_estimate/encoder/functional_1/bn/FusedBatchNormV3/Offset", "op": "Const", "attr": {"value": {"tensor": {"dtype": "DT_FLOAT", "tensorShape": {"dim": [{"size": "1664"}]}}}, "dtype": {"type": "DT_FLOAT"}}}, {"name": "StatefulPartitionedCall/depth_estimate/encoder/functional_1/conv5_block32_0_bn/FusedBatchNormV3/Scaled", "op": "Const", "attr": {"value": {"tensor": {"dtype": "DT_FLOAT", "tensorShape": {"dim": [{"size": "1632"}]}}}, "dtype": {"type": "DT_FLOAT"}}}, {"name": "StatefulPartitionedCall/depth_estimate/encoder/functional_1/conv5_block32_0_bn/FusedBatchNormV3/Offset", "op": "Const", "attr": {"value": {"tensor": {"dtype": "DT_FLOAT", "tensorShape": {"dim": [{"size": "1632"}]}}}, "dtype": {"type": "DT_FLOAT"}}}, {"name": "StatefulPartitionedCall/depth_estimate/encoder/functional_1/conv5_block31_0_bn/FusedBatchNormV3/Scaled", "op": "Const", "attr": {"value": {"tensor": {"dtype": "DT_FLOAT", "tensorShape": {"dim": [{"size": "1600"}]}}}, "dtype": {"type": "DT_FLOAT"}}}, {"name": "StatefulPartitionedCall/depth_estimate/encoder/functional_1/conv5_block31_0_bn/FusedBatchNormV3/Offset", "op": "Const", "attr": {"value": {"tensor": {"dtype": "DT_FLOAT", "tensorShape": {"dim": [{"size": "1600"}]}}}, "dtype": {"type": "DT_FLOAT"}}}, {"name": "StatefulPartitionedCall/depth_estimate/encoder/functional_1/conv5_block30_0_bn/FusedBatchNormV3/Scaled", "op": "Const", "attr": {"dtype": {"type": "DT_FLOAT"}, "value": {"tensor": {"dtype": "DT_FLOAT", "tensorShape": {"dim": [{"size": "1568"}]}}}}}, {"name": "StatefulPartitionedCall/depth_estimate/encoder/functional_1/conv5_block30_0_bn/FusedBatchNormV3/Offset", "op": "Const", "attr": {"dtype": {"type": "DT_FLOAT"}, "value": {"tensor": {"dtype": "DT_FLOAT", "tensorShape": {"dim": [{"size": "1568"}]}}}}}, {"name": "StatefulPartitionedCall/depth_estimate/encoder/functional_1/conv5_block29_0_bn/FusedBatchNormV3/Scaled", "op": "Const", "attr": {"value": {"tensor": {"dtype": "DT_FLOAT", "tensorShape": {"dim": [{"size": "1536"}]}}}, "dtype": {"type": "DT_FLOAT"}}}, {"name": "StatefulPartitionedCall/depth_estimate/encoder/functional_1/conv5_block29_0_bn/FusedBatchNormV3/Offset", "op": "Const", "attr": {"value": {"tensor": {"dtype": "DT_FLOAT", "tensorShape": {"dim": [{"size": "1536"}]}}}, "dtype": {"type": "DT_FLOAT"}}}, {"name": "StatefulPartitionedCall/depth_estimate/encoder/functional_1/conv5_block28_0_bn/FusedBatchNormV3/Scaled", "op": "Const", "attr": {"value": {"tensor": {"dtype": "DT_FLOAT", "tensorShape": {"dim": [{"size": "1504"}]}}}, "dtype": {"type": "DT_FLOAT"}}}, {"name": "StatefulPartitionedCall/depth_estimate/encoder/functional_1/conv5_block28_0_bn/FusedBatchNormV3/Offset", "op": "Const", "attr": {"value": {"tensor": {"dtype": "DT_FLOAT", "tensorShape": {"dim": [{"size": "1504"}]}}}, "dtype": {"type": "DT_FLOAT"}}}, {"name": "StatefulPartitionedCall/depth_estimate/encoder/functional_1/conv5_block27_0_bn/FusedBatchNormV3/Scaled", "op": "Const", "attr": {"value": {"tensor": {"dtype": "DT_FLOAT", "tensorShape": {"dim": [{"size": "1472"}]}}}, "dtype": {"type": "DT_FLOAT"}}}, {"name": "StatefulPartitionedCall/depth_estimate/encoder/functional_1/conv5_block27_0_bn/FusedBatchNormV3/Offset", "op": "Const", "attr": {"value": {"tensor": {"dtype": "DT_FLOAT", "tensorShape": {"dim": [{"size": "1472"}]}}}, "dtype": {"type": "DT_FLOAT"}}}, {"name": "StatefulPartitionedCall/depth_estimate/encoder/functional_1/conv5_block26_0_bn/FusedBatchNormV3/Scaled", "op": "Const", "attr": {"value": {"tensor": {"dtype": "DT_FLOAT", "tensorShape": {"dim": [{"size": "1440"}]}}}, "dtype": {"type": "DT_FLOAT"}}}, {"name": "StatefulPartitionedCall/depth_estimate/encoder/functional_1/conv5_block26_0_bn/FusedBatchNormV3/Offset", "op": "Const", "attr": {"value": {"tensor": {"dtype": "DT_FLOAT", "tensorShape": {"dim": [{"size": "1440"}]}}}, "dtype": {"type": "DT_FLOAT"}}}, {"name": "StatefulPartitionedCall/depth_estimate/encoder/functional_1/conv5_block25_0_bn/FusedBatchNormV3/Scaled", "op": "Const", "attr": {"value": {"tensor": {"dtype": "DT_FLOAT", "tensorShape": {"dim": [{"size": "1408"}]}}}, "dtype": {"type": "DT_FLOAT"}}}, {"name": "StatefulPartitionedCall/depth_estimate/encoder/functional_1/conv5_block25_0_bn/FusedBatchNormV3/Offset", "op": "Const", "attr": {"value": {"tensor": {"dtype": "DT_FLOAT", "tensorShape": {"dim": [{"size": "1408"}]}}}, "dtype": {"type": "DT_FLOAT"}}}, {"name": "StatefulPartitionedCall/depth_estimate/encoder/functional_1/conv5_block24_0_bn/FusedBatchNormV3/Scaled", "op": "Const", "attr": {"dtype": {"type": "DT_FLOAT"}, "value": {"tensor": {"dtype": "DT_FLOAT", "tensorShape": {"dim": [{"size": "1376"}]}}}}}, {"name": "StatefulPartitionedCall/depth_estimate/encoder/functional_1/conv5_block24_0_bn/FusedBatchNormV3/Offset", "op": "Const", "attr": {"value": {"tensor": {"dtype": "DT_FLOAT", "tensorShape": {"dim": [{"size": "1376"}]}}}, "dtype": {"type": "DT_FLOAT"}}}, {"name": "StatefulPartitionedCall/depth_estimate/encoder/functional_1/conv5_block23_0_bn/FusedBatchNormV3/Scaled", "op": "Const", "attr": {"dtype": {"type": "DT_FLOAT"}, "value": {"tensor": {"dtype": "DT_FLOAT", "tensorShape": {"dim": [{"size": "1344"}]}}}}}, {"name": "StatefulPartitionedCall/depth_estimate/encoder/functional_1/conv5_block23_0_bn/FusedBatchNormV3/Offset", "op": "Const", "attr": {"value": {"tensor": {"dtype": "DT_FLOAT", "tensorShape": {"dim": [{"size": "1344"}]}}}, "dtype": {"type": "DT_FLOAT"}}}, {"name": "StatefulPartitionedCall/depth_estimate/encoder/functional_1/conv5_block22_0_bn/FusedBatchNormV3/Scaled", "op": "Const", "attr": {"value": {"tensor": {"dtype": "DT_FLOAT", "tensorShape": {"dim": [{"size": "1312"}]}}}, "dtype": {"type": "DT_FLOAT"}}}, {"name": "StatefulPartitionedCall/depth_estimate/encoder/functional_1/conv5_block22_0_bn/FusedBatchNormV3/Offset", "op": "Const", "attr": {"value": {"tensor": {"dtype": "DT_FLOAT", "tensorShape": {"dim": [{"size": "1312"}]}}}, "dtype": {"type": "DT_FLOAT"}}}, {"name": "StatefulPartitionedCall/depth_estimate/encoder/functional_1/conv5_block21_0_bn/FusedBatchNormV3/Scaled", "op": "Const", "attr": {"value": {"tensor": {"dtype": "DT_FLOAT", "tensorShape": {"dim": [{"size": "1280"}]}}}, "dtype": {"type": "DT_FLOAT"}}}, {"name": "StatefulPartitionedCall/depth_estimate/encoder/functional_1/conv5_block21_0_bn/FusedBatchNormV3/Offset", "op": "Const", "attr": {"value": {"tensor": {"dtype": "DT_FLOAT", "tensorShape": {"dim": [{"size": "1280"}]}}}, "dtype": {"type": "DT_FLOAT"}}}, {"name": "StatefulPartitionedCall/depth_estimate/encoder/functional_1/conv5_block20_0_bn/FusedBatchNormV3/Scaled", "op": "Const", "attr": {"value": {"tensor": {"dtype": "DT_FLOAT", "tensorShape": {"dim": [{"size": "1248"}]}}}, "dtype": {"type": "DT_FLOAT"}}}, {"name": "StatefulPartitionedCall/depth_estimate/encoder/functional_1/conv5_block20_0_bn/FusedBatchNormV3/Offset", "op": "Const", "attr": {"dtype": {"type": "DT_FLOAT"}, "value": {"tensor": {"dtype": "DT_FLOAT", "tensorShape": {"dim": [{"size": "1248"}]}}}}}, {"name": "StatefulPartitionedCall/depth_estimate/encoder/functional_1/conv5_block19_0_bn/FusedBatchNormV3/Scaled", "op": "Const", "attr": {"value": {"tensor": {"dtype": "DT_FLOAT", "tensorShape": {"dim": [{"size": "1216"}]}}}, "dtype": {"type": "DT_FLOAT"}}}, {"name": "StatefulPartitionedCall/depth_estimate/encoder/functional_1/conv5_block19_0_bn/FusedBatchNormV3/Offset", "op": "Const", "attr": {"dtype": {"type": "DT_FLOAT"}, "value": {"tensor": {"dtype": "DT_FLOAT", "tensorShape": {"dim": [{"size": "1216"}]}}}}}, {"name": "StatefulPartitionedCall/depth_estimate/encoder/functional_1/conv5_block18_0_bn/FusedBatchNormV3/Scaled", "op": "Const", "attr": {"value": {"tensor": {"dtype": "DT_FLOAT", "tensorShape": {"dim": [{"size": "1184"}]}}}, "dtype": {"type": "DT_FLOAT"}}}, {"name": "StatefulPartitionedCall/depth_estimate/encoder/functional_1/conv5_block18_0_bn/FusedBatchNormV3/Offset", "op": "Const", "attr": {"value": {"tensor": {"dtype": "DT_FLOAT", "tensorShape": {"dim": [{"size": "1184"}]}}}, "dtype": {"type": "DT_FLOAT"}}}, {"name": "StatefulPartitionedCall/depth_estimate/encoder/functional_1/conv5_block17_0_bn/FusedBatchNormV3/Scaled", "op": "Const", "attr": {"value": {"tensor": {"dtype": "DT_FLOAT", "tensorShape": {"dim": [{"size": "1152"}]}}}, "dtype": {"type": "DT_FLOAT"}}}, {"name": "StatefulPartitionedCall/depth_estimate/encoder/functional_1/conv5_block17_0_bn/FusedBatchNormV3/Offset", "op": "Const", "attr": {"dtype": {"type": "DT_FLOAT"}, "value": {"tensor": {"dtype": "DT_FLOAT", "tensorShape": {"dim": [{"size": "1152"}]}}}}}, {"name": "StatefulPartitionedCall/depth_estimate/encoder/functional_1/conv5_block16_0_bn/FusedBatchNormV3/Scaled", "op": "Const", "attr": {"dtype": {"type": "DT_FLOAT"}, "value": {"tensor": {"dtype": "DT_FLOAT", "tensorShape": {"dim": [{"size": "1120"}]}}}}}, {"name": "StatefulPartitionedCall/depth_estimate/encoder/functional_1/conv5_block16_0_bn/FusedBatchNormV3/Offset", "op": "Const", "attr": {"value": {"tensor": {"dtype": "DT_FLOAT", "tensorShape": {"dim": [{"size": "1120"}]}}}, "dtype": {"type": "DT_FLOAT"}}}, {"name": "StatefulPartitionedCall/depth_estimate/encoder/functional_1/conv5_block15_0_bn/FusedBatchNormV3/Scaled", "op": "Const", "attr": {"value": {"tensor": {"dtype": "DT_FLOAT", "tensorShape": {"dim": [{"size": "1088"}]}}}, "dtype": {"type": "DT_FLOAT"}}}, {"name": "StatefulPartitionedCall/depth_estimate/encoder/functional_1/conv5_block15_0_bn/FusedBatchNormV3/Offset", "op": "Const", "attr": {"value": {"tensor": {"dtype": "DT_FLOAT", "tensorShape": {"dim": [{"size": "1088"}]}}}, "dtype": {"type": "DT_FLOAT"}}}, {"name": "StatefulPartitionedCall/depth_estimate/encoder/functional_1/conv5_block14_0_bn/FusedBatchNormV3/Scaled", "op": "Const", "attr": {"value": {"tensor": {"dtype": "DT_FLOAT", "tensorShape": {"dim": [{"size": "1056"}]}}}, "dtype": {"type": "DT_FLOAT"}}}, {"name": "StatefulPartitionedCall/depth_estimate/encoder/functional_1/conv5_block14_0_bn/FusedBatchNormV3/Offset", "op": "Const", "attr": {"dtype": {"type": "DT_FLOAT"}, "value": {"tensor": {"dtype": "DT_FLOAT", "tensorShape": {"dim": [{"size": "1056"}]}}}}}, {"name": "StatefulPartitionedCall/depth_estimate/encoder/functional_1/conv5_block13_0_bn/FusedBatchNormV3/Scaled", "op": "Const", "attr": {"value": {"tensor": {"dtype": "DT_FLOAT", "tensorShape": {"dim": [{"size": "1024"}]}}}, "dtype": {"type": "DT_FLOAT"}}}, {"name": "StatefulPartitionedCall/depth_estimate/encoder/functional_1/conv5_block13_0_bn/FusedBatchNormV3/Offset", "op": "Const", "attr": {"value": {"tensor": {"dtype": "DT_FLOAT", "tensorShape": {"dim": [{"size": "1024"}]}}}, "dtype": {"type": "DT_FLOAT"}}}, {"name": "StatefulPartitionedCall/depth_estimate/encoder/functional_1/conv5_block12_0_bn/FusedBatchNormV3/Scaled", "op": "Const", "attr": {"dtype": {"type": "DT_FLOAT"}, "value": {"tensor": {"dtype": "DT_FLOAT", "tensorShape": {"dim": [{"size": "992"}]}}}}}, {"name": "StatefulPartitionedCall/depth_estimate/encoder/functional_1/conv5_block12_0_bn/FusedBatchNormV3/Offset", "op": "Const", "attr": {"value": {"tensor": {"dtype": "DT_FLOAT", "tensorShape": {"dim": [{"size": "992"}]}}}, "dtype": {"type": "DT_FLOAT"}}}, {"name": "StatefulPartitionedCall/depth_estimate/encoder/functional_1/conv5_block11_0_bn/FusedBatchNormV3/Scaled", "op": "Const", "attr": {"value": {"tensor": {"dtype": "DT_FLOAT", "tensorShape": {"dim": [{"size": "960"}]}}}, "dtype": {"type": "DT_FLOAT"}}}, {"name": "StatefulPartitionedCall/depth_estimate/encoder/functional_1/conv5_block11_0_bn/FusedBatchNormV3/Offset", "op": "Const", "attr": {"value": {"tensor": {"dtype": "DT_FLOAT", "tensorShape": {"dim": [{"size": "960"}]}}}, "dtype": {"type": "DT_FLOAT"}}}, {"name": "StatefulPartitionedCall/depth_estimate/encoder/functional_1/conv5_block10_0_bn/FusedBatchNormV3/Scaled", "op": "Const", "attr": {"value": {"tensor": {"dtype": "DT_FLOAT", "tensorShape": {"dim": [{"size": "928"}]}}}, "dtype": {"type": "DT_FLOAT"}}}, {"name": "StatefulPartitionedCall/depth_estimate/encoder/functional_1/conv5_block10_0_bn/FusedBatchNormV3/Offset", "op": "Const", "attr": {"value": {"tensor": {"dtype": "DT_FLOAT", "tensorShape": {"dim": [{"size": "928"}]}}}, "dtype": {"type": "DT_FLOAT"}}}, {"name": "StatefulPartitionedCall/depth_estimate/encoder/functional_1/conv5_block9_0_bn/FusedBatchNormV3/Scaled", "op": "Const", "attr": {"value": {"tensor": {"dtype": "DT_FLOAT", "tensorShape": {"dim": [{"size": "896"}]}}}, "dtype": {"type": "DT_FLOAT"}}}, {"name": "StatefulPartitionedCall/depth_estimate/encoder/functional_1/conv5_block9_0_bn/FusedBatchNormV3/Offset", "op": "Const", "attr": {"value": {"tensor": {"dtype": "DT_FLOAT", "tensorShape": {"dim": [{"size": "896"}]}}}, "dtype": {"type": "DT_FLOAT"}}}, {"name": "StatefulPartitionedCall/depth_estimate/encoder/functional_1/conv5_block8_0_bn/FusedBatchNormV3/Scaled", "op": "Const", "attr": {"value": {"tensor": {"dtype": "DT_FLOAT", "tensorShape": {"dim": [{"size": "864"}]}}}, "dtype": {"type": "DT_FLOAT"}}}, {"name": "StatefulPartitionedCall/depth_estimate/encoder/functional_1/conv5_block8_0_bn/FusedBatchNormV3/Offset", "op": "Const", "attr": {"value": {"tensor": {"dtype": "DT_FLOAT", "tensorShape": {"dim": [{"size": "864"}]}}}, "dtype": {"type": "DT_FLOAT"}}}, {"name": "StatefulPartitionedCall/depth_estimate/encoder/functional_1/conv5_block7_0_bn/FusedBatchNormV3/Scaled", "op": "Const", "attr": {"value": {"tensor": {"dtype": "DT_FLOAT", "tensorShape": {"dim": [{"size": "832"}]}}}, "dtype": {"type": "DT_FLOAT"}}}, {"name": "StatefulPartitionedCall/depth_estimate/encoder/functional_1/conv5_block7_0_bn/FusedBatchNormV3/Offset", "op": "Const", "attr": {"dtype": {"type": "DT_FLOAT"}, "value": {"tensor": {"dtype": "DT_FLOAT", "tensorShape": {"dim": [{"size": "832"}]}}}}}, {"name": "StatefulPartitionedCall/depth_estimate/encoder/functional_1/conv5_block6_0_bn/FusedBatchNormV3/Scaled", "op": "Const", "attr": {"value": {"tensor": {"dtype": "DT_FLOAT", "tensorShape": {"dim": [{"size": "800"}]}}}, "dtype": {"type": "DT_FLOAT"}}}, {"name": "StatefulPartitionedCall/depth_estimate/encoder/functional_1/conv5_block6_0_bn/FusedBatchNormV3/Offset", "op": "Const", "attr": {"value": {"tensor": {"dtype": "DT_FLOAT", "tensorShape": {"dim": [{"size": "800"}]}}}, "dtype": {"type": "DT_FLOAT"}}}, {"name": "StatefulPartitionedCall/depth_estimate/encoder/functional_1/conv5_block5_0_bn/FusedBatchNormV3/Scaled", "op": "Const", "attr": {"value": {"tensor": {"dtype": "DT_FLOAT", "tensorShape": {"dim": [{"size": "768"}]}}}, "dtype": {"type": "DT_FLOAT"}}}, {"name": "StatefulPartitionedCall/depth_estimate/encoder/functional_1/conv5_block5_0_bn/FusedBatchNormV3/Offset", "op": "Const", "attr": {"value": {"tensor": {"dtype": "DT_FLOAT", "tensorShape": {"dim": [{"size": "768"}]}}}, "dtype": {"type": "DT_FLOAT"}}}, {"name": "StatefulPartitionedCall/depth_estimate/encoder/functional_1/conv5_block4_0_bn/FusedBatchNormV3/Scaled", "op": "Const", "attr": {"dtype": {"type": "DT_FLOAT"}, "value": {"tensor": {"dtype": "DT_FLOAT", "tensorShape": {"dim": [{"size": "736"}]}}}}}, {"name": "StatefulPartitionedCall/depth_estimate/encoder/functional_1/conv5_block4_0_bn/FusedBatchNormV3/Offset", "op": "Const", "attr": {"value": {"tensor": {"dtype": "DT_FLOAT", "tensorShape": {"dim": [{"size": "736"}]}}}, "dtype": {"type": "DT_FLOAT"}}}, {"name": "StatefulPartitionedCall/depth_estimate/encoder/functional_1/conv5_block3_0_bn/FusedBatchNormV3/Scaled", "op": "Const", "attr": {"dtype": {"type": "DT_FLOAT"}, "value": {"tensor": {"dtype": "DT_FLOAT", "tensorShape": {"dim": [{"size": "704"}]}}}}}, {"name": "StatefulPartitionedCall/depth_estimate/encoder/functional_1/conv5_block3_0_bn/FusedBatchNormV3/Offset", "op": "Const", "attr": {"dtype": {"type": "DT_FLOAT"}, "value": {"tensor": {"dtype": "DT_FLOAT", "tensorShape": {"dim": [{"size": "704"}]}}}}}, {"name": "StatefulPartitionedCall/depth_estimate/encoder/functional_1/conv5_block2_0_bn/FusedBatchNormV3/Scaled", "op": "Const", "attr": {"value": {"tensor": {"dtype": "DT_FLOAT", "tensorShape": {"dim": [{"size": "672"}]}}}, "dtype": {"type": "DT_FLOAT"}}}, {"name": "StatefulPartitionedCall/depth_estimate/encoder/functional_1/conv5_block2_0_bn/FusedBatchNormV3/Offset", "op": "Const", "attr": {"value": {"tensor": {"dtype": "DT_FLOAT", "tensorShape": {"dim": [{"size": "672"}]}}}, "dtype": {"type": "DT_FLOAT"}}}, {"name": "StatefulPartitionedCall/depth_estimate/encoder/functional_1/conv5_block1_0_bn/FusedBatchNormV3/Scaled", "op": "Const", "attr": {"value": {"tensor": {"dtype": "DT_FLOAT", "tensorShape": {"dim": [{"size": "640"}]}}}, "dtype": {"type": "DT_FLOAT"}}}, {"name": "StatefulPartitionedCall/depth_estimate/encoder/functional_1/conv5_block1_0_bn/FusedBatchNormV3/Offset", "op": "Const", "attr": {"dtype": {"type": "DT_FLOAT"}, "value": {"tensor": {"dtype": "DT_FLOAT", "tensorShape": {"dim": [{"size": "640"}]}}}}}, {"name": "StatefulPartitionedCall/depth_estimate/encoder/functional_1/pool4_bn/FusedBatchNormV3/Scaled", "op": "Const", "attr": {"value": {"tensor": {"dtype": "DT_FLOAT", "tensorShape": {"dim": [{"size": "1280"}]}}}, "dtype": {"type": "DT_FLOAT"}}}, {"name": "StatefulPartitionedCall/depth_estimate/encoder/functional_1/pool4_bn/FusedBatchNormV3/Offset", "op": "Const", "attr": {"value": {"tensor": {"dtype": "DT_FLOAT", "tensorShape": {"dim": [{"size": "1280"}]}}}, "dtype": {"type": "DT_FLOAT"}}}, {"name": "StatefulPartitionedCall/depth_estimate/encoder/functional_1/conv4_block32_0_bn/FusedBatchNormV3/Scaled", "op": "Const", "attr": {"dtype": {"type": "DT_FLOAT"}, "value": {"tensor": {"dtype": "DT_FLOAT", "tensorShape": {"dim": [{"size": "1248"}]}}}}}, {"name": "StatefulPartitionedCall/depth_estimate/encoder/functional_1/conv4_block32_0_bn/FusedBatchNormV3/Offset", "op": "Const", "attr": {"value": {"tensor": {"dtype": "DT_FLOAT", "tensorShape": {"dim": [{"size": "1248"}]}}}, "dtype": {"type": "DT_FLOAT"}}}, {"name": "StatefulPartitionedCall/depth_estimate/encoder/functional_1/conv4_block31_0_bn/FusedBatchNormV3/Scaled", "op": "Const", "attr": {"value": {"tensor": {"dtype": "DT_FLOAT", "tensorShape": {"dim": [{"size": "1216"}]}}}, "dtype": {"type": "DT_FLOAT"}}}, {"name": "StatefulPartitionedCall/depth_estimate/encoder/functional_1/conv4_block31_0_bn/FusedBatchNormV3/Offset", "op": "Const", "attr": {"value": {"tensor": {"dtype": "DT_FLOAT", "tensorShape": {"dim": [{"size": "1216"}]}}}, "dtype": {"type": "DT_FLOAT"}}}, {"name": "StatefulPartitionedCall/depth_estimate/encoder/functional_1/conv4_block30_0_bn/FusedBatchNormV3/Scaled", "op": "Const", "attr": {"value": {"tensor": {"dtype": "DT_FLOAT", "tensorShape": {"dim": [{"size": "1184"}]}}}, "dtype": {"type": "DT_FLOAT"}}}, {"name": "StatefulPartitionedCall/depth_estimate/encoder/functional_1/conv4_block30_0_bn/FusedBatchNormV3/Offset", "op": "Const", "attr": {"value": {"tensor": {"dtype": "DT_FLOAT", "tensorShape": {"dim": [{"size": "1184"}]}}}, "dtype": {"type": "DT_FLOAT"}}}, {"name": "StatefulPartitionedCall/depth_estimate/encoder/functional_1/conv4_block29_0_bn/FusedBatchNormV3/Scaled", "op": "Const", "attr": {"value": {"tensor": {"dtype": "DT_FLOAT", "tensorShape": {"dim": [{"size": "1152"}]}}}, "dtype": {"type": "DT_FLOAT"}}}, {"name": "StatefulPartitionedCall/depth_estimate/encoder/functional_1/conv4_block29_0_bn/FusedBatchNormV3/Offset", "op": "Const", "attr": {"value": {"tensor": {"dtype": "DT_FLOAT", "tensorShape": {"dim": [{"size": "1152"}]}}}, "dtype": {"type": "DT_FLOAT"}}}, {"name": "StatefulPartitionedCall/depth_estimate/encoder/functional_1/conv4_block28_0_bn/FusedBatchNormV3/Scaled", "op": "Const", "attr": {"value": {"tensor": {"dtype": "DT_FLOAT", "tensorShape": {"dim": [{"size": "1120"}]}}}, "dtype": {"type": "DT_FLOAT"}}}, {"name": "StatefulPartitionedCall/depth_estimate/encoder/functional_1/conv4_block28_0_bn/FusedBatchNormV3/Offset", "op": "Const", "attr": {"value": {"tensor": {"dtype": "DT_FLOAT", "tensorShape": {"dim": [{"size": "1120"}]}}}, "dtype": {"type": "DT_FLOAT"}}}, {"name": "StatefulPartitionedCall/depth_estimate/encoder/functional_1/conv4_block27_0_bn/FusedBatchNormV3/Scaled", "op": "Const", "attr": {"value": {"tensor": {"dtype": "DT_FLOAT", "tensorShape": {"dim": [{"size": "1088"}]}}}, "dtype": {"type": "DT_FLOAT"}}}, {"name": "StatefulPartitionedCall/depth_estimate/encoder/functional_1/conv4_block27_0_bn/FusedBatchNormV3/Offset", "op": "Const", "attr": {"value": {"tensor": {"dtype": "DT_FLOAT", "tensorShape": {"dim": [{"size": "1088"}]}}}, "dtype": {"type": "DT_FLOAT"}}}, {"name": "StatefulPartitionedCall/depth_estimate/encoder/functional_1/conv4_block26_0_bn/FusedBatchNormV3/Scaled", "op": "Const", "attr": {"dtype": {"type": "DT_FLOAT"}, "value": {"tensor": {"dtype": "DT_FLOAT", "tensorShape": {"dim": [{"size": "1056"}]}}}}}, {"name": "StatefulPartitionedCall/depth_estimate/encoder/functional_1/conv4_block26_0_bn/FusedBatchNormV3/Offset", "op": "Const", "attr": {"value": {"tensor": {"dtype": "DT_FLOAT", "tensorShape": {"dim": [{"size": "1056"}]}}}, "dtype": {"type": "DT_FLOAT"}}}, {"name": "StatefulPartitionedCall/depth_estimate/encoder/functional_1/conv4_block25_0_bn/FusedBatchNormV3/Scaled", "op": "Const", "attr": {"value": {"tensor": {"dtype": "DT_FLOAT", "tensorShape": {"dim": [{"size": "1024"}]}}}, "dtype": {"type": "DT_FLOAT"}}}, {"name": "StatefulPartitionedCall/depth_estimate/encoder/functional_1/conv4_block25_0_bn/FusedBatchNormV3/Offset", "op": "Const", "attr": {"dtype": {"type": "DT_FLOAT"}, "value": {"tensor": {"dtype": "DT_FLOAT", "tensorShape": {"dim": [{"size": "1024"}]}}}}}, {"name": "StatefulPartitionedCall/depth_estimate/encoder/functional_1/conv4_block24_0_bn/FusedBatchNormV3/Scaled", "op": "Const", "attr": {"value": {"tensor": {"dtype": "DT_FLOAT", "tensorShape": {"dim": [{"size": "992"}]}}}, "dtype": {"type": "DT_FLOAT"}}}, {"name": "StatefulPartitionedCall/depth_estimate/encoder/functional_1/conv4_block24_0_bn/FusedBatchNormV3/Offset", "op": "Const", "attr": {"dtype": {"type": "DT_FLOAT"}, "value": {"tensor": {"dtype": "DT_FLOAT", "tensorShape": {"dim": [{"size": "992"}]}}}}}, {"name": "StatefulPartitionedCall/depth_estimate/encoder/functional_1/conv4_block23_0_bn/FusedBatchNormV3/Scaled", "op": "Const", "attr": {"value": {"tensor": {"dtype": "DT_FLOAT", "tensorShape": {"dim": [{"size": "960"}]}}}, "dtype": {"type": "DT_FLOAT"}}}, {"name": "StatefulPartitionedCall/depth_estimate/encoder/functional_1/conv4_block23_0_bn/FusedBatchNormV3/Offset", "op": "Const", "attr": {"value": {"tensor": {"dtype": "DT_FLOAT", "tensorShape": {"dim": [{"size": "960"}]}}}, "dtype": {"type": "DT_FLOAT"}}}, {"name": "StatefulPartitionedCall/depth_estimate/encoder/functional_1/conv4_block22_0_bn/FusedBatchNormV3/Scaled", "op": "Const", "attr": {"dtype": {"type": "DT_FLOAT"}, "value": {"tensor": {"dtype": "DT_FLOAT", "tensorShape": {"dim": [{"size": "928"}]}}}}}, {"name": "StatefulPartitionedCall/depth_estimate/encoder/functional_1/conv4_block22_0_bn/FusedBatchNormV3/Offset", "op": "Const", "attr": {"value": {"tensor": {"dtype": "DT_FLOAT", "tensorShape": {"dim": [{"size": "928"}]}}}, "dtype": {"type": "DT_FLOAT"}}}, {"name": "StatefulPartitionedCall/depth_estimate/encoder/functional_1/conv4_block21_0_bn/FusedBatchNormV3/Scaled", "op": "Const", "attr": {"value": {"tensor": {"dtype": "DT_FLOAT", "tensorShape": {"dim": [{"size": "896"}]}}}, "dtype": {"type": "DT_FLOAT"}}}, {"name": "StatefulPartitionedCall/depth_estimate/encoder/functional_1/conv4_block21_0_bn/FusedBatchNormV3/Offset", "op": "Const", "attr": {"dtype": {"type": "DT_FLOAT"}, "value": {"tensor": {"dtype": "DT_FLOAT", "tensorShape": {"dim": [{"size": "896"}]}}}}}, {"name": "StatefulPartitionedCall/depth_estimate/encoder/functional_1/conv4_block20_0_bn/FusedBatchNormV3/Scaled", "op": "Const", "attr": {"value": {"tensor": {"dtype": "DT_FLOAT", "tensorShape": {"dim": [{"size": "864"}]}}}, "dtype": {"type": "DT_FLOAT"}}}, {"name": "StatefulPartitionedCall/depth_estimate/encoder/functional_1/conv4_block20_0_bn/FusedBatchNormV3/Offset", "op": "Const", "attr": {"dtype": {"type": "DT_FLOAT"}, "value": {"tensor": {"dtype": "DT_FLOAT", "tensorShape": {"dim": [{"size": "864"}]}}}}}, {"name": "StatefulPartitionedCall/depth_estimate/encoder/functional_1/conv4_block19_0_bn/FusedBatchNormV3/Scaled", "op": "Const", "attr": {"value": {"tensor": {"dtype": "DT_FLOAT", "tensorShape": {"dim": [{"size": "832"}]}}}, "dtype": {"type": "DT_FLOAT"}}}, {"name": "StatefulPartitionedCall/depth_estimate/encoder/functional_1/conv4_block19_0_bn/FusedBatchNormV3/Offset", "op": "Const", "attr": {"value": {"tensor": {"dtype": "DT_FLOAT", "tensorShape": {"dim": [{"size": "832"}]}}}, "dtype": {"type": "DT_FLOAT"}}}, {"name": "StatefulPartitionedCall/depth_estimate/encoder/functional_1/conv4_block18_0_bn/FusedBatchNormV3/Scaled", "op": "Const", "attr": {"value": {"tensor": {"dtype": "DT_FLOAT", "tensorShape": {"dim": [{"size": "800"}]}}}, "dtype": {"type": "DT_FLOAT"}}}, {"name": "StatefulPartitionedCall/depth_estimate/encoder/functional_1/conv4_block18_0_bn/FusedBatchNormV3/Offset", "op": "Const", "attr": {"value": {"tensor": {"dtype": "DT_FLOAT", "tensorShape": {"dim": [{"size": "800"}]}}}, "dtype": {"type": "DT_FLOAT"}}}, {"name": "StatefulPartitionedCall/depth_estimate/encoder/functional_1/conv4_block17_0_bn/FusedBatchNormV3/Scaled", "op": "Const", "attr": {"value": {"tensor": {"dtype": "DT_FLOAT", "tensorShape": {"dim": [{"size": "768"}]}}}, "dtype": {"type": "DT_FLOAT"}}}, {"name": "StatefulPartitionedCall/depth_estimate/encoder/functional_1/conv4_block17_0_bn/FusedBatchNormV3/Offset", "op": "Const", "attr": {"dtype": {"type": "DT_FLOAT"}, "value": {"tensor": {"dtype": "DT_FLOAT", "tensorShape": {"dim": [{"size": "768"}]}}}}}, {"name": "StatefulPartitionedCall/depth_estimate/encoder/functional_1/conv4_block16_0_bn/FusedBatchNormV3/Scaled", "op": "Const", "attr": {"dtype": {"type": "DT_FLOAT"}, "value": {"tensor": {"dtype": "DT_FLOAT", "tensorShape": {"dim": [{"size": "736"}]}}}}}, {"name": "StatefulPartitionedCall/depth_estimate/encoder/functional_1/conv4_block16_0_bn/FusedBatchNormV3/Offset", "op": "Const", "attr": {"value": {"tensor": {"dtype": "DT_FLOAT", "tensorShape": {"dim": [{"size": "736"}]}}}, "dtype": {"type": "DT_FLOAT"}}}, {"name": "StatefulPartitionedCall/depth_estimate/encoder/functional_1/conv4_block15_0_bn/FusedBatchNormV3/Scaled", "op": "Const", "attr": {"value": {"tensor": {"dtype": "DT_FLOAT", "tensorShape": {"dim": [{"size": "704"}]}}}, "dtype": {"type": "DT_FLOAT"}}}, {"name": "StatefulPartitionedCall/depth_estimate/encoder/functional_1/conv4_block15_0_bn/FusedBatchNormV3/Offset", "op": "Const", "attr": {"value": {"tensor": {"dtype": "DT_FLOAT", "tensorShape": {"dim": [{"size": "704"}]}}}, "dtype": {"type": "DT_FLOAT"}}}, {"name": "StatefulPartitionedCall/depth_estimate/encoder/functional_1/conv4_block14_0_bn/FusedBatchNormV3/Scaled", "op": "Const", "attr": {"value": {"tensor": {"dtype": "DT_FLOAT", "tensorShape": {"dim": [{"size": "672"}]}}}, "dtype": {"type": "DT_FLOAT"}}}, {"name": "StatefulPartitionedCall/depth_estimate/encoder/functional_1/conv4_block14_0_bn/FusedBatchNormV3/Offset", "op": "Const", "attr": {"value": {"tensor": {"dtype": "DT_FLOAT", "tensorShape": {"dim": [{"size": "672"}]}}}, "dtype": {"type": "DT_FLOAT"}}}, {"name": "StatefulPartitionedCall/depth_estimate/encoder/functional_1/conv4_block13_0_bn/FusedBatchNormV3/Scaled", "op": "Const", "attr": {"dtype": {"type": "DT_FLOAT"}, "value": {"tensor": {"dtype": "DT_FLOAT", "tensorShape": {"dim": [{"size": "640"}]}}}}}, {"name": "StatefulPartitionedCall/depth_estimate/encoder/functional_1/conv4_block13_0_bn/FusedBatchNormV3/Offset", "op": "Const", "attr": {"value": {"tensor": {"dtype": "DT_FLOAT", "tensorShape": {"dim": [{"size": "640"}]}}}, "dtype": {"type": "DT_FLOAT"}}}, {"name": "StatefulPartitionedCall/depth_estimate/encoder/functional_1/conv4_block12_0_bn/FusedBatchNormV3/Scaled", "op": "Const", "attr": {"value": {"tensor": {"dtype": "DT_FLOAT", "tensorShape": {"dim": [{"size": "608"}]}}}, "dtype": {"type": "DT_FLOAT"}}}, {"name": "StatefulPartitionedCall/depth_estimate/encoder/functional_1/conv4_block12_0_bn/FusedBatchNormV3/Offset", "op": "Const", "attr": {"value": {"tensor": {"dtype": "DT_FLOAT", "tensorShape": {"dim": [{"size": "608"}]}}}, "dtype": {"type": "DT_FLOAT"}}}, {"name": "StatefulPartitionedCall/depth_estimate/encoder/functional_1/conv4_block11_0_bn/FusedBatchNormV3/Scaled", "op": "Const", "attr": {"value": {"tensor": {"dtype": "DT_FLOAT", "tensorShape": {"dim": [{"size": "576"}]}}}, "dtype": {"type": "DT_FLOAT"}}}, {"name": "StatefulPartitionedCall/depth_estimate/encoder/functional_1/conv4_block11_0_bn/FusedBatchNormV3/Offset", "op": "Const", "attr": {"value": {"tensor": {"dtype": "DT_FLOAT", "tensorShape": {"dim": [{"size": "576"}]}}}, "dtype": {"type": "DT_FLOAT"}}}, {"name": "StatefulPartitionedCall/depth_estimate/encoder/functional_1/conv4_block10_0_bn/FusedBatchNormV3/Scaled", "op": "Const", "attr": {"value": {"tensor": {"dtype": "DT_FLOAT", "tensorShape": {"dim": [{"size": "544"}]}}}, "dtype": {"type": "DT_FLOAT"}}}, {"name": "StatefulPartitionedCall/depth_estimate/encoder/functional_1/conv4_block10_0_bn/FusedBatchNormV3/Offset", "op": "Const", "attr": {"value": {"tensor": {"dtype": "DT_FLOAT", "tensorShape": {"dim": [{"size": "544"}]}}}, "dtype": {"type": "DT_FLOAT"}}}, {"name": "StatefulPartitionedCall/depth_estimate/encoder/functional_1/conv4_block9_0_bn/FusedBatchNormV3/Scaled", "op": "Const", "attr": {"value": {"tensor": {"dtype": "DT_FLOAT", "tensorShape": {"dim": [{"size": "512"}]}}}, "dtype": {"type": "DT_FLOAT"}}}, {"name": "StatefulPartitionedCall/depth_estimate/encoder/functional_1/conv4_block9_0_bn/FusedBatchNormV3/Offset", "op": "Const", "attr": {"dtype": {"type": "DT_FLOAT"}, "value": {"tensor": {"dtype": "DT_FLOAT", "tensorShape": {"dim": [{"size": "512"}]}}}}}, {"name": "StatefulPartitionedCall/depth_estimate/encoder/functional_1/conv4_block8_0_bn/FusedBatchNormV3/Scaled", "op": "Const", "attr": {"value": {"tensor": {"dtype": "DT_FLOAT", "tensorShape": {"dim": [{"size": "480"}]}}}, "dtype": {"type": "DT_FLOAT"}}}, {"name": "StatefulPartitionedCall/depth_estimate/encoder/functional_1/conv4_block8_0_bn/FusedBatchNormV3/Offset", "op": "Const", "attr": {"value": {"tensor": {"dtype": "DT_FLOAT", "tensorShape": {"dim": [{"size": "480"}]}}}, "dtype": {"type": "DT_FLOAT"}}}, {"name": "StatefulPartitionedCall/depth_estimate/encoder/functional_1/conv4_block7_0_bn/FusedBatchNormV3/Scaled", "op": "Const", "attr": {"value": {"tensor": {"dtype": "DT_FLOAT", "tensorShape": {"dim": [{"size": "448"}]}}}, "dtype": {"type": "DT_FLOAT"}}}, {"name": "StatefulPartitionedCall/depth_estimate/encoder/functional_1/conv4_block7_0_bn/FusedBatchNormV3/Offset", "op": "Const", "attr": {"dtype": {"type": "DT_FLOAT"}, "value": {"tensor": {"dtype": "DT_FLOAT", "tensorShape": {"dim": [{"size": "448"}]}}}}}, {"name": "StatefulPartitionedCall/depth_estimate/encoder/functional_1/conv4_block6_0_bn/FusedBatchNormV3/Scaled", "op": "Const", "attr": {"value": {"tensor": {"dtype": "DT_FLOAT", "tensorShape": {"dim": [{"size": "416"}]}}}, "dtype": {"type": "DT_FLOAT"}}}, {"name": "StatefulPartitionedCall/depth_estimate/encoder/functional_1/zero_padding2d/Pad", "op": "Pad", "input": ["input_1", "StatefulPartitionedCall/depth_estimate/encoder/functional_1/zero_padding2d/Pad/paddings"], "attr": {"T": {"type": "DT_FLOAT"}, "Tpaddings": {"type": "DT_INT32"}}}, {"name": "StatefulPartitionedCall/depth_estimate/encoder/functional_1/conv1/relu/Relu", "op": "_FusedConv2D", "input": ["StatefulPartitionedCall/depth_estimate/encoder/functional_1/zero_padding2d/Pad", "StatefulPartitionedCall/depth_estimate/encoder/functional_1/conv1/conv/Conv2D_weights", "StatefulPartitionedCall/depth_estimate/encoder/functional_1/conv1/conv/Conv2D_bn_offset"], "device": "/device:CPU:0", "attr": {"fused_ops": {"list": {"s": ["Qmlhc0FkZA==", "UmVsdQ=="]}}, "dilations": {"list": {"i": ["1", "1", "1", "1"]}}, "T": {"type": "DT_FLOAT"}, "strides": {"list": {"i": ["1", "2", "2", "1"]}}, "data_format": {"s": "TkhXQw=="}, "use_cudnn_on_gpu": {"b": true}, "explicit_paddings": {"list": {}}, "num_args": {"i": "1"}, "epsilon": {"f": 0.0}, "padding": {"s": "VkFMSUQ="}}}, {"name": "StatefulPartitionedCall/depth_estimate/encoder/functional_1/zero_padding2d_1/Pad", "op": "Pad", "input": ["StatefulPartitionedCall/depth_estimate/encoder/functional_1/conv1/relu/Relu", "StatefulPartitionedCall/depth_estimate/encoder/functional_1/zero_padding2d_1/Pad/paddings"], "attr": {"Tpaddings": {"type": "DT_INT32"}, "T": {"type": "DT_FLOAT"}}}, {"name": "StatefulPartitionedCall/depth_estimate/encoder/functional_1/pool1/MaxPool", "op": "MaxPool", "input": ["StatefulPartitionedCall/depth_estimate/encoder/functional_1/zero_padding2d_1/Pad"], "attr": {"ksize": {"list": {"i": ["1", "3", "3", "1"]}}, "padding": {"s": "VkFMSUQ="}, "T": {"type": "DT_FLOAT"}, "strides": {"list": {"i": ["1", "2", "2", "1"]}}, "data_format": {"s": "TkhXQw=="}}}, {"name": "StatefulPartitionedCall/depth_estimate/encoder/functional_1/conv2_block1_0_bn/FusedBatchNormV3/Mul", "op": "Mul", "input": ["StatefulPartitionedCall/depth_estimate/encoder/functional_1/pool1/MaxPool", "StatefulPartitionedCall/depth_estimate/encoder/functional_1/conv2_block1_0_bn/FusedBatchNormV3/Scaled"], "attr": {"T": {"type": "DT_FLOAT"}}}, {"name": "StatefulPartitionedCall/depth_estimate/encoder/functional_1/conv2_block1_0_bn/FusedBatchNormV3", "op": "Add", "input": ["StatefulPartitionedCall/depth_estimate/encoder/functional_1/conv2_block1_0_bn/FusedBatchNormV3/Mul", "StatefulPartitionedCall/depth_estimate/encoder/functional_1/conv2_block1_0_bn/FusedBatchNormV3/Offset"], "attr": {"T": {"type": "DT_FLOAT"}}}, {"name": "StatefulPartitionedCall/depth_estimate/encoder/functional_1/conv2_block1_0_relu/Relu", "op": "Relu", "input": ["StatefulPartitionedCall/depth_estimate/encoder/functional_1/conv2_block1_0_bn/FusedBatchNormV3"], "attr": {"T": {"type": "DT_FLOAT"}}}, {"name": "StatefulPartitionedCall/depth_estimate/encoder/functional_1/conv2_block1_1_relu/Relu", "op": "_FusedConv2D", "input": ["StatefulPartitionedCall/depth_estimate/encoder/functional_1/conv2_block1_0_relu/Relu", "StatefulPartitionedCall/depth_estimate/encoder/functional_1/conv2_block1_1_conv/Conv2D_weights", "StatefulPartitionedCall/depth_estimate/encoder/functional_1/conv2_block1_1_conv/Conv2D_bn_offset"], "device": "/device:CPU:0", "attr": {"T": {"type": "DT_FLOAT"}, "strides": {"list": {"i": ["1", "1", "1", "1"]}}, "data_format": {"s": "TkhXQw=="}, "use_cudnn_on_gpu": {"b": true}, "explicit_paddings": {"list": {}}, "num_args": {"i": "1"}, "epsilon": {"f": 0.0}, "padding": {"s": "VkFMSUQ="}, "fused_ops": {"list": {"s": ["Qmlhc0FkZA==", "UmVsdQ=="]}}, "dilations": {"list": {"i": ["1", "1", "1", "1"]}}}}, {"name": "StatefulPartitionedCall/depth_estimate/encoder/functional_1/conv2_block1_2_conv/Conv2D", "op": "Conv2D", "input": ["StatefulPartitionedCall/depth_estimate/encoder/functional_1/conv2_block1_1_relu/Relu", "unknown_13"], "device": "/device:CPU:0", "attr": {"dilations": {"list": {"i": ["1", "1", "1", "1"]}}, "T": {"type": "DT_FLOAT"}, "strides": {"list": {"i": ["1", "1", "1", "1"]}}, "data_format": {"s": "TkhXQw=="}, "use_cudnn_on_gpu": {"b": true}, "explicit_paddings": {"list": {}}, "padding": {"s": "U0FNRQ=="}}}, {"name": "StatefulPartitionedCall/depth_estimate/encoder/functional_1/conv2_block1_concat/concat", "op": "ConcatV2", "input": ["StatefulPartitionedCall/depth_estimate/encoder/functional_1/pool1/MaxPool", "StatefulPartitionedCall/depth_estimate/encoder/functional_1/conv2_block1_2_conv/Conv2D", "StatefulPartitionedCall/depth_estimate/encoder/functional_1/conv2_block1_concat/concat/axis"], "attr": {"T": {"type": "DT_FLOAT"}, "N": {"i": "2"}, "Tidx": {"type": "DT_INT32"}}}, {"name": "StatefulPartitionedCall/depth_estimate/encoder/functional_1/conv2_block2_0_bn/FusedBatchNormV3/Mul", "op": "Mul", "input": ["StatefulPartitionedCall/depth_estimate/encoder/functional_1/conv2_block1_concat/concat", "StatefulPartitionedCall/depth_estimate/encoder/functional_1/conv2_block2_0_bn/FusedBatchNormV3/Scaled"], "attr": {"T": {"type": "DT_FLOAT"}}}, {"name": "StatefulPartitionedCall/depth_estimate/encoder/functional_1/conv2_block2_0_bn/FusedBatchNormV3", "op": "Add", "input": ["StatefulPartitionedCall/depth_estimate/encoder/functional_1/conv2_block2_0_bn/FusedBatchNormV3/Mul", "StatefulPartitionedCall/depth_estimate/encoder/functional_1/conv2_block2_0_bn/FusedBatchNormV3/Offset"], "attr": {"T": {"type": "DT_FLOAT"}}}, {"name": "StatefulPartitionedCall/depth_estimate/encoder/functional_1/conv2_block2_0_relu/Relu", "op": "Relu", "input": ["StatefulPartitionedCall/depth_estimate/encoder/functional_1/conv2_block2_0_bn/FusedBatchNormV3"], "attr": {"T": {"type": "DT_FLOAT"}}}, {"name": "StatefulPartitionedCall/depth_estimate/encoder/functional_1/conv2_block2_1_relu/Relu", "op": "_FusedConv2D", "input": ["StatefulPartitionedCall/depth_estimate/encoder/functional_1/conv2_block2_0_relu/Relu", "StatefulPartitionedCall/depth_estimate/encoder/functional_1/conv2_block2_1_conv/Conv2D_weights", "StatefulPartitionedCall/depth_estimate/encoder/functional_1/conv2_block2_1_conv/Conv2D_bn_offset"], "device": "/device:CPU:0", "attr": {"dilations": {"list": {"i": ["1", "1", "1", "1"]}}, "T": {"type": "DT_FLOAT"}, "strides": {"list": {"i": ["1", "1", "1", "1"]}}, "data_format": {"s": "TkhXQw=="}, "explicit_paddings": {"list": {}}, "use_cudnn_on_gpu": {"b": true}, "num_args": {"i": "1"}, "epsilon": {"f": 0.0}, "padding": {"s": "VkFMSUQ="}, "fused_ops": {"list": {"s": ["Qmlhc0FkZA==", "UmVsdQ=="]}}}}, {"name": "StatefulPartitionedCall/depth_estimate/encoder/functional_1/conv2_block2_2_conv/Conv2D", "op": "Conv2D", "input": ["StatefulPartitionedCall/depth_estimate/encoder/functional_1/conv2_block2_1_relu/Relu", "unknown_23"], "device": "/device:CPU:0", "attr": {"padding": {"s": "U0FNRQ=="}, "dilations": {"list": {"i": ["1", "1", "1", "1"]}}, "T": {"type": "DT_FLOAT"}, "strides": {"list": {"i": ["1", "1", "1", "1"]}}, "data_format": {"s": "TkhXQw=="}, "use_cudnn_on_gpu": {"b": true}, "explicit_paddings": {"list": {}}}}, {"name": "StatefulPartitionedCall/depth_estimate/encoder/functional_1/conv2_block2_concat/concat", "op": "ConcatV2", "input": ["StatefulPartitionedCall/depth_estimate/encoder/functional_1/conv2_block1_concat/concat", "StatefulPartitionedCall/depth_estimate/encoder/functional_1/conv2_block2_2_conv/Conv2D", "StatefulPartitionedCall/depth_estimate/encoder/functional_1/conv2_block2_concat/concat/axis"], "attr": {"N": {"i": "2"}, "Tidx": {"type": "DT_INT32"}, "T": {"type": "DT_FLOAT"}}}, {"name": "StatefulPartitionedCall/depth_estimate/encoder/functional_1/conv2_block3_0_bn/FusedBatchNormV3/Mul", "op": "Mul", "input": ["StatefulPartitionedCall/depth_estimate/encoder/functional_1/conv2_block2_concat/concat", "StatefulPartitionedCall/depth_estimate/encoder/functional_1/conv2_block3_0_bn/FusedBatchNormV3/Scaled"], "attr": {"T": {"type": "DT_FLOAT"}}}, {"name": "StatefulPartitionedCall/depth_estimate/encoder/functional_1/conv2_block3_0_bn/FusedBatchNormV3", "op": "Add", "input": ["StatefulPartitionedCall/depth_estimate/encoder/functional_1/conv2_block3_0_bn/FusedBatchNormV3/Mul", "StatefulPartitionedCall/depth_estimate/encoder/functional_1/conv2_block3_0_bn/FusedBatchNormV3/Offset"], "attr": {"T": {"type": "DT_FLOAT"}}}, {"name": "StatefulPartitionedCall/depth_estimate/encoder/functional_1/conv2_block3_0_relu/Relu", "op": "Relu", "input": ["StatefulPartitionedCall/depth_estimate/encoder/functional_1/conv2_block3_0_bn/FusedBatchNormV3"], "attr": {"T": {"type": "DT_FLOAT"}}}, {"name": "StatefulPartitionedCall/depth_estimate/encoder/functional_1/conv2_block3_1_relu/Relu", "op": "_FusedConv2D", "input": ["StatefulPartitionedCall/depth_estimate/encoder/functional_1/conv2_block3_0_relu/Relu", "StatefulPartitionedCall/depth_estimate/encoder/functional_1/conv2_block3_1_conv/Conv2D_weights", "StatefulPartitionedCall/depth_estimate/encoder/functional_1/conv2_block3_1_conv/Conv2D_bn_offset"], "device": "/device:CPU:0", "attr": {"strides": {"list": {"i": ["1", "1", "1", "1"]}}, "data_format": {"s": "TkhXQw=="}, "explicit_paddings": {"list": {}}, "use_cudnn_on_gpu": {"b": true}, "num_args": {"i": "1"}, "epsilon": {"f": 0.0}, "padding": {"s": "VkFMSUQ="}, "fused_ops": {"list": {"s": ["Qmlhc0FkZA==", "UmVsdQ=="]}}, "dilations": {"list": {"i": ["1", "1", "1", "1"]}}, "T": {"type": "DT_FLOAT"}}}, {"name": "StatefulPartitionedCall/depth_estimate/encoder/functional_1/conv2_block3_2_conv/Conv2D", "op": "Conv2D", "input": ["StatefulPartitionedCall/depth_estimate/encoder/functional_1/conv2_block3_1_relu/Relu", "unknown_33"], "device": "/device:CPU:0", "attr": {"dilations": {"list": {"i": ["1", "1", "1", "1"]}}, "T": {"type": "DT_FLOAT"}, "strides": {"list": {"i": ["1", "1", "1", "1"]}}, "data_format": {"s": "TkhXQw=="}, "explicit_paddings": {"list": {}}, "use_cudnn_on_gpu": {"b": true}, "padding": {"s": "U0FNRQ=="}}}, {"name": "StatefulPartitionedCall/depth_estimate/encoder/functional_1/conv2_block3_concat/concat", "op": "ConcatV2", "input": ["StatefulPartitionedCall/depth_estimate/encoder/functional_1/conv2_block2_concat/concat", "StatefulPartitionedCall/depth_estimate/encoder/functional_1/conv2_block3_2_conv/Conv2D", "StatefulPartitionedCall/depth_estimate/encoder/functional_1/conv2_block3_concat/concat/axis"], "attr": {"Tidx": {"type": "DT_INT32"}, "T": {"type": "DT_FLOAT"}, "N": {"i": "2"}}}, {"name": "StatefulPartitionedCall/depth_estimate/encoder/functional_1/conv2_block4_0_bn/FusedBatchNormV3/Mul", "op": "Mul", "input": ["StatefulPartitionedCall/depth_estimate/encoder/functional_1/conv2_block3_concat/concat", "StatefulPartitionedCall/depth_estimate/encoder/functional_1/conv2_block4_0_bn/FusedBatchNormV3/Scaled"], "attr": {"T": {"type": "DT_FLOAT"}}}, {"name": "StatefulPartitionedCall/depth_estimate/encoder/functional_1/conv2_block4_0_bn/FusedBatchNormV3", "op": "Add", "input": ["StatefulPartitionedCall/depth_estimate/encoder/functional_1/conv2_block4_0_bn/FusedBatchNormV3/Mul", "StatefulPartitionedCall/depth_estimate/encoder/functional_1/conv2_block4_0_bn/FusedBatchNormV3/Offset"], "attr": {"T": {"type": "DT_FLOAT"}}}, {"name": "StatefulPartitionedCall/depth_estimate/encoder/functional_1/conv2_block4_0_relu/Relu", "op": "Relu", "input": ["StatefulPartitionedCall/depth_estimate/encoder/functional_1/conv2_block4_0_bn/FusedBatchNormV3"], "attr": {"T": {"type": "DT_FLOAT"}}}, {"name": "StatefulPartitionedCall/depth_estimate/encoder/functional_1/conv2_block4_1_relu/Relu", "op": "_FusedConv2D", "input": ["StatefulPartitionedCall/depth_estimate/encoder/functional_1/conv2_block4_0_relu/Relu", "StatefulPartitionedCall/depth_estimate/encoder/functional_1/conv2_block4_1_conv/Conv2D_weights", "StatefulPartitionedCall/depth_estimate/encoder/functional_1/conv2_block4_1_conv/Conv2D_bn_offset"], "device": "/device:CPU:0", "attr": {"num_args": {"i": "1"}, "epsilon": {"f": 0.0}, "padding": {"s": "VkFMSUQ="}, "fused_ops": {"list": {"s": ["Qmlhc0FkZA==", "UmVsdQ=="]}}, "dilations": {"list": {"i": ["1", "1", "1", "1"]}}, "T": {"type": "DT_FLOAT"}, "strides": {"list": {"i": ["1", "1", "1", "1"]}}, "data_format": {"s": "TkhXQw=="}, "use_cudnn_on_gpu": {"b": true}, "explicit_paddings": {"list": {}}}}, {"name": "StatefulPartitionedCall/depth_estimate/encoder/functional_1/conv2_block4_2_conv/Conv2D", "op": "Conv2D", "input": ["StatefulPartitionedCall/depth_estimate/encoder/functional_1/conv2_block4_1_relu/Relu", "unknown_43"], "device": "/device:CPU:0", "attr": {"dilations": {"list": {"i": ["1", "1", "1", "1"]}}, "T": {"type": "DT_FLOAT"}, "data_format": {"s": "TkhXQw=="}, "strides": {"list": {"i": ["1", "1", "1", "1"]}}, "explicit_paddings": {"list": {}}, "use_cudnn_on_gpu": {"b": true}, "padding": {"s": "U0FNRQ=="}}}, {"name": "StatefulPartitionedCall/depth_estimate/encoder/functional_1/conv2_block4_concat/concat", "op": "ConcatV2", "input": ["StatefulPartitionedCall/depth_estimate/encoder/functional_1/conv2_block3_concat/concat", "StatefulPartitionedCall/depth_estimate/encoder/functional_1/conv2_block4_2_conv/Conv2D", "StatefulPartitionedCall/depth_estimate/encoder/functional_1/conv2_block4_concat/concat/axis"], "attr": {"T": {"type": "DT_FLOAT"}, "N": {"i": "2"}, "Tidx": {"type": "DT_INT32"}}}, {"name": "StatefulPartitionedCall/depth_estimate/encoder/…
2D_bn_offset", "shape": [128], "dtype": "float32"}, {"name": "StatefulPartitionedCall/depth_estimate/encoder/functional_1/conv2_block3_1_conv/Conv2D_weights", "shape": [1, 1, 128, 128], "dtype": "float32"}, {"name": "StatefulPartitionedCall/depth_estimate/encoder/functional_1/conv2_block3_1_conv/Conv2D_bn_offset", "shape": [128], "dtype": "float32"}, {"name": "StatefulPartitionedCall/depth_estimate/encoder/functional_1/conv4_block5_0_bn/FusedBatchNormV3/Offset", "shape": [384], "dtype": "float32"}, {"name": "StatefulPartitionedCall/depth_estimate/encoder/functional_1/conv2_block4_1_conv/Conv2D_weights", "shape": [1, 1, 160, 128], "dtype": "float32"}, {"name": "StatefulPartitionedCall/depth_estimate/encoder/functional_1/conv2_block4_1_conv/Conv2D_bn_offset", "shape": [128], "dtype": "float32"}, {"name": "StatefulPartitionedCall/depth_estimate/encoder/functional_1/conv2_block5_1_conv/Conv2D_weights", "shape": [1, 1, 192, 128], "dtype": "float32"}, {"name": "StatefulPartitionedCall/depth_estimate/encoder/functional_1/conv2_block5_1_conv/Conv2D_bn_offset", "shape": [128], "dtype": "float32"}, {"name": "StatefulPartitionedCall/depth_estimate/encoder/functional_1/conv4_block4_0_bn/FusedBatchNormV3/Scaled", "shape": [352], "dtype": "float32"}, {"name": "StatefulPartitionedCall/depth_estimate/encoder/functional_1/conv2_block6_1_conv/Conv2D_weights", "shape": [1, 1, 224, 128], "dtype": "float32"}, {"name": "StatefulPartitionedCall/depth_estimate/encoder/functional_1/conv2_block6_1_conv/Conv2D_bn_offset", "shape": [128], "dtype": "float32"}, {"name": "StatefulPartitionedCall/depth_estimate/encoder/functional_1/conv3_block1_1_conv/Conv2D_weights", "shape": [1, 1, 128, 128], "dtype": "float32"}, {"name": "StatefulPartitionedCall/depth_estimate/encoder/functional_1/conv4_block4_0_bn/FusedBatchNormV3/Offset", "shape": [352], "dtype": "float32"}, {"name": "StatefulPartitionedCall/depth_estimate/encoder/functional_1/conv3_block1_1_conv/Conv2D_bn_offset", "shape": [128], "dtype": "float32"}, {"name": "StatefulPartitionedCall/depth_estimate/encoder/functional_1/conv3_block2_1_conv/Conv2D_weights", "shape": [1, 1, 160, 128], "dtype": "float32"}, {"name": "StatefulPartitionedCall/depth_estimate/encoder/functional_1/conv3_block2_1_conv/Conv2D_bn_offset", "shape": [128], "dtype": "float32"}, {"name": "StatefulPartitionedCall/depth_estimate/encoder/functional_1/conv3_block3_1_conv/Conv2D_weights", "shape": [1, 1, 192, 128], "dtype": "float32"}, {"name": "StatefulPartitionedCall/depth_estimate/encoder/functional_1/conv4_block3_0_bn/FusedBatchNormV3/Scaled", "shape": [320], "dtype": "float32"}, {"name": "StatefulPartitionedCall/depth_estimate/encoder/functional_1/conv3_block3_1_conv/Conv2D_bn_offset", "shape": [128], "dtype": "float32"}, {"name": "StatefulPartitionedCall/depth_estimate/encoder/functional_1/conv3_block4_1_conv/Conv2D_weights", "shape": [1, 1, 224, 128], "dtype": "float32"}, {"name": "StatefulPartitionedCall/depth_estimate/encoder/functional_1/conv3_block4_1_conv/Conv2D_bn_offset", "shape": [128], "dtype": "float32"}, {"name": "StatefulPartitionedCall/depth_estimate/encoder/functional_1/conv4_block3_0_bn/FusedBatchNormV3/Offset", "shape": [320], "dtype": "float32"}, {"name": "StatefulPartitionedCall/depth_estimate/encoder/functional_1/conv3_block5_1_conv/Conv2D_weights", "shape": [1, 1, 256, 128], "dtype": "float32"}, {"name": "StatefulPartitionedCall/depth_estimate/encoder/functional_1/conv3_block5_1_conv/Conv2D_bn_offset", "shape": [128], "dtype": "float32"}, {"name": "StatefulPartitionedCall/depth_estimate/encoder/functional_1/conv3_block6_1_conv/Conv2D_weights", "shape": [1, 1, 288, 128], "dtype": "float32"}, {"name": "StatefulPartitionedCall/depth_estimate/encoder/functional_1/conv3_block6_1_conv/Conv2D_bn_offset", "shape": [128], "dtype": "float32"}, {"name": "StatefulPartitionedCall/depth_estimate/encoder/functional_1/conv4_block2_0_bn/FusedBatchNormV3/Scaled", "shape": [288], "dtype": "float32"}, {"name": "StatefulPartitionedCall/depth_estimate/encoder/functional_1/conv3_block7_1_conv/Conv2D_weights", "shape": [1, 1, 320, 128], "dtype": "float32"}, {"name": "StatefulPartitionedCall/depth_estimate/encoder/functional_1/conv3_block7_1_conv/Conv2D_bn_offset", "shape": [128], "dtype": "float32"}, {"name": "StatefulPartitionedCall/depth_estimate/encoder/functional_1/conv3_block8_1_conv/Conv2D_weights", "shape": [1, 1, 352, 128], "dtype": "float32"}, {"name": "StatefulPartitionedCall/depth_estimate/encoder/functional_1/conv4_block2_0_bn/FusedBatchNormV3/Offset", "shape": [288], "dtype": "float32"}, {"name": "StatefulPartitionedCall/depth_estimate/encoder/functional_1/conv3_block8_1_conv/Conv2D_bn_offset", "shape": [128], "dtype": "float32"}, {"name": "StatefulPartitionedCall/depth_estimate/encoder/functional_1/conv3_block9_1_conv/Conv2D_weights", "shape": [1, 1, 384, 128], "dtype": "float32"}, {"name": "StatefulPartitionedCall/depth_estimate/encoder/functional_1/conv3_block9_1_conv/Conv2D_bn_offset", "shape": [128], "dtype": "float32"}, {"name": "StatefulPartitionedCall/depth_estimate/encoder/functional_1/conv3_block10_1_conv/Conv2D_weights", "shape": [1, 1, 416, 128], "dtype": "float32"}, {"name": "StatefulPartitionedCall/depth_estimate/encoder/functional_1/conv4_block1_0_bn/FusedBatchNormV3/Scaled", "shape": [256], "dtype": "float32"}, {"name": "StatefulPartitionedCall/depth_estimate/encoder/functional_1/conv3_block10_1_conv/Conv2D_bn_offset", "shape": [128], "dtype": "float32"}, {"name": "StatefulPartitionedCall/depth_estimate/encoder/functional_1/conv3_block11_1_conv/Conv2D_weights", "shape": [1, 1, 448, 128], "dtype": "float32"}, {"name": "StatefulPartitionedCall/depth_estimate/encoder/functional_1/conv3_block11_1_conv/Conv2D_bn_offset", "shape": [128], "dtype": "float32"}, {"name": "StatefulPartitionedCall/depth_estimate/encoder/functional_1/conv4_block1_0_bn/FusedBatchNormV3/Offset", "shape": [256], "dtype": "float32"}, {"name": "StatefulPartitionedCall/depth_estimate/encoder/functional_1/conv3_block12_1_conv/Conv2D_weights", "shape": [1, 1, 480, 128], "dtype": "float32"}, {"name": "StatefulPartitionedCall/depth_estimate/encoder/functional_1/conv3_block12_1_conv/Conv2D_bn_offset", "shape": [128], "dtype": "float32"}, {"name": "StatefulPartitionedCall/depth_estimate/encoder/functional_1/conv4_block1_1_conv/Conv2D_weights", "shape": [1, 1, 256, 128], "dtype": "float32"}, {"name": "StatefulPartitionedCall/depth_estimate/encoder/functional_1/conv4_block1_1_conv/Conv2D_bn_offset", "shape": [128], "dtype": "float32"}, {"name": "StatefulPartitionedCall/depth_estimate/encoder/functional_1/pool3_bn/FusedBatchNormV3/Scaled", "shape": [512], "dtype": "float32"}, {"name": "StatefulPartitionedCall/depth_estimate/encoder/functional_1/conv4_block2_1_conv/Conv2D_weights", "shape": [1, 1, 288, 128], "dtype": "float32"}, {"name": "StatefulPartitionedCall/depth_estimate/encoder/functional_1/conv4_block2_1_conv/Conv2D_bn_offset", "shape": [128], "dtype": "float32"}, {"name": "StatefulPartitionedCall/depth_estimate/encoder/functional_1/conv4_block3_1_conv/Conv2D_weights", "shape": [1, 1, 320, 128], "dtype": "float32"}, {"name": "StatefulPartitionedCall/depth_estimate/encoder/functional_1/pool3_bn/FusedBatchNormV3/Offset", "shape": [512], "dtype": "float32"}, {"name": "StatefulPartitionedCall/depth_estimate/encoder/functional_1/conv4_block3_1_conv/Conv2D_bn_offset", "shape": [128], "dtype": "float32"}, {"name": "StatefulPartitionedCall/depth_estimate/encoder/functional_1/conv4_block4_1_conv/Conv2D_weights", "shape": [1, 1, 352, 128], "dtype": "float32"}, {"name": "StatefulPartitionedCall/depth_estimate/encoder/functional_1/conv4_block4_1_conv/Conv2D_bn_offset", "shape": [128], "dtype": "float32"}, {"name": "StatefulPartitionedCall/depth_estimate/encoder/functional_1/conv4_block5_1_conv/Conv2D_weights", "shape": [1, 1, 384, 128], "dtype": "float32"}, {"name": "StatefulPartitionedCall/depth_estimate/encoder/functional_1/conv3_block12_0_bn/FusedBatchNormV3/Scaled", "shape": [480], "dtype": "float32"}, {"name": "StatefulPartitionedCall/depth_estimate/encoder/functional_1/conv4_block5_1_conv/Conv2D_bn_offset", "shape": [128], "dtype": "float32"}, {"name": "StatefulPartitionedCall/depth_estimate/encoder/functional_1/conv4_block6_1_conv/Conv2D_weights", "shape": [1, 1, 416, 128], "dtype": "float32"}, {"name": "StatefulPartitionedCall/depth_estimate/encoder/functional_1/conv4_block6_1_conv/Conv2D_bn_offset", "shape": [128], "dtype": "float32"}, {"name": "StatefulPartitionedCall/depth_estimate/encoder/functional_1/conv3_block12_0_bn/FusedBatchNormV3/Offset", "shape": [480], "dtype": "float32"}, {"name": "StatefulPartitionedCall/depth_estimate/encoder/functional_1/conv4_block7_1_conv/Conv2D_weights", "shape": [1, 1, 448, 128], "dtype": "float32"}, {"name": "StatefulPartitionedCall/depth_estimate/encoder/functional_1/conv4_block7_1_conv/Conv2D_bn_offset", "shape": [128], "dtype": "float32"}, {"name": "StatefulPartitionedCall/depth_estimate/encoder/functional_1/conv4_block8_1_conv/Conv2D_weights", "shape": [1, 1, 480, 128], "dtype": "float32"}, {"name": "StatefulPartitionedCall/depth_estimate/encoder/functional_1/conv4_block8_1_conv/Conv2D_bn_offset", "shape": [128], "dtype": "float32"}, {"name": "StatefulPartitionedCall/depth_estimate/encoder/functional_1/conv3_block11_0_bn/FusedBatchNormV3/Scaled", "shape": [448], "dtype": "float32"}, {"name": "StatefulPartitionedCall/depth_estimate/encoder/functional_1/conv4_block9_1_conv/Conv2D_weights", "shape": [1, 1, 512, 128], "dtype": "float32"}, {"name": "StatefulPartitionedCall/depth_estimate/encoder/functional_1/conv4_block9_1_conv/Conv2D_bn_offset", "shape": [128], "dtype": "float32"}, {"name": "StatefulPartitionedCall/depth_estimate/encoder/functional_1/conv4_block10_1_conv/Conv2D_weights", "shape": [1, 1, 544, 128], "dtype": "float32"}, {"name": "StatefulPartitionedCall/depth_estimate/encoder/functional_1/conv3_block11_0_bn/FusedBatchNormV3/Offset", "shape": [448], "dtype": "float32"}, {"name": "StatefulPartitionedCall/depth_estimate/encoder/functional_1/conv4_block10_1_conv/Conv2D_bn_offset", "shape": [128], "dtype": "float32"}, {"name": "StatefulPartitionedCall/depth_estimate/encoder/functional_1/conv4_block11_1_conv/Conv2D_weights", "shape": [1, 1, 576, 128], "dtype": "float32"}, {"name": "StatefulPartitionedCall/depth_estimate/encoder/functional_1/conv4_block11_1_conv/Conv2D_bn_offset", "shape": [128], "dtype": "float32"}, {"name": "StatefulPartitionedCall/depth_estimate/encoder/functional_1/conv4_block12_1_conv/Conv2D_weights", "shape": [1, 1, 608, 128], "dtype": "float32"}, {"name": "StatefulPartitionedCall/depth_estimate/encoder/functional_1/conv3_block10_0_bn/FusedBatchNormV3/Scaled", "shape": [416], "dtype": "float32"}, {"name": "StatefulPartitionedCall/depth_estimate/encoder/functional_1/conv4_block12_1_conv/Conv2D_bn_offset", "shape": [128], "dtype": "float32"}, {"name": "StatefulPartitionedCall/depth_estimate/encoder/functional_1/conv4_block13_1_conv/Conv2D_weights", "shape": [1, 1, 640, 128], "dtype": "float32"}, {"name": "StatefulPartitionedCall/depth_estimate/encoder/functional_1/conv4_block13_1_conv/Conv2D_bn_offset", "shape": [128], "dtype": "float32"}, {"name": "StatefulPartitionedCall/depth_estimate/encoder/functional_1/conv3_block10_0_bn/FusedBatchNormV3/Offset", "shape": [416], "dtype": "float32"}, {"name": "StatefulPartitionedCall/depth_estimate/encoder/functional_1/conv4_block14_1_conv/Conv2D_weights", "shape": [1, 1, 672, 128], "dtype": "float32"}, {"name": "StatefulPartitionedCall/depth_estimate/encoder/functional_1/conv4_block14_1_conv/Conv2D_bn_offset", "shape": [128], "dtype": "float32"}, {"name": "StatefulPartitionedCall/depth_estimate/encoder/functional_1/conv4_block15_1_conv/Conv2D_weights", "shape": [1, 1, 704, 128], "dtype": "float32"}, {"name": "StatefulPartitionedCall/depth_estimate/encoder/functional_1/conv4_block15_1_conv/Conv2D_bn_offset", "shape": [128], "dtype": "float32"}, {"name": "StatefulPartitionedCall/depth_estimate/encoder/functional_1/conv3_block9_0_bn/FusedBatchNormV3/Scaled", "shape": [384], "dtype": "float32"}, {"name": "StatefulPartitionedCall/depth_estimate/encoder/functional_1/conv4_block16_1_conv/Conv2D_weights", "shape": [1, 1, 736, 128], "dtype": "float32"}, {"name": "StatefulPartitionedCall/depth_estimate/encoder/functional_1/conv4_block16_1_conv/Conv2D_bn_offset", "shape": [128], "dtype": "float32"}, {"name": "StatefulPartitionedCall/depth_estimate/encoder/functional_1/conv4_block17_1_conv/Conv2D_weights", "shape": [1, 1, 768, 128], "dtype": "float32"}, {"name": "StatefulPartitionedCall/depth_estimate/encoder/functional_1/conv3_block9_0_bn/FusedBatchNormV3/Offset", "shape": [384], "dtype": "float32"}, {"name": "StatefulPartitionedCall/depth_estimate/encoder/functional_1/conv4_block17_1_conv/Conv2D_bn_offset", "shape": [128], "dtype": "float32"}, {"name": "StatefulPartitionedCall/depth_estimate/encoder/functional_1/conv4_block18_1_conv/Conv2D_weights", "shape": [1, 1, 800, 128], "dtype": "float32"}, {"name": "StatefulPartitionedCall/depth_estimate/encoder/functional_1/conv4_block18_1_conv/Conv2D_bn_offset", "shape": [128], "dtype": "float32"}, {"name": "StatefulPartitionedCall/depth_estimate/encoder/functional_1/conv4_block19_1_conv/Conv2D_weights", "shape": [1, 1, 832, 128], "dtype": "float32"}, {"name": "StatefulPartitionedCall/depth_estimate/encoder/functional_1/conv3_block8_0_bn/FusedBatchNormV3/Scaled", "shape": [352], "dtype": "float32"}, {"name": "StatefulPartitionedCall/depth_estimate/encoder/functional_1/conv4_block19_1_conv/Conv2D_bn_offset", "shape": [128], "dtype": "float32"}, {"name": "StatefulPartitionedCall/depth_estimate/encoder/functional_1/conv4_block20_1_conv/Conv2D_weights", "shape": [1, 1, 864, 128], "dtype": "float32"}, {"name": "StatefulPartitionedCall/depth_estimate/encoder/functional_1/conv4_block20_1_conv/Conv2D_bn_offset", "shape": [128], "dtype": "float32"}, {"name": "StatefulPartitionedCall/depth_estimate/encoder/functional_1/conv3_block8_0_bn/FusedBatchNormV3/Offset", "shape": [352], "dtype": "float32"}, {"name": "StatefulPartitionedCall/depth_estimate/encoder/functional_1/conv4_block21_1_conv/Conv2D_weights", "shape": [1, 1, 896, 128], "dtype": "float32"}, {"name": "StatefulPartitionedCall/depth_estimate/encoder/functional_1/conv4_block21_1_conv/Conv2D_bn_offset", "shape": [128], "dtype": "float32"}, {"name": "StatefulPartitionedCall/depth_estimate/encoder/functional_1/conv4_block22_1_conv/Conv2D_weights", "shape": [1, 1, 928, 128], "dtype": "float32"}, {"name": "StatefulPartitionedCall/depth_estimate/encoder/functional_1/conv4_block22_1_conv/Conv2D_bn_offset", "shape": [128], "dtype": "float32"}, {"name": "StatefulPartitionedCall/depth_estimate/encoder/functional_1/conv3_block7_0_bn/FusedBatchNormV3/Scaled", "shape": [320], "dtype": "float32"}, {"name": "StatefulPartitionedCall/depth_estimate/encoder/functional_1/conv4_block23_1_conv/Conv2D_weights", "shape": [1, 1, 960, 128], "dtype": "float32"}, {"name": "StatefulPartitionedCall/depth_estimate/encoder/functional_1/conv4_block23_1_conv/Conv2D_bn_offset", "shape": [128], "dtype": "float32"}, {"name": "StatefulPartitionedCall/depth_estimate/encoder/functional_1/conv4_block24_1_conv/Conv2D_weights", "shape": [1, 1, 992, 128], "dtype": "float32"}, {"name": "StatefulPartitionedCall/depth_estimate/encoder/functional_1/conv3_block7_0_bn/FusedBatchNormV3/Offset", "shape": [320], "dtype": "float32"}, {"name": "StatefulPartitionedCall/depth_estimate/encoder/functional_1/conv4_block24_1_conv/Conv2D_bn_offset", "shape": [128], "dtype": "float32"}, {"name": "StatefulPartitionedCall/depth_estimate/encoder/functional_1/conv4_block25_1_conv/Conv2D_weights", "shape": [1, 1, 1024, 128], "dtype": "float32"}, {"name": "StatefulPartitionedCall/depth_estimate/encoder/functional_1/conv4_block25_1_conv/Conv2D_bn_offset", "shape": [128], "dtype": "float32"}, {"name": "StatefulPartitionedCall/depth_estimate/encoder/functional_1/conv4_block26_1_conv/Conv2D_weights", "shape": [1, 1, 1056, 128], "dtype": "float32"}, {"name": "StatefulPartitionedCall/depth_estimate/encoder/functional_1/conv3_block6_0_bn/FusedBatchNormV3/Scaled", "shape": [288], "dtype": "float32"}, {"name": "StatefulPartitionedCall/depth_estimate/encoder/functional_1/conv4_block26_1_conv/Conv2D_bn_offset", "shape": [128], "dtype": "float32"}, {"name": "StatefulPartitionedCall/depth_estimate/encoder/functional_1/conv4_block27_1_conv/Conv2D_weights", "shape": [1, 1, 1088, 128], "dtype": "float32"}, {"name": "StatefulPartitionedCall/depth_estimate/encoder/functional_1/conv4_block27_1_conv/Conv2D_bn_offset", "shape": [128], "dtype": "float32"}, {"name": "StatefulPartitionedCall/depth_estimate/encoder/functional_1/conv3_block6_0_bn/FusedBatchNormV3/Offset", "shape": [288], "dtype": "float32"}, {"name": "StatefulPartitionedCall/depth_estimate/encoder/functional_1/conv4_block28_1_conv/Conv2D_weights", "shape": [1, 1, 1120, 128], "dtype": "float32"}, {"name": "StatefulPartitionedCall/depth_estimate/encoder/functional_1/conv4_block28_1_conv/Conv2D_bn_offset", "shape": [128], "dtype": "float32"}, {"name": "StatefulPartitionedCall/depth_estimate/encoder/functional_1/conv4_block29_1_conv/Conv2D_weights", "shape": [1, 1, 1152, 128], "dtype": "float32"}, {"name": "StatefulPartitionedCall/depth_estimate/encoder/functional_1/conv4_block29_1_conv/Conv2D_bn_offset", "shape": [128], "dtype": "float32"}, {"name": "StatefulPartitionedCall/depth_estimate/encoder/functional_1/conv3_block5_0_bn/FusedBatchNormV3/Scaled", "shape": [256], "dtype": "float32"}, {"name": "StatefulPartitionedCall/depth_estimate/encoder/functional_1/conv4_block30_1_conv/Conv2D_weights", "shape": [1, 1, 1184, 128], "dtype": "float32"}, {"name": "StatefulPartitionedCall/depth_estimate/encoder/functional_1/conv4_block30_1_conv/Conv2D_bn_offset", "shape": [128], "dtype": "float32"}, {"name": "StatefulPartitionedCall/depth_estimate/encoder/functional_1/conv4_block31_1_conv/Conv2D_weights", "shape": [1, 1, 1216, 128], "dtype": "float32"}, {"name": "StatefulPartitionedCall/depth_estimate/encoder/functional_1/conv3_block5_0_bn/FusedBatchNormV3/Offset", "shape": [256], "dtype": "float32"}, {"name": "StatefulPartitionedCall/depth_estimate/encoder/functional_1/conv4_block31_1_conv/Conv2D_bn_offset", "shape": [128], "dtype": "float32"}, {"name": "StatefulPartitionedCall/depth_estimate/encoder/functional_1/conv4_block32_1_conv/Conv2D_weights", "shape": [1, 1, 1248, 128], "dtype": "float32"}, {"name": "StatefulPartitionedCall/depth_estimate/encoder/functional_1/conv4_block32_1_conv/Conv2D_bn_offset", "shape": [128], "dtype": "float32"}, {"name": "StatefulPartitionedCall/depth_estimate/encoder/functional_1/conv5_block1_1_conv/Conv2D_weights", "shape": [1, 1, 640, 128], "dtype": "float32"}, {"name": "StatefulPartitionedCall/depth_estimate/encoder/functional_1/conv3_block4_0_bn/FusedBatchNormV3/Scaled", "shape": [224], "dtype": "float32"}, {"name": "StatefulPartitionedCall/depth_estimate/encoder/functional_1/conv5_block1_1_conv/Conv2D_bn_offset", "shape": [128], "dtype": "float32"}, {"name": "StatefulPartitionedCall/depth_estimate/encoder/functional_1/conv5_block2_1_conv/Conv2D_weights", "shape": [1, 1, 672, 128], "dtype": "float32"}, {"name": "StatefulPartitionedCall/depth_estimate/encoder/functional_1/conv5_block2_1_conv/Conv2D_bn_offset", "shape": [128], "dtype": "float32"}, {"name": "StatefulPartitionedCall/depth_estimate/encoder/functional_1/conv3_block4_0_bn/FusedBatchNormV3/Offset", "shape": [224], "dtype": "float32"}, {"name": "StatefulPartitionedCall/depth_estimate/encoder/functional_1/conv5_block3_1_conv/Conv2D_weights", "shape": [1, 1, 704, 128], "dtype": "float32"}, {"name": "StatefulPartitionedCall/depth_estimate/encoder/functional_1/conv5_block3_1_conv/Conv2D_bn_offset", "shape": [128], "dtype": "float32"}, {"name": "StatefulPartitionedCall/depth_estimate/encoder/functional_1/conv5_block4_1_conv/Conv2D_weights", "shape": [1, 1, 736, 128], "dtype": "float32"}, {"name": "StatefulPartitionedCall/depth_estimate/encoder/functional_1/conv5_block4_1_conv/Conv2D_bn_offset", "shape": [128], "dtype": "float32"}, {"name": "StatefulPartitionedCall/depth_estimate/encoder/functional_1/conv3_block3_0_bn/FusedBatchNormV3/Scaled", "shape": [192], "dtype": "float32"}, {"name": "StatefulPartitionedCall/depth_estimate/encoder/functional_1/conv5_block5_1_conv/Conv2D_weights", "shape": [1, 1, 768, 128], "dtype": "float32"}, {"name": "StatefulPartitionedCall/depth_estimate/encoder/functional_1/conv5_block5_1_conv/Conv2D_bn_offset", "shape": [128], "dtype": "float32"}, {"name": "StatefulPartitionedCall/depth_estimate/encoder/functional_1/conv5_block6_1_conv/Conv2D_weights", "shape": [1, 1, 800, 128], "dtype": "float32"}, {"name": "StatefulPartitionedCall/depth_estimate/encoder/functional_1/conv3_block3_0_bn/FusedBatchNormV3/Offset", "shape": [192], "dtype": "float32"}, {"name": "StatefulPartitionedCall/depth_estimate/encoder/functional_1/conv5_block6_1_conv/Conv2D_bn_offset", "shape": [128], "dtype": "float32"}, {"name": "StatefulPartitionedCall/depth_estimate/encoder/functional_1/conv5_block7_1_conv/Conv2D_weights", "shape": [1, 1, 832, 128], "dtype": "float32"}, {"name": "StatefulPartitionedCall/depth_estimate/encoder/functional_1/conv5_block7_1_conv/Conv2D_bn_offset", "shape": [128], "dtype": "float32"}, {"name": "StatefulPartitionedCall/depth_estimate/encoder/functional_1/conv5_block8_1_conv/Conv2D_weights", "shape": [1, 1, 864, 128], "dtype": "float32"}, {"name": "StatefulPartitionedCall/depth_estimate/encoder/functional_1/conv3_block2_0_bn/FusedBatchNormV3/Scaled", "shape": [160], "dtype": "float32"}, {"name": "StatefulPartitionedCall/depth_estimate/encoder/functional_1/conv5_block8_1_conv/Conv2D_bn_offset", "shape": [128], "dtype": "float32"}, {"name": "StatefulPartitionedCall/depth_estimate/encoder/functional_1/conv5_block9_1_conv/Conv2D_weights", "shape": [1, 1, 896, 128], "dtype": "float32"}, {"name": "StatefulPartitionedCall/depth_estimate/encoder/functional_1/conv5_block9_1_conv/Conv2D_bn_offset", "shape": [128], "dtype": "float32"}, {"name": "StatefulPartitionedCall/depth_estimate/encoder/functional_1/conv3_block2_0_bn/FusedBatchNormV3/Offset", "shape": [160], "dtype": "float32"}, {"name": "StatefulPartitionedCall/depth_estimate/encoder/functional_1/conv5_block10_1_conv/Conv2D_weights", "shape": [1, 1, 928, 128], "dtype": "float32"}, {"name": "StatefulPartitionedCall/depth_estimate/encoder/functional_1/conv5_block10_1_conv/Conv2D_bn_offset", "shape": [128], "dtype": "float32"}, {"name": "StatefulPartitionedCall/depth_estimate/encoder/functional_1/conv5_block11_1_conv/Conv2D_weights", "shape": [1, 1, 960, 128], "dtype": "float32"}, {"name": "StatefulPartitionedCall/depth_estimate/encoder/functional_1/conv5_block11_1_conv/Conv2D_bn_offset", "shape": [128], "dtype": "float32"}, {"name": "StatefulPartitionedCall/depth_estimate/encoder/functional_1/conv3_block1_0_bn/FusedBatchNormV3/Scaled", "shape": [128], "dtype": "float32"}, {"name": "StatefulPartitionedCall/depth_estimate/encoder/functional_1/conv5_block12_1_conv/Conv2D_weights", "shape": [1, 1, 992, 128], "dtype": "float32"}, {"name": "StatefulPartitionedCall/depth_estimate/encoder/functional_1/conv5_block12_1_conv/Conv2D_bn_offset", "shape": [128], "dtype": "float32"}, {"name": "StatefulPartitionedCall/depth_estimate/encoder/functional_1/conv5_block13_1_conv/Conv2D_weights", "shape": [1, 1, 1024, 128], "dtype": "float32"}, {"name": "StatefulPartitionedCall/depth_estimate/encoder/functional_1/conv3_block1_0_bn/FusedBatchNormV3/Offset", "shape": [128], "dtype": "float32"}, {"name": "StatefulPartitionedCall/depth_estimate/encoder/functional_1/conv5_block13_1_conv/Conv2D_bn_offset", "shape": [128], "dtype": "float32"}, {"name": "StatefulPartitionedCall/depth_estimate/encoder/functional_1/conv5_block14_1_conv/Conv2D_weights", "shape": [1, 1, 1056, 128], "dtype": "float32"}, {"name": "StatefulPartitionedCall/depth_estimate/encoder/functional_1/conv5_block14_1_conv/Conv2D_bn_offset", "shape": [128], "dtype": "float32"}, {"name": "StatefulPartitionedCall/depth_estimate/encoder/functional_1/conv5_block15_1_conv/Conv2D_weights", "shape": [1, 1, 1088, 128], "dtype": "float32"}, {"name": "StatefulPartitionedCall/depth_estimate/encoder/functional_1/pool2_bn/FusedBatchNormV3/Scaled", "shape": [256], "dtype": "float32"}, {"name": "StatefulPartitionedCall/depth_estimate/encoder/functional_1/conv5_block15_1_conv/Conv2D_bn_offset", "shape": [128], "dtype": "float32"}, {"name": "StatefulPartitionedCall/depth_estimate/encoder/functional_1/conv5_block16_1_conv/Conv2D_weights", "shape": [1, 1, 1120, 128], "dtype": "float32"}, {"name": "StatefulPartitionedCall/depth_estimate/encoder/functional_1/conv5_block16_1_conv/Conv2D_bn_offset", "shape": [128], "dtype": "float32"}, {"name": "StatefulPartitionedCall/depth_estimate/encoder/functional_1/pool2_bn/FusedBatchNormV3/Offset", "shape": [256], "dtype": "float32"}, {"name": "StatefulPartitionedCall/depth_estimate/encoder/functional_1/conv5_block17_1_conv/Conv2D_weights", "shape": [1, 1, 1152, 128], "dtype": "float32"}, {"name": "StatefulPartitionedCall/depth_estimate/encoder/functional_1/conv5_block17_1_conv/Conv2D_bn_offset", "shape": [128], "dtype": "float32"}, {"name": "StatefulPartitionedCall/depth_estimate/encoder/functional_1/conv5_block18_1_conv/Conv2D_weights", "shape": [1, 1, 1184, 128], "dtype": "float32"}, {"name": "StatefulPartitionedCall/depth_estimate/encoder/functional_1/conv5_block18_1_conv/Conv2D_bn_offset", "shape": [128], "dtype": "float32"}, {"name": "StatefulPartitionedCall/depth_estimate/encoder/functional_1/conv2_block6_0_bn/FusedBatchNormV3/Scaled", "shape": [224], "dtype": "float32"}, {"name": "StatefulPartitionedCall/depth_estimate/encoder/functional_1/conv5_block19_1_conv/Conv2D_weights", "shape": [1, 1, 1216, 128], "dtype": "float32"}, {"name": "StatefulPartitionedCall/depth_estimate/encoder/functional_1/conv5_block19_1_conv/Conv2D_bn_offset", "shape": [128], "dtype": "float32"}, {"name": "StatefulPartitionedCall/depth_estimate/encoder/functional_1/conv5_block20_1_conv/Conv2D_weights", "shape": [1, 1, 1248, 128], "dtype": "float32"}, {"name": "StatefulPartitionedCall/depth_estimate/encoder/functional_1/conv2_block6_0_bn/FusedBatchNormV3/Offset", "shape": [224], "dtype": "float32"}, {"name": "StatefulPartitionedCall/depth_estimate/encoder/functional_1/conv5_block20_1_conv/Conv2D_bn_offset", "shape": [128], "dtype": "float32"}, {"name": "StatefulPartitionedCall/depth_estimate/encoder/functional_1/conv5_block21_1_conv/Conv2D_weights", "shape": [1, 1, 1280, 128], "dtype": "float32"}, {"name": "StatefulPartitionedCall/depth_estimate/encoder/functional_1/conv5_block21_1_conv/Conv2D_bn_offset", "shape": [128], "dtype": "float32"}, {"name": "StatefulPartitionedCall/depth_estimate/encoder/functional_1/conv5_block22_1_conv/Conv2D_weights", "shape": [1, 1, 1312, 128], "dtype": "float32"}, {"name": "StatefulPartitionedCall/depth_estimate/encoder/functional_1/conv2_block5_0_bn/FusedBatchNormV3/Scaled", "shape": [192], "dtype": "float32"}, {"name": "StatefulPartitionedCall/depth_estimate/encoder/functional_1/conv5_block22_1_conv/Conv2D_bn_offset", "shape": [128], "dtype": "float32"}, {"name": "StatefulPartitionedCall/depth_estimate/encoder/functional_1/conv5_block23_1_conv/Conv2D_weights", "shape": [1, 1, 1344, 128], "dtype": "float32"}, {"name": "StatefulPartitionedCall/depth_estimate/encoder/functional_1/conv5_block23_1_conv/Conv2D_bn_offset", "shape": [128], "dtype": "float32"}, {"name": "StatefulPartitionedCall/depth_estimate/encoder/functional_1/conv2_block5_0_bn/FusedBatchNormV3/Offset", "shape": [192], "dtype": "float32"}, {"name": "StatefulPartitionedCall/depth_estimate/encoder/functional_1/conv5_block24_1_conv/Conv2D_weights", "shape": [1, 1, 1376, 128], "dtype": "float32"}, {"name": "StatefulPartitionedCall/depth_estimate/encoder/functional_1/conv5_block24_1_conv/Conv2D_bn_offset", "shape": [128], "dtype": "float32"}, {"name": "StatefulPartitionedCall/depth_estimate/encoder/functional_1/conv5_block25_1_conv/Conv2D_weights", "shape": [1, 1, 1408, 128], "dtype": "float32"}, {"name": "StatefulPartitionedCall/depth_estimate/encoder/functional_1/conv5_block25_1_conv/Conv2D_bn_offset", "shape": [128], "dtype": "float32"}, {"name": "StatefulPartitionedCall/depth_estimate/encoder/functional_1/conv2_block4_0_bn/FusedBatchNormV3/Scaled", "shape": [160], "dtype": "float32"}, {"name": "StatefulPartitionedCall/depth_estimate/encoder/functional_1/conv5_block26_1_conv/Conv2D_weights", "shape": [1, 1, 1440, 128], "dtype": "float32"}, {"name": "StatefulPartitionedCall/depth_estimate/encoder/functional_1/conv5_block26_1_conv/Conv2D_bn_offset", "shape": [128], "dtype": "float32"}, {"name": "StatefulPartitionedCall/depth_estimate/encoder/functional_1/conv5_block27_1_conv/Conv2D_weights", "shape": [1, 1, 1472, 128], "dtype": "float32"}, {"name": "StatefulPartitionedCall/depth_estimate/encoder/functional_1/conv2_block4_0_bn/FusedBatchNormV3/Offset", "shape": [160], "dtype": "float32"}, {"name": "StatefulPartitionedCall/depth_estimate/encoder/functional_1/conv5_block27_1_conv/Conv2D_bn_offset", "shape": [128], "dtype": "float32"}, {"name": "StatefulPartitionedCall/depth_estimate/encoder/functional_1/conv5_block28_1_conv/Conv2D_weights", "shape": [1, 1, 1504, 128], "dtype": "float32"}, {"name": "StatefulPartitionedCall/depth_estimate/encoder/functional_1/conv5_block28_1_conv/Conv2D_bn_offset", "shape": [128], "dtype": "float32"}, {"name": "StatefulPartitionedCall/depth_estimate/encoder/functional_1/conv5_block29_1_conv/Conv2D_weights", "shape": [1, 1, 1536, 128], "dtype": "float32"}, {"name": "StatefulPartitionedCall/depth_estimate/encoder/functional_1/conv2_block3_0_bn/FusedBatchNormV3/Scaled", "shape": [128], "dtype": "float32"}, {"name": "StatefulPartitionedCall/depth_estimate/encoder/functional_1/conv5_block29_1_conv/Conv2D_bn_offset", "shape": [128], "dtype": "float32"}, {"name": "StatefulPartitionedCall/depth_estimate/encoder/functional_1/conv5_block30_1_conv/Conv2D_weights", "shape": [1, 1, 1568, 128], "dtype": "float32"}, {"name": "StatefulPartitionedCall/depth_estimate/encoder/functional_1/conv5_block30_1_conv/Conv2D_bn_offset", "shape": [128], "dtype": "float32"}, {"name": "StatefulPartitionedCall/depth_estimate/encoder/functional_1/conv2_block3_0_bn/FusedBatchNormV3/Offset", "shape": [128], "dtype": "float32"}, {"name": "StatefulPartitionedCall/depth_estimate/encoder/functional_1/conv5_block31_1_conv/Conv2D_weights", "shape": [1, 1, 1600, 128], "dtype": "float32"}, {"name": "StatefulPartitionedCall/depth_estimate/encoder/functional_1/conv5_block31_1_conv/Conv2D_bn_offset", "shape": [128], "dtype": "float32"}, {"name": "StatefulPartitionedCall/depth_estimate/encoder/functional_1/conv5_block32_1_conv/Conv2D_weights", "shape": [1, 1, 1632, 128], "dtype": "float32"}, {"name": "StatefulPartitionedCall/depth_estimate/encoder/functional_1/conv5_block32_1_conv/Conv2D_bn_offset", "shape": [128], "dtype": "float32"}, {"name": "StatefulPartitionedCall/depth_estimate/encoder/functional_1/conv2_block2_0_bn/FusedBatchNormV3/Scaled", "shape": [96], "dtype": "float32"}, {"name": "StatefulPartitionedCall/depth_estimate/encoder/functional_1/conv2_block2_0_bn/FusedBatchNormV3/Offset", "shape": [96], "dtype": "float32"}, {"name": "StatefulPartitionedCall/depth_estimate/encoder/functional_1/conv2_block1_0_bn/FusedBatchNormV3/Scaled", "shape": [64], "dtype": "float32"}, {"name": "StatefulPartitionedCall/depth_estimate/encoder/functional_1/conv2_block1_0_bn/FusedBatchNormV3/Offset", "shape": [64], "dtype": "float32"}, {"name": "StatefulPartitionedCall/depth_estimate/encoder/functional_1/bn/FusedBatchNormV3/Scaled", "shape": [1664], "dtype": "float32"}, {"name": "StatefulPartitionedCall/depth_estimate/encoder/functional_1/bn/FusedBatchNormV3/Offset", "shape": [1664], "dtype": "float32"}, {"name": "StatefulPartitionedCall/depth_estimate/encoder/functional_1/conv5_block32_0_bn/FusedBatchNormV3/Scaled", "shape": [1632], "dtype": "float32"}, {"name": "StatefulPartitionedCall/depth_estimate/encoder/functional_1/conv5_block32_0_bn/FusedBatchNormV3/Offset", "shape": [1632], "dtype": "float32"}, {"name": "StatefulPartitionedCall/depth_estimate/encoder/functional_1/conv5_block31_0_bn/FusedBatchNormV3/Scaled", "shape": [1600], "dtype": "float32"}, {"name": "StatefulPartitionedCall/depth_estimate/encoder/functional_1/conv5_block31_0_bn/FusedBatchNormV3/Offset", "shape": [1600], "dtype": "float32"}, {"name": "StatefulPartitionedCall/depth_estimate/encoder/functional_1/conv5_block30_0_bn/FusedBatchNormV3/Scaled", "shape": [1568], "dtype": "float32"}, {"name": "StatefulPartitionedCall/depth_estimate/encoder/functional_1/conv5_block30_0_bn/FusedBatchNormV3/Offset", "shape": [1568], "dtype": "float32"}, {"name": "StatefulPartitionedCall/depth_estimate/encoder/functional_1/conv5_block29_0_bn/FusedBatchNormV3/Scaled", "shape": [1536], "dtype": "float32"}, {"name": "StatefulPartitionedCall/depth_estimate/encoder/functional_1/conv5_block29_0_bn/FusedBatchNormV3/Offset", "shape": [1536], "dtype": "float32"}, {"name": "StatefulPartitionedCall/depth_estimate/encoder/functional_1/conv5_block28_0_bn/FusedBatchNormV3/Scaled", "shape": [1504], "dtype": "float32"}, {"name": "StatefulPartitionedCall/depth_estimate/encoder/functional_1/conv5_block28_0_bn/FusedBatchNormV3/Offset", "shape": [1504], "dtype": "float32"}, {"name": "StatefulPartitionedCall/depth_estimate/encoder/functional_1/conv5_block27_0_bn/FusedBatchNormV3/Scaled", "shape": [1472], "dtype": "float32"}, {"name": "StatefulPartitionedCall/depth_estimate/encoder/functional_1/conv5_block27_0_bn/FusedBatchNormV3/Offset", "shape": [1472], "dtype": "float32"}, {"name": "StatefulPartitionedCall/depth_estimate/encoder/functional_1/conv5_block26_0_bn/FusedBatchNormV3/Scaled", "shape": [1440], "dtype": "float32"}, {"name": "StatefulPartitionedCall/depth_estimate/encoder/functional_1/conv5_block26_0_bn/FusedBatchNormV3/Offset", "shape": [1440], "dtype": "float32"}, {"name": "StatefulPartitionedCall/depth_estimate/encoder/functional_1/conv5_block25_0_bn/FusedBatchNormV3/Scaled", "shape": [1408], "dtype": "float32"}, {"name": "StatefulPartitionedCall/depth_estimate/encoder/functional_1/conv5_block25_0_bn/FusedBatchNormV3/Offset", "shape": [1408], "dtype": "float32"}, {"name": "StatefulPartitionedCall/depth_estimate/encoder/functional_1/conv5_block24_0_bn/FusedBatchNormV3/Scaled", "shape": [1376], "dtype": "float32"}, {"name": "StatefulPartitionedCall/depth_estimate/encoder/functional_1/conv5_block24_0_bn/FusedBatchNormV3/Offset", "shape": [1376], "dtype": "float32"}, {"name": "StatefulPartitionedCall/depth_estimate/encoder/functional_1/conv5_block23_0_bn/FusedBatchNormV3/Scaled", "shape": [1344], "dtype": "float32"}, {"name": "StatefulPartitionedCall/depth_estimate/encoder/functional_1/conv5_block23_0_bn/FusedBatchNormV3/Offset", "shape": [1344], "dtype": "float32"}, {"name": "StatefulPartitionedCall/depth_estimate/encoder/functional_1/conv5_block22_0_bn/FusedBatchNormV3/Scaled", "shape": [1312], "dtype": "float32"}, {"name": "StatefulPartitionedCall/depth_estimate/encoder/functional_1/conv5_block22_0_bn/FusedBatchNormV3/Offset", "shape": [1312], "dtype": "float32"}, {"name": "StatefulPartitionedCall/depth_estimate/encoder/functional_1/conv5_block21_0_bn/FusedBatchNormV3/Scaled", "shape": [1280], "dtype": "float32"}, {"name": "StatefulPartitionedCall/depth_estimate/encoder/functional_1/conv5_block21_0_bn/FusedBatchNormV3/Offset", "shape": [1280], "dtype": "float32"}, {"name": "StatefulPartitionedCall/depth_estimate/encoder/functional_1/conv5_block20_0_bn/FusedBatchNormV3/Scaled", "shape": [1248], "dtype": "float32"}, {"name": "StatefulPartitionedCall/depth_estimate/encoder/functional_1/conv5_block20_0_bn/FusedBatchNormV3/Offset", "shape": [1248], "dtype": "float32"}, {"name": "StatefulPartitionedCall/depth_estimate/encoder/functional_1/conv5_block19_0_bn/FusedBatchNormV3/Scaled", "shape": [1216], "dtype": "float32"}, {"name": "StatefulPartitionedCall/depth_estimate/encoder/functional_1/conv5_block19_0_bn/FusedBatchNormV3/Offset", "shape": [1216], "dtype": "float32"}, {"name": "StatefulPartitionedCall/depth_estimate/encoder/functional_1/conv5_block18_0_bn/FusedBatchNormV3/Scaled", "shape": [1184], "dtype": "float32"}, {"name": "StatefulPartitionedCall/depth_estimate/encoder/functional_1/conv5_block18_0_bn/FusedBatchNormV3/Offset", "shape": [1184], "dtype": "float32"}, {"name": "StatefulPartitionedCall/depth_estimate/encoder/functional_1/conv5_block17_0_bn/FusedBatchNormV3/Scaled", "shape": [1152], "dtype": "float32"}, {"name": "StatefulPartitionedCall/depth_estimate/encoder/functional_1/conv5_block17_0_bn/FusedBatchNormV3/Offset", "shape": [1152], "dtype": "float32"}, {"name": "StatefulPartitionedCall/depth_estimate/encoder/functional_1/conv5_block16_0_bn/FusedBatchNormV3/Scaled", "shape": [1120], "dtype": "float32"}, {"name": "StatefulPartitionedCall/depth_estimate/encoder/functional_1/conv5_block16_0_bn/FusedBatchNormV3/Offset", "shape": [1120], "dtype": "float32"}, {"name": "StatefulPartitionedCall/depth_estimate/encoder/functional_1/conv5_block15_0_bn/FusedBatchNormV3/Scaled", "shape": [1088], "dtype": "float32"}, {"name": "StatefulPartitionedCall/depth_estimate/encoder/functional_1/conv5_block15_0_bn/FusedBatchNormV3/Offset", "shape": [1088], "dtype": "float32"}, {"name": "StatefulPartitionedCall/depth_estimate/encoder/functional_1/conv5_block14_0_bn/FusedBatchNormV3/Scaled", "shape": [1056], "dtype": "float32"}, {"name": "StatefulPartitionedCall/depth_estimate/encoder/functional_1/conv5_block14_0_bn/FusedBatchNormV3/Offset", "shape": [1056], "dtype": "float32"}, {"name": "StatefulPartitionedCall/depth_estimate/encoder/functional_1/conv5_block13_0_bn/FusedBatchNormV3/Scaled", "shape": [1024], "dtype": "float32"}, {"name": "StatefulPartitionedCall/depth_estimate/encoder/functional_1/conv5_block13_0_bn/FusedBatchNormV3/Offset", "shape": [1024], "dtype": "float32"}, {"name": "StatefulPartitionedCall/depth_estimate/encoder/functional_1/conv5_block12_0_bn/FusedBatchNormV3/Scaled", "shape": [992], "dtype": "float32"}, {"name": "StatefulPartitionedCall/depth_estimate/encoder/functional_1/conv5_block12_0_bn/FusedBatchNormV3/Offset", "shape": [992], "dtype": "float32"}, {"name": "StatefulPartitionedCall/depth_estimate/encoder/functional_1/conv5_block11_0_bn/FusedBatchNormV3/Scaled", "shape": [960], "dtype": "float32"}, {"name": "StatefulPartitionedCall/depth_estimate/encoder/functional_1/conv5_block11_0_bn/FusedBatchNormV3/Offset", "shape": [960], "dtype": "float32"}, {"name": "StatefulPartitionedCall/depth_estimate/encoder/functional_1/conv5_block10_0_bn/FusedBatchNormV3/Scaled", "shape": [928], "dtype": "float32"}, {"name": "StatefulPartitionedCall/depth_estimate/encoder/functional_1/conv5_block10_0_bn/FusedBatchNormV3/Offset", "shape": [928], "dtype": "float32"}, {"name": "StatefulPartitionedCall/depth_estimate/encoder/functional_1/conv5_block9_0_bn/FusedBatchNormV3/Scaled", "shape": [896], "dtype": "float32"}, {"name": "StatefulPartitionedCall/depth_estimate/encoder/functional_1/conv5_block9_0_bn/FusedBatchNormV3/Offset", "shape": [896], "dtype": "float32"}, {"name": "StatefulPartitionedCall/depth_estimate/encoder/functional_1/conv5_block8_0_bn/FusedBatchNormV3/Scaled", "shape": [864], "dtype": "float32"}, {"name": "StatefulPartitionedCall/depth_estimate/encoder/functional_1/conv5_block8_0_bn/FusedBatchNormV3/Offset", "shape": [864], "dtype": "float32"}, {"name": "StatefulPartitionedCall/depth_estimate/encoder/functional_1/conv5_block7_0_bn/FusedBatchNormV3/Scaled", "shape": [832], "dtype": "float32"}, {"name": "StatefulPartitionedCall/depth_estimate/encoder/functional_1/conv5_block7_0_bn/FusedBatchNormV3/Offset", "shape": [832], "dtype": "float32"}, {"name": "StatefulPartitionedCall/depth_estimate/encoder/functional_1/conv5_block6_0_bn/FusedBatchNormV3/Scaled", "shape": [800], "dtype": "float32"}, {"name": "StatefulPartitionedCall/depth_estimate/encoder/functional_1/conv5_block6_0_bn/FusedBatchNormV3/Offset", "shape": [800], "dtype": "float32"}, {"name": "StatefulPartitionedCall/depth_estimate/encoder/functional_1/conv5_block5_0_bn/FusedBatchNormV3/Scaled", "shape": [768], "dtype": "float32"}, {"name": "StatefulPartitionedCall/depth_estimate/encoder/functional_1/conv5_block5_0_bn/FusedBatchNormV3/Offset", "shape": [768], "dtype": "float32"}, {"name": "StatefulPartitionedCall/depth_estimate/encoder/functional_1/conv5_block4_0_bn/FusedBatchNormV3/Scaled", "shape": [736], "dtype": "float32"}, {"name": "StatefulPartitionedCall/depth_estimate/encoder/functional_1/conv5_block4_0_bn/FusedBatchNormV3/Offset", "shape": [736], "dtype": "float32"}, {"name": "StatefulPartitionedCall/depth_estimate/encoder/functional_1/conv5_block3_0_bn/FusedBatchNormV3/Scaled", "shape": [704], "dtype": "float32"}, {"name": "StatefulPartitionedCall/depth_estimate/encoder/functional_1/conv5_block3_0_bn/FusedBatchNormV3/Offset", "shape": [704], "dtype": "float32"}, {"name": "StatefulPartitionedCall/depth_estimate/encoder/functional_1/conv5_block2_0_bn/FusedBatchNormV3/Scaled", "shape": [672], "dtype": "float32"}, {"name": "StatefulPartitionedCall/depth_estimate/encoder/functional_1/conv5_block2_0_bn/FusedBatchNormV3/Offset", "shape": [672], "dtype": "float32"}, {"name": "StatefulPartitionedCall/depth_estimate/encoder/functional_1/conv5_block1_0_bn/FusedBatchNormV3/Scaled", "shape": [640], "dtype": "float32"}, {"name": "StatefulPartitionedCall/depth_estimate/encoder/functional_1/conv5_block1_0_bn/FusedBatchNormV3/Offset", "shape": [640], "dtype": "float32"}, {"name": "StatefulPartitionedCall/depth_estimate/encoder/functional_1/pool4_bn/FusedBatchNormV3/Scaled", "shape": [1280], "dtype": "float32"}, {"name": "StatefulPartitionedCall/depth_estimate/encoder/functional_1/pool4_bn/FusedBatchNormV3/Offset", "shape": [1280], "dtype": "float32"}, {"name": "StatefulPartitionedCall/depth_estimate/encoder/functional_1/conv4_block32_0_bn/FusedBatchNormV3/Scaled", "shape": [1248], "dtype": "float32"}, {"name": "StatefulPartitionedCall/depth_estimate/encoder/functional_1/conv4_block32_0_bn/FusedBatchNormV3/Offset", "shape": [1248], "dtype": "float32"}, {"name": "StatefulPartitionedCall/depth_estimate/encoder/functional_1/conv4_block31_0_bn/FusedBatchNormV3/Scaled", "shape": [1216], "dtype": "float32"}, {"name": "StatefulPartitionedCall/depth_estimate/encoder/functional_1/conv4_block31_0_bn/FusedBatchNormV3/Offset", "shape": [1216], "dtype": "float32"}, {"name": "StatefulPartitionedCall/depth_estimate/encoder/functional_1/conv4_block30_0_bn/FusedBatchNormV3/Scaled", "shape": [1184], "dtype": "float32"}, {"name": "StatefulPartitionedCall/depth_estimate/encoder/functional_1/conv4_block30_0_bn/FusedBatchNormV3/Offset", "shape": [1184], "dtype": "float32"}, {"name": "StatefulPartitionedCall/depth_estimate/encoder/functional_1/conv4_block29_0_bn/FusedBatchNormV3/Scaled", "shape": [1152], "dtype": "float32"}, {"name": "StatefulPartitionedCall/depth_estimate/encoder/functional_1/conv4_block29_0_bn/FusedBatchNormV3/Offset", "shape": [1152], "dtype": "float32"}, {"name": "StatefulPartitionedCall/depth_estimate/encoder/functional_1/conv4_block28_0_bn/FusedBatchNormV3/Scaled", "shape": [1120], "dtype": "float32"}, {"name": "StatefulPartitionedCall/depth_estimate/encoder/functional_1/conv4_block28_0_bn/FusedBatchNormV3/Offset", "shape": [1120], "dtype": "float32"}, {"name": "StatefulPartitionedCall/depth_estimate/encoder/functional_1/conv4_block27_0_bn/FusedBatchNormV3/Scaled", "shape": [1088], "dtype": "float32"}, {"name": "StatefulPartitionedCall/depth_estimate/encoder/functional_1/conv4_block27_0_bn/FusedBatchNormV3/Offset", "shape": [1088], "dtype": "float32"}, {"name": "StatefulPartitionedCall/depth_estimate/encoder/functional_1/conv4_block26_0_bn/FusedBatchNormV3/Scaled", "shape": [1056], "dtype": "float32"}, {"name": "StatefulPartitionedCall/depth_estimate/encoder/functional_1/conv4_block26_0_bn/FusedBatchNormV3/Offset", "shape": [1056], "dtype": "float32"}, {"name": "StatefulPartitionedCall/depth_estimate/encoder/functional_1/conv4_block25_0_bn/FusedBatchNormV3/Scaled", "shape": [1024], "dtype": "float32"}, {"name": "StatefulPartitionedCall/depth_estimate/encoder/functional_1/conv4_block25_0_bn/FusedBatchNormV3/Offset", "shape": [1024], "dtype": "float32"}, {"name": "StatefulPartitionedCall/depth_estimate/encoder/functional_1/conv4_block24_0_bn/FusedBatchNormV3/Scaled", "shape": [992], "dtype": "float32"}, {"name": "StatefulPartitionedCall/depth_estimate/encoder/functional_1/conv4_block24_0_bn/FusedBatchNormV3/Offset", "shape": [992], "dtype": "float32"}, {"name": "StatefulPartitionedCall/depth_estimate/encoder/functional_1/conv4_block23_0_bn/FusedBatchNormV3/Scaled", "shape": [960], "dtype": "float32"}, {"name": "StatefulPartitionedCall/depth_estimate/encoder/functional_1/conv4_block23_0_bn/FusedBatchNormV3/Offset", "shape": [960], "dtype": "float32"}, {"name": "StatefulPartitionedCall/depth_estimate/encoder/functional_1/conv4_block22_0_bn/FusedBatchNormV3/Scaled", "shape": [928], "dtype": "float32"}, {"name": "StatefulPartitionedCall/depth_estimate/encoder/functional_1/conv4_block22_0_bn/FusedBatchNormV3/Offset", "shape": [928], "dtype": "float32"}, {"name": "StatefulPartitionedCall/depth_estimate/encoder/functional_1/conv4_block21_0_bn/FusedBatchNormV3/Scaled", "shape": [896], "dtype": "float32"}, {"name": "StatefulPartitionedCall/depth_estimate/encoder/functional_1/conv4_block21_0_bn/FusedBatchNormV3/Offset", "shape": [896], "dtype": "float32"}, {"name": "StatefulPartitionedCall/depth_estimate/encoder/functional_1/conv4_block20_0_bn/FusedBatchNormV3/Scaled", "shape": [864], "dtype": "float32"}, {"name": "StatefulPartitionedCall/depth_estimate/encoder/functional_1/conv4_block20_0_bn/FusedBatchNormV3/Offset", "shape": [864], "dtype": "float32"}, {"name": "StatefulPartitionedCall/depth_estimate/encoder/functional_1/conv4_block19_0_bn/FusedBatchNormV3/Scaled", "shape": [832], "dtype": "float32"}, {"name": "StatefulPartitionedCall/depth_estimate/encoder/functional_1/conv4_block19_0_bn/FusedBatchNormV3/Offset", "shape": [832], "dtype": "float32"}, {"name": "StatefulPartitionedCall/depth_estimate/encoder/functional_1/conv4_block18_0_bn/FusedBatchNormV3/Scaled", "shape": [800], "dtype": "float32"}, {"name": "StatefulPartitionedCall/depth_estimate/encoder/functional_1/conv4_block18_0_bn/FusedBatchNormV3/Offset", "shape": [800], "dtype": "float32"}, {"name": "StatefulPartitionedCall/depth_estimate/encoder/functional_1/conv4_block17_0_bn/FusedBatchNormV3/Scaled", "shape": [768], "dtype": "float32"}, {"name": "StatefulPartitionedCall/depth_estimate/encoder/functional_1/conv4_block17_0_bn/FusedBatchNormV3/Offset", "shape": [768], "dtype": "float32"}, {"name": "StatefulPartitionedCall/depth_estimate/encoder/functional_1/conv4_block16_0_bn/FusedBatchNormV3/Scaled", "shape": [736], "dtype": "float32"}, {"name": "StatefulPartitionedCall/depth_estimate/encoder/functional_1/conv4_block16_0_bn/FusedBatchNormV3/Offset", "shape": [736], "dtype": "float32"}, {"name": "StatefulPartitionedCall/depth_estimate/encoder/functional_1/conv4_block15_0_bn/FusedBatchNormV3/Scaled", "shape": [704], "dtype": "float32"}, {"name": "StatefulPartitionedCall/depth_estimate/encoder/functional_1/conv4_block15_0_bn/FusedBatchNormV3/Offset", "shape": [704], "dtype": "float32"}, {"name": "StatefulPartitionedCall/depth_estimate/encoder/functional_1/conv4_block14_0_bn/FusedBatchNormV3/Scaled", "shape": [672], "dtype": "float32"}, {"name": "StatefulPartitionedCall/depth_estimate/encoder/functional_1/conv4_block14_0_bn/FusedBatchNormV3/Offset", "shape": [672], "dtype": "float32"}, {"name": "StatefulPartitionedCall/depth_estimate/encoder/functional_1/conv4_block13_0_bn/FusedBatchNormV3/Scaled", "shape": [640], "dtype": "float32"}, {"name": "StatefulPartitionedCall/depth_estimate/encoder/functional_1/conv4_block13_0_bn/FusedBatchNormV3/Offset", "shape": [640], "dtype": "float32"}, {"name": "StatefulPartitionedCall/depth_estimate/encoder/functional_1/conv4_block12_0_bn/FusedBatchNormV3/Scaled", "shape": [608], "dtype": "float32"}, {"name": "StatefulPartitionedCall/depth_estimate/encoder/functional_1/conv4_block12_0_bn/FusedBatchNormV3/Offset", "shape": [608], "dtype": "float32"}, {"name": "StatefulPartitionedCall/depth_estimate/encoder/functional_1/conv4_block11_0_bn/FusedBatchNormV3/Scaled", "shape": [576], "dtype": "float32"}, {"name": "StatefulPartitionedCall/depth_estimate/encoder/functional_1/conv4_block11_0_bn/FusedBatchNormV3/Offset", "shape": [576], "dtype": "float32"}, {"name": "StatefulPartitionedCall/depth_estimate/encoder/functional_1/conv4_block10_0_bn/FusedBatchNormV3/Scaled", "shape": [544], "dtype": "float32"}, {"name": "StatefulPartitionedCall/depth_estimate/encoder/functional_1/conv4_block10_0_bn/FusedBatchNormV3/Offset", "shape": [544], "dtype": "float32"}, {"name": "StatefulPartitionedCall/depth_estimate/encoder/functional_1/conv4_block9_0_bn/FusedBatchNormV3/Scaled", "shape": [512], "dtype": "float32"}, {"name": "StatefulPartitionedCall/depth_estimate/encoder/functional_1/conv4_block9_0_bn/FusedBatchNormV3/Offset", "shape": [512], "dtype": "float32"}, {"name": "StatefulPartitionedCall/depth_estimate/encoder/functional_1/conv4_block8_0_bn/FusedBatchNormV3/Scaled", "shape": [480], "dtype": "float32"}, {"name": "StatefulPartitionedCall/depth_estimate/encoder/functional_1/conv4_block8_0_bn/FusedBatchNormV3/Offset", "shape": [480], "dtype": "float32"}, {"name": "StatefulPartitionedCall/depth_estimate/encoder/functional_1/conv4_block7_0_bn/FusedBatchNormV3/Scaled", "shape": [448], "dtype": "float32"}, {"name": "StatefulPartitionedCall/depth_estimate/encoder/functional_1/conv4_block7_0_bn/FusedBatchNormV3/Offset", "shape": [448], "dtype": "float32"}, {"name": "StatefulPartitionedCall/depth_estimate/encoder/functional_1/conv4_block6_0_bn/FusedBatchNormV3/Scaled", "shape": [416], "dtype": "float32"}]}]}