{"format": "graph-model", "generatedBy": "2.3.1", "convertedBy": "TensorFlow.js Converter v2.7.0", "userDefinedMetadata": {"signature": {"inputs": {"inputs:0": {"name": "inputs:0", "dtype": "DT_FLOAT", "tensorShape": {"dim": [{"size": "1"}, {"size": "512"}, {"size": "512"}, {"size": "3"}]}}}, "outputs": {"Identity_6:0": {"name": "Identity_6:0", "dtype": "DT_FLOAT", "tensorShape": {"dim": [{"size": "1"}, {"size": "512"}, {"size": "512"}, {"size": "1"}]}}, "Identity_5:0": {"name": "Identity_5:0", "dtype": "DT_FLOAT", "tensorShape": {"dim": [{"size": "1"}, {"size": "512"}, {"size": "512"}, {"size": "1"}]}}, "Identity_2:0": {"name": "Identity_2:0", "dtype": "DT_FLOAT", "tensorShape": {"dim": [{"size": "1"}, {"size": "512"}, {"size": "512"}, {"size": "1"}]}}, "Identity_4:0": {"name": "Identity_4:0", "dtype": "DT_FLOAT", "tensorShape": {"dim": [{"size": "1"}, {"size": "512"}, {"size": "512"}, {"size": "1"}]}}, "Identity:0": {"name": "Identity:0", "dtype": "DT_FLOAT", "tensorShape": {"dim": [{"size": "1"}, {"size": "512"}, {"size": "512"}, {"size": "1"}]}}, "Identity_1:0": {"name": "Identity_1:0", "dtype": "DT_FLOAT", "tensorShape": {"dim": [{"size": "1"}, {"size": "512"}, {"size": "512"}, {"size": "1"}]}}, "Identity_3:0": {"name": "Identity_3:0", "dtype": "DT_FLOAT", "tensorShape": {"dim": [{"size": "1"}, {"size": "512"}, {"size": "512"}, {"size": "1"}]}}}}}, "modelTopology": {"node": [{"name": "functional_1/tf_op_layer_concat_50/concat_50/axis", "op": "Const", "attr": {"value": {"tensor": {"dtype": "DT_INT32", "tensorShape": {}}}, "dtype": {"type": "DT_INT32"}}}, {"name": "functional_1/conv2d_118/Conv2D/ReadVariableOp/resource", "op": "Const", "attr": {"value": {"tensor": {"dtype": "DT_FLOAT", "tensorShape": {"dim": [{"size": "1"}, {"size": "1"}, {"size": "6"}, {"size": "1"}]}}}, "dtype": {"type": "DT_FLOAT"}}}, {"name": "functional_1/tf_op_layer_Add_129/Add_129/y", "op": "Const", "attr": {"value": {"tensor": {"dtype": "DT_FLOAT", "tensorShape": {"dim": [{"size": "1"}]}}}, "dtype": {"type": "DT_FLOAT"}}}, {"name": "functional_1/conv2d_105/Conv2D/SpaceToBatchND/block_shape", "op": "Const", "attr": {"dtype": {"type": "DT_INT32"}, "value": {"tensor": {"dtype": "DT_INT32", "tensorShape": {"dim": [{"size": "2"}]}}}}}, {"name": "functional_1/conv2d_105/Conv2D/SpaceToBatchND/paddings", "op": "Const", "attr": {"value": {"tensor": {"dtype": "DT_INT32", "tensorShape": {"dim": [{"size": "2"}, {"size": "2"}]}}}, "dtype": {"type": "DT_INT32"}}}, {"name": "functional_1/conv2d_105/Conv2D/ReadVariableOp/resource", "op": "Const", "attr": {"dtype": {"type": "DT_FLOAT"}, "value": {"tensor": {"dtype": "DT_FLOAT", "tensorShape": {"dim": [{"size": "3"}, {"size": "3"}, {"size": "16"}, {"size": "16"}]}}}}}, {"name": "functional_1/conv2d_105/Conv2D/BatchToSpaceND/block_shape", "op": "Const", "attr": {"value": {"tensor": {"dtype": "DT_INT32", "tensorShape": {"dim": [{"size": "2"}]}}}, "dtype": {"type": "DT_INT32"}}}, {"name": "functional_1/conv2d_105/Conv2D/BatchToSpaceND/crops", "op": "Const", "attr": {"dtype": {"type": "DT_INT32"}, "value": {"tensor": {"dtype": "DT_INT32", "tensorShape": {"dim": [{"size": "2"}, {"size": "2"}]}}}}}, {"name": "functional_1/tf_op_layer_Add_115/Add_115/y", "op": "Const", "attr": {"dtype": {"type": "DT_FLOAT"}, "value": {"tensor": {"dtype": "DT_FLOAT", "tensorShape": {"dim": [{"size": "16"}]}}}}}, {"name": "functional_1/conv2d_104/Conv2D/ReadVariableOp/resource", "op": "Const", "attr": {"dtype": {"type": "DT_FLOAT"}, "value": {"tensor": {"dtype": "DT_FLOAT", "tensorShape": {"dim": [{"size": "3"}, {"size": "3"}, {"size": "16"}, {"size": "16"}]}}}}}, {"name": "functional_1/tf_op_layer_Add_114/Add_114/y", "op": "Const", "attr": {"value": {"tensor": {"dtype": "DT_FLOAT", "tensorShape": {"dim": [{"size": "16"}]}}}, "dtype": {"type": "DT_FLOAT"}}}, {"name": "functional_1/tf_op_layer_concat_44/concat_44/axis", "op": "Const", "attr": {"value": {"tensor": {"dtype": "DT_INT32", "tensorShape": {}}}, "dtype": {"type": "DT_INT32"}}}, {"name": "functional_1/conv2d_106/Conv2D/ReadVariableOp/resource", "op": "Const", "attr": {"value": {"tensor": {"dtype": "DT_FLOAT", "tensorShape": {"dim": [{"size": "3"}, {"size": "3"}, {"size": "32"}, {"size": "16"}]}}}, "dtype": {"type": "DT_FLOAT"}}}, {"name": "functional_1/tf_op_layer_Add_116/Add_116/y", "op": "Const", "attr": {"value": {"tensor": {"dtype": "DT_FLOAT", "tensorShape": {"dim": [{"size": "16"}]}}}, "dtype": {"type": "DT_FLOAT"}}}, {"name": "functional_1/tf_op_layer_ResizeBilinear_28/ResizeBilinear_28/size", "op": "Const", "attr": {"dtype": {"type": "DT_INT32"}, "value": {"tensor": {"dtype": "DT_INT32", "tensorShape": {"dim": [{"size": "2"}]}}}}}, {"name": "functional_1/conv2d_103/Conv2D/ReadVariableOp/resource", "op": "Const", "attr": {"dtype": {"type": "DT_FLOAT"}, "value": {"tensor": {"dtype": "DT_FLOAT", "tensorShape": {"dim": [{"size": "3"}, {"size": "3"}, {"size": "16"}, {"size": "16"}]}}}}}, {"name": "functional_1/tf_op_layer_Add_113/Add_113/y", "op": "Const", "attr": {"dtype": {"type": "DT_FLOAT"}, "value": {"tensor": {"dtype": "DT_FLOAT", "tensorShape": {"dim": [{"size": "16"}]}}}}}, {"name": "functional_1/tf_op_layer_concat_45/concat_45/axis", "op": "Const", "attr": {"value": {"tensor": {"dtype": "DT_INT32", "tensorShape": {}}}, "dtype": {"type": "DT_INT32"}}}, {"name": "functional_1/conv2d_107/Conv2D/ReadVariableOp/resource", "op": "Const", "attr": {"value": {"tensor": {"dtype": "DT_FLOAT", "tensorShape": {"dim": [{"size": "3"}, {"size": "3"}, {"size": "32"}, {"size": "16"}]}}}, "dtype": {"type": "DT_FLOAT"}}}, {"name": "functional_1/tf_op_layer_Add_117/Add_117/y", "op": "Const", "attr": {"value": {"tensor": {"dtype": "DT_FLOAT", "tensorShape": {"dim": [{"size": "16"}]}}}, "dtype": {"type": "DT_FLOAT"}}}, {"name": "functional_1/tf_op_layer_ResizeBilinear_29/ResizeBilinear_29/size", "op": "Const", "attr": {"value": {"tensor": {"dtype": "DT_INT32", "tensorShape": {"dim": [{"size": "2"}]}}}, "dtype": {"type": "DT_INT32"}}}, {"name": "functional_1/conv2d_102/Conv2D/ReadVariableOp/resource", "op": "Const", "attr": {"value": {"tensor": {"dtype": "DT_FLOAT", "tensorShape": {"dim": [{"size": "3"}, {"size": "3"}, {"size": "16"}, {"size": "16"}]}}}, "dtype": {"type": "DT_FLOAT"}}}, {"name": "functional_1/tf_op_layer_Add_112/Add_112/y", "op": "Const", "attr": {"dtype": {"type": "DT_FLOAT"}, "value": {"tensor": {"dtype": "DT_FLOAT", "tensorShape": {"dim": [{"size": "16"}]}}}}}, {"name": "functional_1/tf_op_layer_concat_46/concat_46/axis", "op": "Const", "attr": {"value": {"tensor": {"dtype": "DT_INT32", "tensorShape": {}}}, "dtype": {"type": "DT_INT32"}}}, {"name": "functional_1/conv2d_108/Conv2D/ReadVariableOp/resource", "op": "Const", "attr": {"value": {"tensor": {"dtype": "DT_FLOAT", "tensorShape": {"dim": [{"size": "3"}, {"size": "3"}, {"size": "32"}, {"size": "16"}]}}}, "dtype": {"type": "DT_FLOAT"}}}, {"name": "functional_1/tf_op_layer_Add_118/Add_118/y", "op": "Const", "attr": {"dtype": {"type": "DT_FLOAT"}, "value": {"tensor": {"dtype": "DT_FLOAT", "tensorShape": {"dim": [{"size": "16"}]}}}}}, {"name": "functional_1/tf_op_layer_ResizeBilinear_30/ResizeBilinear_30/size", "op": "Const", "attr": {"dtype": {"type": "DT_INT32"}, "value": {"tensor": {"dtype": "DT_INT32", "tensorShape": {"dim": [{"size": "2"}]}}}}}, {"name": "functional_1/conv2d_101/Conv2D/ReadVariableOp/resource", "op": "Const", "attr": {"dtype": {"type": "DT_FLOAT"}, "value": {"tensor": {"dtype": "DT_FLOAT", "tensorShape": {"dim": [{"size": "3"}, {"size": "3"}, {"size": "16"}, {"size": "16"}]}}}}}, {"name": "functional_1/tf_op_layer_Add_111/Add_111/y", "op": "Const", "attr": {"dtype": {"type": "DT_FLOAT"}, "value": {"tensor": {"dtype": "DT_FLOAT", "tensorShape": {"dim": [{"size": "16"}]}}}}}, {"name": "functional_1/tf_op_layer_concat_47/concat_47/axis", "op": "Const", "attr": {"value": {"tensor": {"dtype": "DT_INT32", "tensorShape": {}}}, "dtype": {"type": "DT_INT32"}}}, {"name": "functional_1/conv2d_109/Conv2D/ReadVariableOp/resource", "op": "Const", "attr": {"value": {"tensor": {"dtype": "DT_FLOAT", "tensorShape": {"dim": [{"size": "3"}, {"size": "3"}, {"size": "32"}, {"size": "16"}]}}}, "dtype": {"type": "DT_FLOAT"}}}, {"name": "functional_1/tf_op_layer_Add_119/Add_119/y", "op": "Const", "attr": {"value": {"tensor": {"dtype": "DT_FLOAT", "tensorShape": {"dim": [{"size": "16"}]}}}, "dtype": {"type": "DT_FLOAT"}}}, {"name": "functional_1/tf_op_layer_ResizeBilinear_31/ResizeBilinear_31/size", "op": "Const", "attr": {"value": {"tensor": {"dtype": "DT_INT32", "tensorShape": {"dim": [{"size": "2"}]}}}, "dtype": {"type": "DT_INT32"}}}, {"name": "functional_1/conv2d_100/Conv2D/ReadVariableOp/resource", "op": "Const", "attr": {"dtype": {"type": "DT_FLOAT"}, "value": {"tensor": {"dtype": "DT_FLOAT", "tensorShape": {"dim": [{"size": "3"}, {"size": "3"}, {"size": "16"}, {"size": "16"}]}}}}}, {"name": "functional_1/tf_op_layer_Add_110/Add_110/y", "op": "Const", "attr": {"value": {"tensor": {"dtype": "DT_FLOAT", "tensorShape": {"dim": [{"size": "16"}]}}}, "dtype": {"type": "DT_FLOAT"}}}, {"name": "functional_1/tf_op_layer_concat_48/concat_48/axis", "op": "Const", "attr": {"dtype": {"type": "DT_INT32"}, "value": {"tensor": {"dtype": "DT_INT32", "tensorShape": {}}}}}, {"name": "functional_1/conv2d_110/Conv2D/ReadVariableOp/resource", "op": "Const", "attr": {"dtype": {"type": "DT_FLOAT"}, "value": {"tensor": {"dtype": "DT_FLOAT", "tensorShape": {"dim": [{"size": "3"}, {"size": "3"}, {"size": "32"}, {"size": "16"}]}}}}}, {"name": "functional_1/tf_op_layer_Add_120/Add_120/y", "op": "Const", "attr": {"value": {"tensor": {"dtype": "DT_FLOAT", "tensorShape": {"dim": [{"size": "16"}]}}}, "dtype": {"type": "DT_FLOAT"}}}, {"name": "functional_1/tf_op_layer_ResizeBilinear_32/ResizeBilinear_32/size", "op": "Const", "attr": {"value": {"tensor": {"dtype": "DT_INT32", "tensorShape": {"dim": [{"size": "2"}]}}}, "dtype": {"type": "DT_INT32"}}}, {"name": "functional_1/conv2d_99/Conv2D/ReadVariableOp/resource", "op": "Const", "attr": {"value": {"tensor": {"dtype": "DT_FLOAT", "tensorShape": {"dim": [{"size": "3"}, {"size": "3"}, {"size": "64"}, {"size": "16"}]}}}, "dtype": {"type": "DT_FLOAT"}}}, {"name": "functional_1/tf_op_layer_Add_109/Add_109/y", "op": "Const", "attr": {"value": {"tensor": {"dtype": "DT_FLOAT", "tensorShape": {"dim": [{"size": "16"}]}}}, "dtype": {"type": "DT_FLOAT"}}}, {"name": "functional_1/tf_op_layer_concat_49/concat_49/axis", "op": "Const", "attr": {"dtype": {"type": "DT_INT32"}, "value": {"tensor": {"dtype": "DT_INT32", "tensorShape": {}}}}}, {"name": "functional_1/conv2d_111/Conv2D/ReadVariableOp/resource", "op": "Const", "attr": {"value": {"tensor": {"dtype": "DT_FLOAT", "tensorShape": {"dim": [{"size": "3"}, {"size": "3"}, {"size": "32"}, {"size": "64"}]}}}, "dtype": {"type": "DT_FLOAT"}}}, {"name": "functional_1/tf_op_layer_Add_121/Add_121/y", "op": "Const", "attr": {"value": {"tensor": {"dtype": "DT_FLOAT", "tensorShape": {"dim": [{"size": "64"}]}}}, "dtype": {"type": "DT_FLOAT"}}}, {"name": "functional_1/tf_op_layer_ResizeBilinear_27/ResizeBilinear_27/size", "op": "Const", "attr": {"dtype": {"type": "DT_INT32"}, "value": {"tensor": {"dtype": "DT_INT32", "tensorShape": {"dim": [{"size": "2"}]}}}}}, {"name": "functional_1/tf_op_layer_concat_43/concat_43/axis", "op": "Const", "attr": {"dtype": {"type": "DT_INT32"}, "value": {"tensor": {"dtype": "DT_INT32", "tensorShape": {}}}}}, {"name": "functional_1/conv2d_98/Conv2D/ReadVariableOp/resource", "op": "Const", "attr": {"value": {"tensor": {"dtype": "DT_FLOAT", "tensorShape": {"dim": [{"size": "3"}, {"size": "3"}, {"size": "128"}, {"size": "64"}]}}}, "dtype": {"type": "DT_FLOAT"}}}, {"name": "functional_1/tf_op_layer_Add_108/Add_108/y", "op": "Const", "attr": {"dtype": {"type": "DT_FLOAT"}, "value": {"tensor": {"dtype": "DT_FLOAT", "tensorShape": {"dim": [{"size": "64"}]}}}}}, {"name": "functional_1/conv2d_112/Conv2D/ReadVariableOp/resource", "op": "Const", "attr": {"dtype": {"type": "DT_FLOAT"}, "value": {"tensor": {"dtype": "DT_FLOAT", "tensorShape": {"dim": [{"size": "3"}, {"size": "3"}, {"size": "64"}, {"size": "1"}]}}}}}, {"name": "functional_1/tf_op_layer_Add_123/Add_123/y", "op": "Const", "attr": {"value": {"tensor": {"dtype": "DT_FLOAT", "tensorShape": {"dim": [{"size": "1"}]}}}, "dtype": {"type": "DT_FLOAT"}}}, {"name": "functional_1/conv2d_92/Conv2D/SpaceToBatchND/block_shape", "op": "Const", "attr": {"dtype": {"type": "DT_INT32"}, "value": {"tensor": {"dtype": "DT_INT32", "tensorShape": {"dim": [{"size": "2"}]}}}}}, {"name": "functional_1/conv2d_92/Conv2D/SpaceToBatchND/paddings", "op": "Const", "attr": {"dtype": {"type": "DT_INT32"}, "value": {"tensor": {"dtype": "DT_INT32", "tensorShape": {"dim": [{"size": "2"}, {"size": "2"}]}}}}}, {"name": "functional_1/conv2d_92/Conv2D/ReadVariableOp/resource", "op": "Const", "attr": {"value": {"tensor": {"dtype": "DT_FLOAT", "tensorShape": {"dim": [{"size": "3"}, {"size": "3"}, {"size": "32"}, {"size": "32"}]}}}, "dtype": {"type": "DT_FLOAT"}}}, {"name": "functional_1/conv2d_92/Conv2D/BatchToSpaceND/block_shape", "op": "Const", "attr": {"dtype": {"type": "DT_INT32"}, "value": {"tensor": {"dtype": "DT_INT32", "tensorShape": {"dim": [{"size": "2"}]}}}}}, {"name": "functional_1/conv2d_92/Conv2D/BatchToSpaceND/crops", "op": "Const", "attr": {"dtype": {"type": "DT_INT32"}, "value": {"tensor": {"dtype": "DT_INT32", "tensorShape": {"dim": [{"size": "2"}, {"size": "2"}]}}}}}, {"name": "functional_1/tf_op_layer_Add_101/Add_101/y", "op": "Const", "attr": {"value": {"tensor": {"dtype": "DT_FLOAT", "tensorShape": {"dim": [{"size": "32"}]}}}, "dtype": {"type": "DT_FLOAT"}}}, {"name": "functional_1/conv2d_91/Conv2D/ReadVariableOp/resource", "op": "Const", "attr": {"value": {"tensor": {"dtype": "DT_FLOAT", "tensorShape": {"dim": [{"size": "3"}, {"size": "3"}, {"size": "32"}, {"size": "32"}]}}}, "dtype": {"type": "DT_FLOAT"}}}, {"name": "functional_1/tf_op_layer_Add_100/Add_100/y", "op": "Const", "attr": {"dtype": {"type": "DT_FLOAT"}, "value": {"tensor": {"dtype": "DT_FLOAT", "tensorShape": {"dim": [{"size": "32"}]}}}}}, {"name": "functional_1/tf_op_layer_concat_38/concat_38/axis", "op": "Const", "attr": {"value": {"tensor": {"dtype": "DT_INT32", "tensorShape": {}}}, "dtype": {"type": "DT_INT32"}}}, {"name": "functional_1/conv2d_93/Conv2D/ReadVariableOp/resource", "op": "Const", "attr": {"value": {"tensor": {"dtype": "DT_FLOAT", "tensorShape": {"dim": [{"size": "3"}, {"size": "3"}, {"size": "64"}, {"size": "32"}]}}}, "dtype": {"type": "DT_FLOAT"}}}, {"name": "functional_1/tf_op_layer_Add_102/Add_102/y", "op": "Const", "attr": {"dtype": {"type": "DT_FLOAT"}, "value": {"tensor": {"dtype": "DT_FLOAT", "tensorShape": {"dim": [{"size": "32"}]}}}}}, {"name": "functional_1/tf_op_layer_ResizeBilinear_23/ResizeBilinear_23/size", "op": "Const", "attr": {"dtype": {"type": "DT_INT32"}, "value": {"tensor": {"dtype": "DT_INT32", "tensorShape": {"dim": [{"size": "2"}]}}}}}, {"name": "functional_1/conv2d_90/Conv2D/ReadVariableOp/resource", "op": "Const", "attr": {"value": {"tensor": {"dtype": "DT_FLOAT", "tensorShape": {"dim": [{"size": "3"}, {"size": "3"}, {"size": "32"}, {"size": "32"}]}}}, "dtype": {"type": "DT_FLOAT"}}}, {"name": "functional_1/tf_op_layer_Add_99/Add_99/y", "op": "Const", "attr": {"value": {"tensor": {"dtype": "DT_FLOAT", "tensorShape": {"dim": [{"size": "32"}]}}}, "dtype": {"type": "DT_FLOAT"}}}, {"name": "functional_1/tf_op_layer_concat_39/concat_39/axis", "op": "Const", "attr": {"dtype": {"type": "DT_INT32"}, "value": {"tensor": {"dtype": "DT_INT32", "tensorShape": {}}}}}, {"name": "functional_1/conv2d_94/Conv2D/ReadVariableOp/resource", "op": "Const", "attr": {"dtype": {"type": "DT_FLOAT"}, "value": {"tensor": {"dtype": "DT_FLOAT", "tensorShape": {"dim": [{"size": "3"}, {"size": "3"}, {"size": "64"}, {"size": "32"}]}}}}}, {"name": "functional_1/tf_op_layer_Add_103/Add_103/y", "op": "Const", "attr": {"dtype": {"type": "DT_FLOAT"}, "value": {"tensor": {"dtype": "DT_FLOAT", "tensorShape": {"dim": [{"size": "32"}]}}}}}, {"name": "functional_1/tf_op_layer_ResizeBilinear_24/ResizeBilinear_24/size", "op": "Const", "attr": {"value": {"tensor": {"dtype": "DT_INT32", "tensorShape": {"dim": [{"size": "2"}]}}}, "dtype": {"type": "DT_INT32"}}}, {"name": "functional_1/conv2d_89/Conv2D/ReadVariableOp/resource", "op": "Const", "attr": {"value": {"tensor": {"dtype": "DT_FLOAT", "tensorShape": {"dim": [{"size": "3"}, {"size": "3"}, {"size": "32"}, {"size": "32"}]}}}, "dtype": {"type": "DT_FLOAT"}}}, {"name": "functional_1/tf_op_layer_Add_98/Add_98/y", "op": "Const", "attr": {"value": {"tensor": {"dtype": "DT_FLOAT", "tensorShape": {"dim": [{"size": "32"}]}}}, "dtype": {"type": "DT_FLOAT"}}}, {"name": "functional_1/tf_op_layer_concat_40/concat_40/axis", "op": "Const", "attr": {"dtype": {"type": "DT_INT32"}, "value": {"tensor": {"dtype": "DT_INT32", "tensorShape": {}}}}}, {"name": "functional_1/conv2d_95/Conv2D/ReadVariableOp/resource", "op": "Const", "attr": {"dtype": {"type": "DT_FLOAT"}, "value": {"tensor": {"dtype": "DT_FLOAT", "tensorShape": {"dim": [{"size": "3"}, {"size": "3"}, {"size": "64"}, {"size": "32"}]}}}}}, {"name": "functional_1/tf_op_layer_Add_104/Add_104/y", "op": "Const", "attr": {"value": {"tensor": {"dtype": "DT_FLOAT", "tensorShape": {"dim": [{"size": "32"}]}}}, "dtype": {"type": "DT_FLOAT"}}}, {"name": "functional_1/tf_op_layer_ResizeBilinear_25/ResizeBilinear_25/size", "op": "Const", "attr": {"dtype": {"type": "DT_INT32"}, "value": {"tensor": {"dtype": "DT_INT32", "tensorShape": {"dim": [{"size": "2"}]}}}}}, {"name": "functional_1/conv2d_88/Conv2D/ReadVariableOp/resource", "op": "Const", "attr": {"value": {"tensor": {"dtype": "DT_FLOAT", "tensorShape": {"dim": [{"size": "3"}, {"size": "3"}, {"size": "32"}, {"size": "32"}]}}}, "dtype": {"type": "DT_FLOAT"}}}, {"name": "functional_1/tf_op_layer_Add_97/Add_97/y", "op": "Const", "attr": {"dtype": {"type": "DT_FLOAT"}, "value": {"tensor": {"dtype": "DT_FLOAT", "tensorShape": {"dim": [{"size": "32"}]}}}}}, {"name": "functional_1/tf_op_layer_concat_41/concat_41/axis", "op": "Const", "attr": {"dtype": {"type": "DT_INT32"}, "value": {"tensor": {"dtype": "DT_INT32", "tensorShape": {}}}}}, {"name": "functional_1/conv2d_96/Conv2D/ReadVariableOp/resource", "op": "Const", "attr": {"dtype": {"type": "DT_FLOAT"}, "value": {"tensor": {"dtype": "DT_FLOAT", "tensorShape": {"dim": [{"size": "3"}, {"size": "3"}, {"size": "64"}, {"size": "32"}]}}}}}, {"name": "functional_1/tf_op_layer_Add_105/Add_105/y", "op": "Const", "attr": {"dtype": {"type": "DT_FLOAT"}, "value": {"tensor": {"dtype": "DT_FLOAT", "tensorShape": {"dim": [{"size": "32"}]}}}}}, {"name": "functional_1/tf_op_layer_ResizeBilinear_26/ResizeBilinear_26/size", "op": "Const", "attr": {"value": {"tensor": {"dtype": "DT_INT32", "tensorShape": {"dim": [{"size": "2"}]}}}, "dtype": {"type": "DT_INT32"}}}, {"name": "functional_1/conv2d_87/Conv2D/ReadVariableOp/resource", "op": "Const", "attr": {"value": {"tensor": {"dtype": "DT_FLOAT", "tensorShape": {"dim": [{"size": "3"}, {"size": "3"}, {"size": "64"}, {"size": "32"}]}}}, "dtype": {"type": "DT_FLOAT"}}}, {"name": "functional_1/tf_op_layer_Add_96/Add_96/y", "op": "Const", "attr": {"value": {"tensor": {"dtype": "DT_FLOAT", "tensorShape": {"dim": [{"size": "32"}]}}}, "dtype": {"type": "DT_FLOAT"}}}, {"name": "functional_1/tf_op_layer_concat_42/concat_42/axis", "op": "Const", "attr": {"value": {"tensor": {"dtype": "DT_INT32", "tensorShape": {}}}, "dtype": {"type": "DT_INT32"}}}, {"name": "functional_1/conv2d_97/Conv2D/ReadVariableOp/resource", "op": "Const", "attr": {"dtype": {"type": "DT_FLOAT"}, "value": {"tensor": {"dtype": "DT_FLOAT", "tensorShape": {"dim": [{"size": "3"}, {"size": "3"}, {"size": "64"}, {"size": "64"}]}}}}}, {"name": "functional_1/tf_op_layer_Add_106/Add_106/y", "op": "Const", "attr": {"value": {"tensor": {"dtype": "DT_FLOAT", "tensorShape": {"dim": [{"size": "64"}]}}}, "dtype": {"type": "DT_FLOAT"}}}, {"name": "functional_1/tf_op_layer_ResizeBilinear_22/ResizeBilinear_22/size", "op": "Const", "attr": {"value": {"tensor": {"dtype": "DT_INT32", "tensorShape": {"dim": [{"size": "2"}]}}}, "dtype": {"type": "DT_INT32"}}}, {"name": "functional_1/tf_op_layer_concat_37/concat_37/axis", "op": "Const", "attr": {"dtype": {"type": "DT_INT32"}, "value": {"tensor": {"dtype": "DT_INT32", "tensorShape": {}}}}}, {"name": "functional_1/conv2d_86/Conv2D/ReadVariableOp/resource", "op": "Const", "attr": {"value": {"tensor": {"dtype": "DT_FLOAT", "tensorShape": {"dim": [{"size": "3"}, {"size": "3"}, {"size": "256"}, {"size": "64"}]}}}, "dtype": {"type": "DT_FLOAT"}}}, {"name": "functional_1/tf_op_layer_Add_95/Add_95/y", "op": "Const", "attr": {"dtype": {"type": "DT_FLOAT"}, "value": {"tensor": {"dtype": "DT_FLOAT", "tensorShape": {"dim": [{"size": "64"}]}}}}}, {"name": "functional_1/conv2d_113/Conv2D/ReadVariableOp/resource", "op": "Const", "attr": {"dtype": {"type": "DT_FLOAT"}, "value": {"tensor": {"dtype": "DT_FLOAT", "tensorShape": {"dim": [{"size": "3"}, {"size": "3"}, {"size": "64"}, {"size": "1"}]}}}}}, {"name": "functional_1/tf_op_layer_Add_124/Add_124/y", "op": "Const", "attr": {"value": {"tensor": {"dtype": "DT_FLOAT", "tensorShape": {"dim": [{"size": "1"}]}}}, "dtype": {"type": "DT_FLOAT"}}}, {"name": "functional_1/tf_op_layer_ResizeBilinear_33/ResizeBilinear_33/size", "op": "Const", "attr": {"value": {"tensor": {"dtype": "DT_INT32", "tensorShape": {"dim": [{"size": "2"}]}}}, "dtype": {"type": "DT_INT32"}}}, {"name": "functional_1/conv2d_81/Conv2D/SpaceToBatchND/block_shape", "op": "Const", "attr": {"value": {"tensor": {"dtype": "DT_INT32", "tensorShape": {"dim": [{"size": "2"}]}}}, "dtype": {"type": "DT_INT32"}}}, {"name": "functional_1/conv2d_81/Conv2D/SpaceToBatchND/paddings", "op": "Const", "attr": {"dtype": {"type": "DT_INT32"}, "value": {"tensor": {"dtype": "DT_INT32", "tensorShape": {"dim": [{"size": "2"}, {"size": "2"}]}}}}}, {"name": "functional_1/conv2d_81/Conv2D/ReadVariableOp/resource", "op": "Const", "attr": {"value": {"tensor": {"dtype": "DT_FLOAT", "tensorShape": {"dim": [{"size": "3"}, {"size": "3"}, {"size": "64"}, {"size": "64"}]}}}, "dtype": {"type": "DT_FLOAT"}}}, {"name": "functional_1/conv2d_81/Conv2D/BatchToSpaceND/block_shape", "op": "Const", "attr": {"dtype": {"type": "DT_INT32"}, "value": {"tensor": {"dtype": "DT_INT32", "tensorShape": {"dim": [{"size": "2"}]}}}}}, {"name": "functional_1/conv2d_81/Conv2D/BatchToSpaceND/crops", "op": "Const", "attr": {"dtype": {"type": "DT_INT32"}, "value": {"tensor": {"dtype": "DT_INT32", "tensorShape": {"dim": [{"size": "2"}, {"size": "2"}]}}}}}, {"name": "functional_1/tf_op_layer_Add_89/Add_89/y", "op": "Const", "attr": {"value": {"tensor": {"dtype": "DT_FLOAT", "tensorShape": {"dim": [{"size": "64"}]}}}, "dtype": {"type": "DT_FLOAT"}}}, {"name": "functional_1/conv2d_80/Conv2D/ReadVariableOp/resource", "op": "Const", "attr": {"value": {"tensor": {"dtype": "DT_FLOAT", "tensorShape": {"dim": [{"size": "3"}, {"size": "3"}, {"size": "64"}, {"size": "64"}]}}}, "dtype": {"type": "DT_FLOAT"}}}, {"name": "functional_1/tf_op_layer_Add_88/Add_88/y", "op": "Const", "attr": {"value": {"tensor": {"dtype": "DT_FLOAT", "tensorShape": {"dim": [{"size": "64"}]}}}, "dtype": {"type": "DT_FLOAT"}}}, {"name": "functional_1/tf_op_layer_concat_33/concat_33/axis", "op": "Const", "attr": {"dtype": {"type": "DT_INT32"}, "value": {"tensor": {"dtype": "DT_INT32", "tensorShape": {}}}}}, {"name": "functional_1/conv2d_82/Conv2D/ReadVariableOp/resource", "op": "Const", "attr": {"dtype": {"type": "DT_FLOAT"}, "value": {"tensor": {"dtype": "DT_FLOAT", "tensorShape": {"dim": [{"size": "3"}, {"size": "3"}, {"size": "128"}, {"size": "64"}]}}}}}, {"name": "functional_1/tf_op_layer_Add_90/Add_90/y", "op": "Const", "attr": {"dtype": {"type": "DT_FLOAT"}, "value": {"tensor": {"dtype": "DT_FLOAT", "tensorShape": {"dim": [{"size": "64"}]}}}}}, {"name": "functional_1/tf_op_layer_ResizeBilinear_19/ResizeBilinear_19/size", "op": "Const", "attr": {"dtype": {"type": "DT_INT32"}, "value": {"tensor": {"dtype": "DT_INT32", "tensorShape": {"dim": [{"size": "2"}]}}}}}, {"name": "functional_1/conv2d_79/Conv2D/ReadVariableOp/resource", "op": "Const", "attr": {"value": {"tensor": {"dtype": "DT_FLOAT", "tensorShape": {"dim": [{"size": "3"}, {"size": "3"}, {"size": "64"}, {"size": "64"}]}}}, "dtype": {"type": "DT_FLOAT"}}}, {"name": "functional_1/tf_op_layer_Add_87/Add_87/y", "op": "Const", "attr": {"value": {"tensor": {"dtype": "DT_FLOAT", "tensorShape": {"dim": [{"size": "64"}]}}}, "dtype": {"type": "DT_FLOAT"}}}, {"name": "functional_1/tf_op_layer_concat_34/concat_34/axis", "op": "Const", "attr": {"value": {"tensor": {"dtype": "DT_INT32", "tensorShape": {}}}, "dtype": {"type": "DT_INT32"}}}, {"name": "functional_1/conv2d_83/Conv2D/ReadVariableOp/resource", "op": "Const", "attr": {"dtype": {"type": "DT_FLOAT"}, "value": {"tensor": {"dtype": "DT_FLOAT", "tensorShape": {"dim": [{"size": "3"}, {"size": "3"}, {"size": "128"}, {"size": "64"}]}}}}}, {"name": "functional_1/tf_op_layer_Add_91/Add_91/y", "op": "Const", "attr": {"dtype": {"type": "DT_FLOAT"}, "value": {"tensor": {"dtype": "DT_FLOAT", "tensorShape": {"dim": [{"size": "64"}]}}}}}, {"name": "functional_1/tf_op_layer_ResizeBilinear_20/ResizeBilinear_20/size", "op": "Const", "attr": {"value": {"tensor": {"dtype": "DT_INT32", "tensorShape": {"dim": [{"size": "2"}]}}}, "dtype": {"type": "DT_INT32"}}}, {"name": "functional_1/conv2d_78/Conv2D/ReadVariableOp/resource", "op": "Const", "attr": {"dtype": {"type": "DT_FLOAT"}, "value": {"tensor": {"dtype": "DT_FLOAT", "tensorShape": {"dim": [{"size": "3"}, {"size": "3"}, {"size": "64"}, {"size": "64"}]}}}}}, {"name": "functional_1/tf_op_layer_Add_86/Add_86/y", "op": "Const", "attr": {"dtype": {"type": "DT_FLOAT"}, "value": {"tensor": {"dtype": "DT_FLOAT", "tensorShape": {"dim": [{"size": "64"}]}}}}}, {"name": "functional_1/tf_op_layer_concat_35/concat_35/axis", "op": "Const", "attr": {"dtype": {"type": "DT_INT32"}, "value": {"tensor": {"dtype": "DT_INT32", "tensorShape": {}}}}}, {"name": "functional_1/conv2d_84/Conv2D/ReadVariableOp/resource", "op": "Const", "attr": {"value": {"tensor": {"dtype": "DT_FLOAT", "tensorShape": {"dim": [{"size": "3"}, {"size": "3"}, {"size": "128"}, {"size": "64"}]}}}, "dtype": {"type": "DT_FLOAT"}}}, {"name": "functional_1/tf_op_layer_Add_92/Add_92/y", "op": "Const", "attr": {"dtype": {"type": "DT_FLOAT"}, "value": {"tensor": {"dtype": "DT_FLOAT", "tensorShape": {"dim": [{"size": "64"}]}}}}}, {"name": "functional_1/tf_op_layer_ResizeBilinear_21/ResizeBilinear_21/size", "op": "Const", "attr": {"dtype": {"type": "DT_INT32"}, "value": {"tensor": {"dtype": "DT_INT32", "tensorShape": {"dim": [{"size": "2"}]}}}}}, {"name": "functional_1/conv2d_77/Conv2D/ReadVariableOp/resource", "op": "Const", "attr": {"dtype": {"type": "DT_FLOAT"}, "value": {"tensor": {"dtype": "DT_FLOAT", "tensorShape": {"dim": [{"size": "3"}, {"size": "3"}, {"size": "128"}, {"size": "64"}]}}}}}, {"name": "functional_1/tf_op_layer_Add_85/Add_85/y", "op": "Const", "attr": {"dtype": {"type": "DT_FLOAT"}, "value": {"tensor": {"dtype": "DT_FLOAT", "tensorShape": {"dim": [{"size": "64"}]}}}}}, {"name": "functional_1/tf_op_layer_concat_36/concat_36/axis", "op": "Const", "attr": {"dtype": {"type": "DT_INT32"}, "value": {"tensor": {"dtype": "DT_INT32", "tensorShape": {}}}}}, {"name": "functional_1/conv2d_85/Conv2D/ReadVariableOp/resource", "op": "Const", "attr": {"value": {"tensor": {"dtype": "DT_FLOAT", "tensorShape": {"dim": [{"size": "3"}, {"size": "3"}, {"size": "128"}, {"size": "128"}]}}}, "dtype": {"type": "DT_FLOAT"}}}, {"name": "functional_1/tf_op_layer_Add_93/Add_93/y", "op": "Const", "attr": {"value": {"tensor": {"dtype": "DT_FLOAT", "tensorShape": {"dim": [{"size": "128"}]}}}, "dtype": {"type": "DT_FLOAT"}}}, {"name": "functional_1/tf_op_layer_ResizeBilinear_18/ResizeBilinear_18/size", "op": "Const", "attr": {"dtype": {"type": "DT_INT32"}, "value": {"tensor": {"dtype": "DT_INT32", "tensorShape": {"dim": [{"size": "2"}]}}}}}, {"name": "functional_1/tf_op_layer_concat_32/concat_32/axis", "op": "Const", "attr": {"value": {"tensor": {"dtype": "DT_INT32", "tensorShape": {}}}, "dtype": {"type": "DT_INT32"}}}, {"name": "functional_1/conv2d_76/Conv2D/ReadVariableOp/resource", "op": "Const", "attr": {"dtype": {"type": "DT_FLOAT"}, "value": {"tensor": {"dtype": "DT_FLOAT", "tensorShape": {"dim": [{"size": "3"}, {"size": "3"}, {"size": "512"}, {"size": "128"}]}}}}}, {"name": "functional_1/tf_op_layer_Add_84/Add_84/y", "op": "Const", "attr": {"value": {"tensor": {"dtype": "DT_FLOAT", "tensorShape": {"dim": [{"size": "128"}]}}}, "dtype": {"type": "DT_FLOAT"}}}, {"name": "functional_1/conv2d_114/Conv2D/ReadVariableOp/resource", "op": "Const", "attr": {"value": {"tensor": {"dtype": "DT_FLOAT", "tensorShape": {"dim": [{"size": "3"}, {"size": "3"}, {"size": "128"}, {"size": "1"}]}}}, "dtype": {"type": "DT_FLOAT"}}}, {"name": "functional_1/tf_op_layer_Add_125/Add_125/y", "op": "Const", "attr": {"dtype": {"type": "DT_FLOAT"}, "value": {"tensor": {"dtype": "DT_FLOAT", "tensorShape": {"dim": [{"size": "1"}]}}}}}, {"name": "functional_1/tf_op_layer_ResizeBilinear_34/ResizeBilinear_34/size", "op": "Const", "attr": {"dtype": {"type": "DT_INT32"}, "value": {"tensor": {"dtype": "DT_INT32", "tensorShape": {"dim": [{"size": "2"}]}}}}}, {"name": "functional_1/conv2d_72/Conv2D/SpaceToBatchND/block_shape", "op": "Const", "attr": {"dtype": {"type": "DT_INT32"}, "value": {"tensor": {"dtype": "DT_INT32", "tensorShape": {"dim": [{"size": "2"}]}}}}}, {"name": "functional_1/conv2d_72/Conv2D/SpaceToBatchND/paddings", "op": "Const", "attr": {"value": {"tensor": {"dtype": "DT_INT32", "tensorShape": {"dim": [{"size": "2"}, {"size": "2"}]}}}, "dtype": {"type": "DT_INT32"}}}, {"name": "functional_1/conv2d_72/Conv2D/ReadVariableOp/resource", "op": "Const", "attr": {"value": {"tensor": {"dtype": "DT_FLOAT", "tensorShape": {"dim": [{"size": "3"}, {"size": "3"}, {"size": "128"}, {"size": "128"}]}}}, "dtype": {"type": "DT_FLOAT"}}}, {"name": "functional_1/conv2d_72/Conv2D/BatchToSpaceND/block_shape", "op": "Const", "attr": {"dtype": {"type": "DT_INT32"}, "value": {"tensor": {"dtype": "DT_INT32", "tensorShape": {"dim": [{"size": "2"}]}}}}}, {"name": "functional_1/conv2d_72/Conv2D/BatchToSpaceND/crops", "op": "Const", "attr": {"value": {"tensor": {"dtype": "DT_INT32", "tensorShape": {"dim": [{"size": "2"}, {"size": "2"}]}}}, "dtype": {"type": "DT_INT32"}}}, {"name": "functional_1/tf_op_layer_Add_79/Add_79/y", "op": "Const", "attr": {"dtype": {"type": "DT_FLOAT"}, "value": {"tensor": {"dtype": "DT_FLOAT", "tensorShape": {"dim": [{"size": "128"}]}}}}}, {"name": "functional_1/conv2d_71/Conv2D/ReadVariableOp/resource", "op": "Const", "attr": {"dtype": {"type": "DT_FLOAT"}, "value": {"tensor": {"dtype": "DT_FLOAT", "tensorShape": {"dim": [{"size": "3"}, {"size": "3"}, {"size": "128"}, {"size": "128"}]}}}}}, {"name": "functional_1/tf_op_layer_Add_78/Add_78/y", "op": "Const", "attr": {"value": {"tensor": {"dtype": "DT_FLOAT", "tensorShape": {"dim": [{"size": "128"}]}}}, "dtype": {"type": "DT_FLOAT"}}}, {"name": "functional_1/tf_op_layer_concat_29/concat_29/axis", "op": "Const", "attr": {"dtype": {"type": "DT_INT32"}, "value": {"tensor": {"dtype": "DT_INT32", "tensorShape": {}}}}}, {"name": "functional_1/conv2d_73/Conv2D/ReadVariableOp/resource", "op": "Const", "attr": {"dtype": {"type": "DT_FLOAT"}, "value": {"tensor": {"dtype": "DT_FLOAT", "tensorShape": {"dim": [{"size": "3"}, {"size": "3"}, {"size": "256"}, {"size": "128"}]}}}}}, {"name": "functional_1/tf_op_layer_Add_80/Add_80/y", "op": "Const", "attr": {"value": {"tensor": {"dtype": "DT_FLOAT", "tensorShape": {"dim": [{"size": "128"}]}}}, "dtype": {"type": "DT_FLOAT"}}}, {"name": "functional_1/tf_op_layer_ResizeBilinear_16/ResizeBilinear_16/size", "op": "Const", "attr": {"value": {"tensor": {"dtype": "DT_INT32", "tensorShape": {"dim": [{"size": "2"}]}}}, "dtype": {"type": "DT_INT32"}}}, {"name": "functional_1/conv2d_70/Conv2D/ReadVariableOp/resource", "op": "Const", "attr": {"value": {"tensor": {"dtype": "DT_FLOAT", "tensorShape": {"dim": [{"size": "3"}, {"size": "3"}, {"size": "128"}, {"size": "128"}]}}}, "dtype": {"type": "DT_FLOAT"}}}, {"name": "functional_1/tf_op_layer_Add_77/Add_77/y", "op": "Const", "attr": {"dtype": {"type": "DT_FLOAT"}, "value": {"tensor": {"dtype": "DT_FLOAT", "tensorShape": {"dim": [{"size": "128"}]}}}}}, {"name": "functional_1/tf_op_layer_concat_30/concat_30/axis", "op": "Const", "attr": {"dtype": {"type": "DT_INT32"}, "value": {"tensor": {"dtype": "DT_INT32", "tensorShape": {}}}}}, {"name": "functional_1/conv2d_74/Conv2D/ReadVariableOp/resource", "op": "Const", "attr": {"value": {"tensor": {"dtype": "DT_FLOAT", "tensorShape": {"dim": [{"size": "3"}, {"size": "3"}, {"size": "256"}, {"size": "128"}]}}}, "dtype": {"type": "DT_FLOAT"}}}, {"name": "functional_1/tf_op_layer_Add_81/Add_81/y", "op": "Const", "attr": {"value": {"tensor": {"dtype": "DT_FLOAT", "tensorShape": {"dim": [{"size": "128"}]}}}, "dtype": {"type": "DT_FLOAT"}}}, {"name": "functional_1/tf_op_layer_ResizeBilinear_17/ResizeBilinear_17/size", "op": "Const", "attr": {"dtype": {"type": "DT_INT32"}, "value": {"tensor": {"dtype": "DT_INT32", "tensorShape": {"dim": [{"size": "2"}]}}}}}, {"name": "functional_1/conv2d_69/Conv2D/ReadVariableOp/resource", "op": "Const", "attr": {"value": {"tensor": {"dtype": "DT_FLOAT", "tensorShape": {"dim": [{"size": "3"}, {"size": "3"}, {"size": "256"}, {"size": "128"}]}}}, "dtype": {"type": "DT_FLOAT"}}}, {"name": "functional_1/tf_op_layer_Add_76/Add_76/y", "op": "Const", "attr": {"dtype": {"type": "DT_FLOAT"}, "value": {"tensor": {"dtype": "DT_FLOAT", "tensorShape": {"dim": [{"size": "128"}]}}}}}, {"name": "functional_1/tf_op_layer_concat_31/concat_31/axis", "op": "Const", "attr": {"dtype": {"type": "DT_INT32"}, "value": {"tensor": {"dtype": "DT_INT32", "tensorShape": {}}}}}, {"name": "functional_1/conv2d_75/Conv2D/ReadVariableOp/resource", "op": "Const", "attr": {"value": {"tensor": {"dtype": "DT_FLOAT", "tensorShape": {"dim": [{"size": "3"}, {"size": "3"}, {"size": "256"}, {"size": "256"}]}}}, "dtype": {"type": "DT_FLOAT"}}}, {"name": "functional_1/tf_op_layer_Add_82/Add_82/y", "op": "Const", "attr": {"dtype": {"type": "DT_FLOAT"}, "value": {"tensor": {"dtype": "DT_FLOAT", "tensorShape": {"dim": [{"size": "256"}]}}}}}, {"name": "functional_1/tf_op_layer_ResizeBilinear_15/ResizeBilinear_15/size", "op": "Const", "attr": {"dtype": {"type": "DT_INT32"}, "value": {"tensor": {"dtype": "DT_INT32", "tensorShape": {"dim": [{"size": "2"}]}}}}}, {"name": "functional_1/tf_op_layer_concat_28/concat_28/axis", "op": "Const", "attr": {"dtype": {"type": "DT_INT32"}, "value": {"tensor": {"dtype": "DT_INT32", "tensorShape": {}}}}}, {"name": "functional_1/conv2d_68/Conv2D/ReadVariableOp/resource", "op": "Const", "attr": {"value": {"tensor": {"dtype": "DT_FLOAT", "tensorShape": {"dim": [{"size": "3"}, {"size": "3"}, {"size": "1024"}, {"size": "256"}]}}}, "dtype": {"type": "DT_FLOAT"}}}, {"name": "functional_1/tf_op_layer_Add_75/Add_75/y", "op": "Const", "attr": {"value": {"tensor": {"dtype": "DT_FLOAT", "tensorShape": {"dim": [{"size": "256"}]}}}, "dtype": {"type": "DT_FLOAT"}}}, {"name": "functional_1/conv2d_115/Conv2D/ReadVariableOp/resource", "op": "Const", "attr": {"value": {"tensor": {"dtype": "DT_FLOAT", "tensorShape": {"dim": [{"size": "3"}, {"size": "3"}, {"size": "256"}, {"size": "1"}]}}}, "dtype": {"type": "DT_FLOAT"}}}, {"name": "functional_1/tf_op_layer_Add_126/Add_126/y", "op": "Const", "attr": {"value": {"tensor": {"dtype": "DT_FLOAT", "tensorShape": {"dim": [{"size": "1"}]}}}, "dtype": {"type": "DT_FLOAT"}}}, {"name": "functional_1/tf_op_layer_ResizeBilinear_35/ResizeBilinear_35/size", "op": "Const", "attr": {"value": {"tensor": {"dtype": "DT_INT32", "tensorShape": {"dim": [{"size": "2"}]}}}, "dtype": {"type": "DT_INT32"}}}, {"name": "functional_1/conv2d_64/Conv2D/SpaceToBatchND/block_shape", "op": "Const", "attr": {"value": {"tensor": {"dtype": "DT_INT32", "tensorShape": {"dim": [{"size": "2"}]}}}, "dtype": {"type": "DT_INT32"}}}, {"name": "functional_1/conv2d_64/Conv2D/SpaceToBatchND/paddings", "op": "Const", "attr": {"dtype": {"type": "DT_INT32"}, "value": {"tensor": {"dtype": "DT_INT32", "tensorShape": {"dim": [{"size": "2"}, {"size": "2"}]}}}}}, {"name": "functional_1/conv2d_64/Conv2D/ReadVariableOp/resource", "op": "Const", "attr": {"dtype": {"type": "DT_FLOAT"}, "value": {"tensor": {"dtype": "DT_FLOAT", "tensorShape": {"dim": [{"size": "3"}, {"size": "3"}, {"size": "256"}, {"size": "256"}]}}}}}, {"name": "functional_1/conv2d_64/Conv2D/BatchToSpaceND/block_shape", "op": "Const", "attr": {"value": {"tensor": {"dtype": "DT_INT32", "tensorShape": {"dim": [{"size": "2"}]}}}, "dtype": {"type": "DT_INT32"}}}, {"name": "functional_1/conv2d_64/Conv2D/BatchToSpaceND/crops", "op": "Const", "attr": {"dtype": {"type": "DT_INT32"}, "value": {"tensor": {"dtype": "DT_INT32", "tensorShape": {"dim": [{"size": "2"}, {"size": "2"}]}}}}}, {"name": "functional_1/tf_op_layer_Add_70/Add_70/y", "op": "Const", "attr": {"value": {"tensor": {"dtype": "DT_FLOAT", "tensorShape": {"dim": [{"size": "256"}]}}}, "dtype": {"type": "DT_FLOAT"}}}, {"name": "functional_1/conv2d_63/Conv2D/SpaceToBatchND/block_shape", "op": "Const", "attr": {"dtype": {"type": "DT_INT32"}, "value": {"tensor": {"dtype": "DT_INT32", "tensorShape": {"dim": [{"size": "2"}]}}}}}, {"name": "functional_1/conv2d_63/Conv2D/SpaceToBatchND/paddings", "op": "Const", "attr": {"value": {"tensor": {"dtype": "DT_INT32", "tensorShape": {"dim": [{"size": "2"}, {"size": "2"}]}}}, "dtype": {"type": "DT_INT32"}}}, {"name": "functional_1/conv2d_63/Conv2D/ReadVariableOp/resource", "op": "Const", "attr": {"dtype": {"type": "DT_FLOAT"}, "value": {"tensor": {"dtype": "DT_FLOAT", "tensorShape": {"dim": [{"size": "3"}, {"size": "3"}, {"size": "256"}, {"size": "256"}]}}}}}, {"name": "functional_1/conv2d_63/Conv2D/BatchToSpaceND/block_shape", "op": "Const", "attr": {"dtype": {"type": "DT_INT32"}, "value": {"tensor": {"dtype": "DT_INT32", "tensorShape": {"dim": [{"size": "2"}]}}}}}, {"name": "functional_1/conv2d_63/Conv2D/BatchToSpaceND/crops", "op": "Const", "attr": {"value": {"tensor": {"dtype": "DT_INT32", "tensorShape": {"dim": [{"size": "2"}, {"size": "2"}]}}}, "dtype": {"type": "DT_INT32"}}}, {"name": "functional_1/tf_op_layer_Add_69/Add_69/y", "op": "Const", "attr": {"value": {"tensor": {"dtype": "DT_FLOAT", "tensorShape": {"dim": [{"size": "256"}]}}}, "dtype": {"type": "DT_FLOAT"}}}, {"name": "functional_1/tf_op_layer_concat_25/concat_25/axis", "op": "Const", "attr": {"value": {"tensor": {"dtype": "DT_INT32", "tensorShape": {}}}, "dtype": {"type": "DT_INT32"}}}, {"name": "functional_1/conv2d_65/Conv2D/SpaceToBatchND/block_shape", "op": "Const", "attr": {"value": {"tensor": {"dtype": "DT_INT32", "tensorShape": {"dim": [{"size": "2"}]}}}, "dtype": {"type": "DT_INT32"}}}, {"name": "functional_1/conv2d_65/Conv2D/SpaceToBatchND/paddings", "op": "Const", "attr": {"dtype": {"type": "DT_INT32"}, "value": {"tensor": {"dtype": "DT_INT32", "tensorShape": {"dim": [{"size": "2"}, {"size": "2"}]}}}}}, {"name": "functional_1/conv2d_65/Conv2D/ReadVariableOp/resource", "op": "Const", "attr": {"value": {"tensor": {"dtype": "DT_FLOAT", "tensorShape": {"dim": [{"size": "3"}, {"size": "3"}, {"size": "512"}, {"size": "256"}]}}}, "dtype": {"type": "DT_FLOAT"}}}, {"name": "functional_1/conv2d_65/Conv2D/BatchToSpaceND/block_shape", "op": "Const", "attr": {"dtype": {"type": "DT_INT32"}, "value": {"tensor": {"dtype": "DT_INT32", "tensorShape": {"dim": [{"size": "2"}]}}}}}, {"name": "functional_1/conv2d_65/Conv2D/BatchToSpaceND/crops", "op": "Const", "attr": {"dtype": {"type": "DT_INT32"}, "value": {"tensor": {"dtype": "DT_INT32", "tensorShape": {"dim": [{"size": "2"}, {"size": "2"}]}}}}}, {"name": "functional_1/tf_op_layer_Add_71/Add_71/y", "op": "Const", "attr": {"dtype": {"type": "DT_FLOAT"}, "value": {"tensor": {"dtype": "DT_FLOAT", "tensorShape": {"dim": [{"size": "256"}]}}}}}, {"name": "functional_1/conv2d_62/Conv2D/SpaceToBatchND/block_shape", "op": "Const", "attr": {"dtype": {"type": "DT_INT32"}, "value": {"tensor": {"dtype": "DT_INT32", "tensorShape": {"dim": [{"size": "2"}]}}}}}, {"name": "functional_1/conv2d_62/Conv2D/SpaceToBatchND/paddings", "op": "Const", "attr": {"dtype": {"type": "DT_INT32"}, "value": {"tensor": {"dtype": "DT_INT32", "tensorShape": {"dim": [{"size": "2"}, {"size": "2"}]}}}}}, {"name": "functional_1/conv2d_62/Conv2D/ReadVariableOp/resource", "op": "Const", "attr": {"value": {"tensor": {"dtype": "DT_FLOAT", "tensorShape": {"dim": [{"size": "3"}, {"size": "3"}, {"size": "256"}, {"size": "256"}]}}}, "dtype": {"type": "DT_FLOAT"}}}, {"name": "functional_1/conv2d_62/Conv2D/BatchToSpaceND/block_shape", "op": "Const", "attr": {"dtype": {"type": "DT_INT32"}, "value": {"tensor": {"dtype": "DT_INT32", "tensorShape": {"dim": [{"size": "2"}]}}}}}, {"name": "functional_1/conv2d_62/Conv2D/BatchToSpaceND/crops", "op": "Const", "attr": {"dtype": {"type": "DT_INT32"}, "value": {"tensor": {"dtype": "DT_INT32", "tensorShape": {"dim": [{"size": "2"}, {"size": "2"}]}}}}}, {"name": "functional_1/tf_op_layer_Add_68/Add_68/y", "op": "Const", "attr": {"dtype": {"type": "DT_FLOAT"}, "value": {"tensor": {"dtype": "DT_FLOAT", "tensorShape": {"dim": [{"size": "256"}]}}}}}, {"name": "functional_1/tf_op_layer_concat_26/concat_26/axis", "op": "Const", "attr": {"value": {"tensor": {"dtype": "DT_INT32", "tensorShape": {}}}, "dtype": {"type": "DT_INT32"}}}, {"name": "functional_1/conv2d_66/Conv2D/SpaceToBatchND/block_shape", "op": "Const", "attr": {"dtype": {"type": "DT_INT32"}, "value": {"tensor": {"dtype": "DT_INT32", "tensorShape": {"dim": [{"size": "2"}]}}}}}, {"name": "functional_1/conv2d_66/Conv2D/SpaceToBatchND/paddings", "op": "Const", "attr": {"dtype": {"type": "DT_INT32"}, "value": {"tensor": {"dtype": "DT_INT32", "tensorShape": {"dim": [{"size": "2"}, {"size": "2"}]}}}}}, {"name": "functional_1/conv2d_66/Conv2D/ReadVariableOp/resource", "op": "Const", "attr": {"dtype": {"type": "DT_FLOAT"}, "value": {"tensor": {"dtype": "DT_FLOAT", "tensorShape": {"dim": [{"size": "3"}, {"size": "3"}, {"size": "512"}, {"size": "256"}]}}}}}, {"name": "functional_1/conv2d_66/Conv2D/BatchToSpaceND/block_shape", "op": "Const", "attr": {"value": {"tensor": {"dtype": "DT_INT32", "tensorShape": {"dim": [{"size": "2"}]}}}, "dtype": {"type": "DT_INT32"}}}, {"name": "functional_1/conv2d_66/Conv2D/BatchToSpaceND/crops", "op": "Const", "attr": {"dtype": {"type": "DT_INT32"}, "value": {"tensor": {"dtype": "DT_INT32", "tensorShape": {"dim": [{"size": "2"}, {"size": "2"}]}}}}}, {"name": "functional_1/tf_op_layer_Add_72/Add_72/y", "op": "Const", "attr": {"value": {"tensor": {"dtype": "DT_FLOAT", "tensorShape": {"dim": [{"size": "256"}]}}}, "dtype": {"type": "DT_FLOAT"}}}, {"name": "functional_1/conv2d_61/Conv2D/ReadVariableOp/resource", "op": "Const", "attr": {"dtype": {"type": "DT_FLOAT"}, "value": {"tensor": {"dtype": "DT_FLOAT", "tensorShape": {"dim": [{"size": "3"}, {"size": "3"}, {"size": "512"}, {"size": "256"}]}}}}}, {"name": "functional_1/tf_op_layer_Add_67/Add_67/y", "op": "Const", "attr": {"value": {"tensor": {"dtype": "DT_FLOAT", "tensorShape": {"dim": [{"size": "256"}]}}}, "dtype": {"type": "DT_FLOAT"}}}, {"name": "functional_1/tf_op_layer_concat_27/concat_27/axis", "op": "Const", "attr": {"value": {"tensor": {"dtype": "DT_INT32", "tensorShape": {}}}, "dtype": {"type": "DT_INT32"}}}, {"name": "functional_1/conv2d_67/Conv2D/ReadVariableOp/resource", "op": "Const", "attr": {"value": {"tensor": {"dtype": "DT_FLOAT", "tensorShape": {"dim": [{"size": "3"}, {"size": "3"}, {"size": "512"}, {"size": "512"}]}}}, "dtype": {"type": "DT_FLOAT"}}}, {"name": "functional_1/tf_op_layer_Add_73/Add_73/y", "op": "Const", "attr": {"value": {"tensor": {"dtype": "DT_FLOAT", "tensorShape": {"dim": [{"size": "512"}]}}}, "dtype": {"type": "DT_FLOAT"}}}, {"name": "functional_1/tf_op_layer_ResizeBilinear_14/ResizeBilinear_14/size", "op": "Const", "attr": {"dtype": {"type": "DT_INT32"}, "value": {"tensor": {"dtype": "DT_INT32", "tensorShape": {"dim": [{"size": "2"}]}}}}}, {"name": "functional_1/tf_op_layer_concat_24/concat_24/axis", "op": "Const", "attr": {"value": {"tensor": {"dtype": "DT_INT32", "tensorShape": {}}}, "dtype": {"type": "DT_INT32"}}}, {"name": "functional_1/conv2d_60/Conv2D/ReadVariableOp/resource", "op": "Const", "attr": {"value": {"tensor": {"dtype": "DT_FLOAT", "tensorShape": {"dim": [{"size": "3"}, {"size": "3"}, {"size": "1024"}, {"size": "512"}]}}}, "dtype": {"type": "DT_FLOAT"}}}, {"name": "functional_1/tf_op_layer_Add_66/Add_66/y", "op": "Const", "attr": {"value": {"tensor": {"dtype": "DT_FLOAT", "tensorShape": {"dim": [{"size": "512"}]}}}, "dtype": {"type": "DT_FLOAT"}}}, {"name": "functional_1/conv2d_116/Conv2D/ReadVariableOp/resource", "op": "Const", "attr": {"value": {"tensor": {"dtype": "DT_FLOAT", "tensorShape": {"dim": [{"size": "3"}, {"size": "3"}, {"size": "512"}, {"size": "1"}]}}}, "dtype": {"type": "DT_FLOAT"}}}, {"name": "functional_1/tf_op_layer_Add_127/Add_127/y", "op": "Const", "attr": {"dtype": {"type": "DT_FLOAT"}, "value": {"tensor": {"dtype": "DT_FLOAT", "tensorShape": {"dim": [{"size": "1"}]}}}}}, {"name": "functional_1/tf_op_layer_ResizeBilinear_36/ResizeBilinear_36/size", "op": "Const", "attr": {"dtype": {"type": "DT_INT32"}, "value": {"tensor": {"dtype": "DT_INT32", "tensorShape": {"dim": [{"size": "2"}]}}}}}, {"name": "functional_1/conv2d_56/Conv2D/SpaceToBatchND/block_shape", "op": "Const", "attr": {"dtype": {"type": "DT_INT32"}, "value": {"tensor": {"dtype": "DT_INT32", "tensorShape": {"dim": [{"size": "2"}]}}}}}, {"name": "functional_1/conv2d_56/Conv2D/SpaceToBatchND/paddings", "op": "Const", "attr": {"value": {"tensor": {"dtype": "DT_INT32", "tensorShape": {"dim": [{"size": "2"}, {"size": "2"}]}}}, "dtype": {"type": "DT_INT32"}}}, {"name": "functional_1/conv2d_56/Conv2D/ReadVariableOp/resource", "op": "Const", "attr": {"dtype": {"type": "DT_FLOAT"}, "value": {"tensor": {"dtype": "DT_FLOAT", "tensorShape": {"dim": [{"size": "3"}, {"size": "3"}, {"size": "256"}, {"size": "256"}]}}}}}, {"name": "functional_1/conv2d_56/Conv2D/BatchToSpaceND/block_shape", "op": "Const", "attr": {"dtype": {"type": "DT_INT32"}, "value": {"tensor": {"dtype": "DT_INT32", "tensorShape": {"dim": [{"size": "2"}]}}}}}, {"name": "functional_1/conv2d_56/Conv2D/BatchToSpaceND/crops", "op": "Const", "attr": {"value": {"tensor": {"dtype": "DT_INT32", "tensorShape": {"dim": [{"size": "2"}, {"size": "2"}]}}}, "dtype": {"type": "DT_INT32"}}}, {"name": "functional_1/tf_op_layer_Add_61/Add_61/y", "op": "Const", "attr": {"dtype": {"type": "DT_FLOAT"}, "value": {"tensor": {"dtype": "DT_FLOAT", "tensorShape": {"dim": [{"size": "256"}]}}}}}, {"name": "functional_1/conv2d_55/Conv2D/SpaceToBatchND/block_shape", "op": "Const", "attr": {"dtype": {"type": "DT_INT32"}, "value": {"tensor": {"dtype": "DT_INT32", "tensorShape": {"dim": [{"size": "2"}]}}}}}, {"name": "functional_1/conv2d_55/Conv2D/SpaceToBatchND/paddings", "op": "Const", "attr": {"value": {"tensor": {"dtype": "DT_INT32", "tensorShape": {"dim": [{"size": "2"}, {"size": "2"}]}}}, "dtype": {"type": "DT_INT32"}}}, {"name": "functional_1/conv2d_55/Conv2D/ReadVariableOp/resource", "op": "Const", "attr": {"value": {"tensor": {"dtype": "DT_FLOAT", "tensorShape": {"dim": [{"size": "3"}, {"size": "3"}, {"size": "256"}, {"size": "256"}]}}}, "dtype": {"type": "DT_FLOAT"}}}, {"name": "functional_1/conv2d_55/Conv2D/BatchToSpaceND/block_shape", "op": "Const", "attr": {"dtype": {"type": "DT_INT32"}, "value": {"tensor": {"dtype": "DT_INT32", "tensorShape": {"dim": [{"size": "2"}]}}}}}, {"name": "functional_1/conv2d_55/Conv2D/BatchToSpaceND/crops", "op": "Const", "attr": {"dtype": {"type": "DT_INT32"}, "value": {"tensor": {"dtype": "DT_INT32", "tensorShape": {"dim": [{"size": "2"}, {"size": "2"}]}}}}}, {"name": "functional_1/tf_op_layer_Add_60/Add_60/y", "op": "Const", "attr": {"dtype": {"type": "DT_FLOAT"}, "value": {"tensor": {"dtype": "DT_FLOAT", "tensorShape": {"dim": [{"size": "256"}]}}}}}, {"name": "functional_1/tf_op_layer_concat_21/concat_21/axis", "op": "Const", "attr": {"value": {"tensor": {"dtype": "DT_INT32", "tensorShape": {}}}, "dtype": {"type": "DT_INT32"}}}, {"name": "functional_1/conv2d_57/Conv2D/SpaceToBatchND/block_shape", "op": "Const", "attr": {"value": {"tensor": {"dtype": "DT_INT32", "tensorShape": {"dim": [{"size": "2"}]}}}, "dtype": {"type": "DT_INT32"}}}, {"name": "functional_1/conv2d_57/Conv2D/SpaceToBatchND/paddings", "op": "Const", "attr": {"dtype": {"type": "DT_INT32"}, "value": {"tensor": {"dtype": "DT_INT32", "tensorShape": {"dim": [{"size": "2"}, {"size": "2"}]}}}}}, {"name": "functional_1/conv2d_57/Conv2D/ReadVariableOp/resource", "op": "Const", "attr": {"value": {"tensor": {"dtype": "DT_FLOAT", "tensorShape": {"dim": [{"size": "3"}, {"size": "3"}, {"size": "512"}, {"size": "256"}]}}}, "dtype": {"type": "DT_FLOAT"}}}, {"name": "functional_1/conv2d_57/Conv2D/BatchToSpaceND/block_shape", "op": "Const", "attr": {"dtype": {"type": "DT_INT32"}, "value": {"tensor": {"dtype": "DT_INT32", "tensorShape": {"dim": [{"size": "2"}]}}}}}, {"name": "functional_1/conv2d_57/Conv2D/BatchToSpaceND/crops", "op": "Const", "attr": {"dtype": {"type": "DT_INT32"}, "value": {"tensor": {"dtype": "DT_INT32", "tensorShape": {"dim": [{"size": "2"}, {"size": "2"}]}}}}}, {"name": "functional_1/tf_op_layer_Add_62/Add_62/y", "op": "Const", "attr": {"dtype": {"type": "DT_FLOAT"}, "value": {"tensor": {"dtype": "DT_FLOAT", "tensorShape": {"dim": [{"size": "256"}]}}}}}, {"name": "functional_1/conv2d_54/Conv2D/SpaceToBatchND/block_shape", "op": "Const", "attr": {"value": {"tensor": {"dtype": "DT_INT32", "tensorShape": {"dim": [{"size": "2"}]}}}, "dtype": {"type": "DT_INT32"}}}, {"name": "functional_1/conv2d_54/Conv2D/SpaceToBatchND/paddings", "op": "Const", "attr": {"dtype": {"type": "DT_INT32"}, "value": {"tensor": {"dtype": "DT_INT32", "tensorShape": {"dim": [{"size": "2"}, {"size": "2"}]}}}}}, {"name": "functional_1/conv2d_54/Conv2D/ReadVariableOp/resource", "op": "Const", "attr": {"value": {"tensor": {"dtype": "DT_FLOAT", "tensorShape": {"dim": [{"size": "3"}, {"size": "3"}, {"size": "256"}, {"size": "256"}]}}}, "dtype": {"type": "DT_FLOAT"}}}, {"name": "functional_1/conv2d_54/Conv2D/BatchToSpaceND/block_shape", "op": "Const", "attr": {"dtype": {"type": "DT_INT32"}, "value": {"tensor": {"dtype": "DT_INT32", "tensorShape": {"dim": [{"size": "2"}]}}}}}, {"name": "functional_1/conv2d_54/Conv2D/BatchToSpaceND/crops", "op": "Const", "attr": {"value": {"tensor": {"dtype": "DT_INT32", "tensorShape": {"dim": [{"size": "2"}, {"size": "2"}]}}}, "dtype": {"type": "DT_INT32"}}}, {"name": "functional_1/tf_op_layer_Add_59/Add_59/y", "op": "Const", "attr": {"dtype": {"type": "DT_FLOAT"}, "value": {"tensor": {"dtype": "DT_FLOAT", "tensorShape": {"dim": [{"size": "256"}]}}}}}, {"name": "functional_1/tf_op_layer_concat_22/concat_22/axis", "op": "Const", "attr": {"value": {"tensor": {"dtype": "DT_INT32", "tensorShape": {}}}, "dtype": {"type": "DT_INT32"}}}, {"name": "functional_1/conv2d_58/Conv2D/SpaceToBatchND/block_shape", "op": "Const", "attr": {"value": {"tensor": {"dtype": "DT_INT32", "tensorShape": {"dim": [{"size": "2"}]}}}, "dtype": {"type": "DT_INT32"}}}, {"name": "functional_1/conv2d_58/Conv2D/SpaceToBatchND/paddings", "op": "Const", "attr": {"dtype": {"type": "DT_INT32"}, "value": {"tensor": {"dtype": "DT_INT32", "tensorShape": {"dim": [{"size": "2"}, {"size": "2"}]}}}}}, {"name": "functional_1/conv2d_58/Conv2D/ReadVariableOp/resource", "op": "Const", "attr": {"dtype": {"type": "DT_FLOAT"}, "value": {"tensor": {"dtype": "DT_FLOAT", "tensorShape": {"dim": [{"size": "3"}, {"size": "3"}, {"size": "512"}, {"size": "256"}]}}}}}, {"name": "functional_1/conv2d_58/Conv2D/BatchToSpaceND/block_shape", "op": "Const", "attr": {"value": {"tensor": {"dtype": "DT_INT32", "tensorShape": {"dim": [{"size": "2"}]}}}, "dtype": {"type": "DT_INT32"}}}, {"name": "functional_1/conv2d_58/Conv2D/BatchToSpaceND/crops", "op": "Const", "attr": {"dtype": {"type": "DT_INT32"}, "value": {"tensor": {"dtype": "DT_INT32", "tensorShape": {"dim": [{"size": "2"}, {"size": "2"}]}}}}}, {"name": "functional_1/tf_op_layer_Add_63/Add_63/y", "op": "Const", "attr": {"value": {"tensor": {"dtype": "DT_FLOAT", "tensorShape": {"dim": [{"size": "256"}]}}}, "dtype": {"type": "DT_FLOAT"}}}, {"name": "functional_1/conv2d_53/Conv2D/ReadVariableOp/resource", "op": "Const", "attr": {"value": {"tensor": {"dtype": "DT_FLOAT", "tensorShape": {"dim": [{"size": "3"}, {"size": "3"}, {"size": "512"}, {"size": "256"}]}}}, "dtype": {"type": "DT_FLOAT"}}}, {"name": "functional_1/tf_op_layer_Add_58/Add_58/y", "op": "Const", "attr": {"dtype": {"type": "DT_FLOAT"}, "value": {"tensor": {"dtype": "DT_FLOAT", "tensorShape": {"dim": [{"size": "256"}]}}}}}, {"name": "functional_1/tf_op_layer_concat_23/concat_23/axis", "op": "Const", "attr": {"value": {"tensor": {"dtype": "DT_INT32", "tensorShape": {}}}, "dtype": {"type": "DT_INT32"}}}, {"name": "functional_1/conv2d_59/Conv2D/ReadVariableOp/resource", "op": "Const", "attr": {"dtype": {"type": "DT_FLOAT"}, "value": {"tensor": {"dtype": "DT_FLOAT", "tensorShape": {"dim": [{"size": "3"}, {"size": "3"}, {"size": "512"}, {"size": "512"}]}}}}}, {"name": "functional_1/tf_op_layer_Add_64/Add_64/y", "op": "Const", "attr": {"value": {"tensor": {"dtype": "DT_FLOAT", "tensorShape": {"dim": [{"size": "512"}]}}}, "dtype": {"type": "DT_FLOAT"}}}, {"name": "functional_1/conv2d_48/Conv2D/SpaceToBatchND/block_shape", "op": "Const", "attr": {"value": {"tensor": {"dtype": "DT_INT32", "tensorShape": {"dim": [{"size": "2"}]}}}, "dtype": {"type": "DT_INT32"}}}, {"name": "functional_1/conv2d_48/Conv2D/SpaceToBatchND/paddings", "op": "Const", "attr": {"value": {"tensor": {"dtype": "DT_INT32", "tensorShape": {"dim": [{"size": "2"}, {"size": "2"}]}}}, "dtype": {"type": "DT_INT32"}}}, {"name": "functional_1/conv2d_48/Conv2D/ReadVariableOp/resource", "op": "Const", "attr": {"dtype": {"type": "DT_FLOAT"}, "value": {"tensor": {"dtype": "DT_FLOAT", "tensorShape": {"dim": [{"size": "3"}, {"size": "3"}, {"size": "256"}, {"size": "256"}]}}}}}, {"name": "functional_1/conv2d_48/Conv2D/BatchToSpaceND/block_shape", "op": "Const", "attr": {"dtype": {"type": "DT_INT32"}, "value": {"tensor": {"dtype": "DT_INT32", "tensorShape": {"dim": [{"size": "2"}]}}}}}, {"name": "functional_1/conv2d_48/Conv2D/BatchToSpaceND/crops", "op": "Const", "attr": {"value": {"tensor": {"dtype": "DT_INT32", "tensorShape": {"dim": [{"size": "2"}, {"size": "2"}]}}}, "dtype": {"type": "DT_INT32"}}}, {"name": "functional_1/tf_op_layer_Add_52/Add_52/y", "op": "Const", "attr": {"dtype": {"type": "DT_FLOAT"}, "value": {"tensor": {"dtype": "DT_FLOAT", "tensorShape": {"dim": [{"size": "256"}]}}}}}, {"name": "functional_1/conv2d_47/Conv2D/SpaceToBatchND/block_shape", "op": "Const", "attr": {"value": {"tensor": {"dtype": "DT_INT32", "tensorShape": {"dim": [{"size": "2"}]}}}, "dtype": {"type": "DT_INT32"}}}, {"name": "functional_1/conv2d_47/Conv2D/SpaceToBatchND/paddings", "op": "Const", "attr": {"value": {"tensor": {"dtype": "DT_INT32", "tensorShape": {"dim": [{"size": "2"}, {"size": "2"}]}}}, "dtype": {"type": "DT_INT32"}}}, {"name": "functional_1/conv2d_47/Conv2D/ReadVariableOp/resource", "op": "Const", "attr": {"value": {"tensor": {"dtype": "DT_FLOAT", "tensorShape": {"dim": [{"size": "3"}, {"size": "3"}, {"size": "256"}, {"size": "256"}]}}}, "dtype": {"type": "DT_FLOAT"}}}, {"name": "functional_1/conv2d_47/Conv2D/BatchToSpaceND/block_shape", "op": "Const", "attr": {"dtype": {"type": "DT_INT32"}, "value": {"tensor": {"dtype": "DT_INT32", "tensorShape": {"dim": [{"size": "2"}]}}}}}, {"name": "functional_1/conv2d_47/Conv2D/BatchToSpaceND/crops", "op": "Const", "attr": {"value": {"tensor": {"dtype": "DT_INT32", "tensorShape": {"dim": [{"size": "2"}, {"size": "2"}]}}}, "dtype": {"type": "DT_INT32"}}}, {"name": "functional_1/tf_op_layer_Add_51/Add_51/y", "op": "Const", "attr": {"dtype": {"type": "DT_FLOAT"}, "value": {"tensor": {"dtype": "DT_FLOAT", "tensorShape": {"dim": [{"size": "256"}]}}}}}, {"name": "functional_1/tf_op_layer_concat_18/concat_18/axis", "op": "Const", "attr": {"value": {"tensor": {"dtype": "DT_INT32", "tensorShape": {}}}, "dtype": {"type": "DT_INT32"}}}, {"name": "functional_1/conv2d_49/Conv2D/SpaceToBatchND/block_shape", "op": "Const", "attr": {"value": {"tensor": {"dtype": "DT_INT32", "tensorShape": {"dim": [{"size": "2"}]}}}, "dtype": {"type": "DT_INT32"}}}, {"name": "functional_1/conv2d_49/Conv2D/SpaceToBatchND/paddings", "op": "Const", "attr": {"dtype": {"type": "DT_INT32"}, "value": {"tensor": {"dtype": "DT_INT32", "tensorShape": {"dim": [{"size": "2"}, {"size": "2"}]}}}}}, {"name": "functional_1/conv2d_49/Conv2D/ReadVariableOp/resource", "op": "Const", "attr": {"value": {"tensor": {"dtype": "DT_FLOAT", "tensorShape": {"dim": [{"size": "3"}, {"size": "3"}, {"size": "512"}, {"size": "256"}]}}}, "dtype": {"type": "DT_FLOAT"}}}, {"name": "functional_1/conv2d_49/Conv2D/BatchToSpaceND/block_shape", "op": "Const", "attr": {"value": {"tensor": {"dtype": "DT_INT32", "tensorShape": {"dim": [{"size": "2"}]}}}, "dtype": {"type": "DT_INT32"}}}, {"name": "functional_1/conv2d_49/Conv2D/BatchToSpaceND/crops", "op": "Const", "attr": {"dtype": {"type": "DT_INT32"}, "value": {"tensor": {"dtype": "DT_INT32", "tensorShape": {"dim": [{"size": "2"}, {"size": "2"}]}}}}}, {"name": "functional_1/tf_op_layer_Add_53/Add_53/y", "op": "Const", "attr": {"dtype": {"type": "DT_FLOAT"}, "value": {"tensor": {"dtype": "DT_FLOAT", "tensorShape": {"dim": [{"size": "256"}]}}}}}, {"name": "functional_1/conv2d_46/Conv2D/SpaceToBatchND/block_shape", "op": "Const", "attr": {"value": {"tensor": {"dtype": "DT_INT32", "tensorShape": {"dim": [{"size": "2"}]}}}, "dtype": {"type": "DT_INT32"}}}, {"name": "functional_1/conv2d_46/Conv2D/SpaceToBatchND/paddings", "op": "Const", "attr": {"value": {"tensor": {"dtype": "DT_INT32", "tensorShape": {"dim": [{"size": "2"}, {"size": "2"}]}}}, "dtype": {"type": "DT_INT32"}}}, {"name": "functional_1/conv2d_46/Conv2D/ReadVariableOp/resource", "op": "Const", "attr": {"value": {"tensor": {"dtype": "DT_FLOAT", "tensorShape": {"dim": [{"size": "3"}, {"size": "3"}, {"size": "256"}, {"size": "256"}]}}}, "dtype": {"type": "DT_FLOAT"}}}, {"name": "functional_1/conv2d_46/Conv2D/BatchToSpaceND/block_shape", "op": "Const", "attr": {"dtype": {"type": "DT_INT32"}, "value": {"tensor": {"dtype": "DT_INT32", "tensorShape": {"dim": [{"size": "2"}]}}}}}, {"name": "functional_1/conv2d_46/Conv2D/BatchToSpaceND/crops", "op": "Const", "attr": {"value": {"tensor": {"dtype": "DT_INT32", "tensorShape": {"dim": [{"size": "2"}, {"size": "2"}]}}}, "dtype": {"type": "DT_INT32"}}}, {"name": "functional_1/tf_op_layer_Add_50/Add_50/y", "op": "Const", "attr": {"dtype": {"type": "DT_FLOAT"}, "value": {"tensor": {"dtype": "DT_FLOAT", "tensorShape": {"dim": [{"size": "256"}]}}}}}, {"name": "functional_1/tf_op_layer_concat_19/concat_19/axis", "op": "Const", "attr": {"value": {"tensor": {"dtype": "DT_INT32", "tensorShape": {}}}, "dtype": {"type": "DT_INT32"}}}, {"name": "functional_1/conv2d_50/Conv2D/SpaceToBatchND/block_shape", "op": "Const", "attr": {"dtype": {"type": "DT_INT32"}, "value": {"tensor": {"dtype": "DT_INT32", "tensorShape": {"dim": [{"size": "2"}]}}}}}, {"name": "functional_1/conv2d_50/Conv2D/SpaceToBatchND/paddings", "op": "Const", "attr": {"value": {"tensor": {"dtype": "DT_INT32", "tensorShape": {"dim": [{"size": "2"}, {"size": "2"}]}}}, "dtype": {"type": "DT_INT32"}}}, {"name": "functional_1/conv2d_50/Conv2D/ReadVariableOp/resource", "op": "Const", "attr": {"dtype": {"type": "DT_FLOAT"}, "value": {"tensor": {"dtype": "DT_FLOAT", "tensorShape": {"dim": [{"size": "3"}, {"size": "3"}, {"size": "512"}, {"size": "256"}]}}}}}, {"name": "functional_1/conv2d_50/Conv2D/BatchToSpaceND/block_shape", "op": "Const", "attr": {"value": {"tensor": {"dtype": "DT_INT32", "tensorShape": {"dim": [{"size": "2"}]}}}, "dtype": {"type": "DT_INT32"}}}, {"name": "functional_1/conv2d_50/Conv2D/BatchToSpaceND/crops", "op": "Const", "attr": {"dtype": {"type": "DT_INT32"}, "value": {"tensor": {"dtype": "DT_INT32", "tensorShape": {"dim": [{"size": "2"}, {"size": "2"}]}}}}}, {"name": "functional_1/tf_op_layer_Add_54/Add_54/y", "op": "Const", "attr": {"dtype": {"type": "DT_FLOAT"}, "value": {"tensor": {"dtype": "DT_FLOAT", "tensorShape": {"dim": [{"size": "256"}]}}}}}, {"name": "functional_1/conv2d_45/Conv2D/ReadVariableOp/resource", "op": "Const", "attr": {"value": {"tensor": {"dtype": "DT_FLOAT", "tensorShape": {"dim": [{"size": "3"}, {"size": "3"}, {"size": "512"}, {"size": "256"}]}}}, "dtype": {"type": "DT_FLOAT"}}}, {"name": "functional_1/tf_op_layer_Add_49/Add_49/y", "op": "Const", "attr": {"value": {"tensor": {"dtype": "DT_FLOAT", "tensorShape": {"dim": [{"size": "256"}]}}}, "dtype": {"type": "DT_FLOAT"}}}, {"name": "functional_1/tf_op_layer_concat_20/concat_20/axis", "op": "Const", "attr": {"dtype": {"type": "DT_INT32"}, "value": {"tensor": {"dtype": "DT_INT32", "tensorShape": {}}}}}, {"name": "functional_1/conv2d_51/Conv2D/ReadVariableOp/resource", "op": "Const", "attr": {"value": {"tensor": {"dtype": "DT_FLOAT", "tensorShape": {"dim": [{"size": "3"}, {"size": "3"}, {"size": "512"}, {"size": "512"}]}}}, "dtype": {"type": "DT_FLOAT"}}}, {"name": "functional_1/tf_op_layer_Add_55/Add_55/y", "op": "Const", "attr": {"value": {"tensor": {"dtype": "DT_FLOAT", "tensorShape": {"dim": [{"size": "512"}]}}}, "dtype": {"type": "DT_FLOAT"}}}, {"name": "functional_1/conv2d_40/Conv2D/SpaceToBatchND/block_shape", "op": "Const", "attr": {"value": {"tensor": {"dtype": "DT_INT32", "tensorShape": {"dim": [{"size": "2"}]}}}, "dtype": {"type": "DT_INT32"}}}, {"name": "functional_1/conv2d_40/Conv2D/SpaceToBatchND/paddings", "op": "Const", "attr": {"dtype": {"type": "DT_INT32"}, "value": {"tensor": {"dtype": "DT_INT32", "tensorShape": {"dim": [{"size": "2"}, {"size": "2"}]}}}}}, {"name": "functional_1/conv2d_40/Conv2D/ReadVariableOp/resource", "op": "Const", "attr": {"dtype": {"type": "DT_FLOAT"}, "value": {"tensor": {"dtype": "DT_FLOAT", "tensorShape": {"dim": [{"size": "3"}, {"size": "3"}, {"size": "128"}, {"size": "128"}]}}}}}, {"name": "functional_1/conv2d_40/Conv2D/BatchToSpaceND/block_shape", "op": "Const", "attr": {"value": {"tensor": {"dtype": "DT_INT32", "tensorShape": {"dim": [{"size": "2"}]}}}, "dtype": {"type": "DT_INT32"}}}, {"name": "functional_1/conv2d_40/Conv2D/BatchToSpaceND/crops", "op": "Const", "attr": {"value": {"tensor": {"dtype": "DT_INT32", "tensorShape": {"dim": [{"size": "2"}, {"size": "2"}]}}}, "dtype": {"type": "DT_INT32"}}}, {"name": "functional_1/tf_op_layer_Add_43/Add_43/y", "op": "Const", "attr": {"dtype": {"type": "DT_FLOAT"}, "value": {"tensor": {"dtype": "DT_FLOAT", "tensorShape": {"dim": [{"size": "128"}]}}}}}, {"name": "functional_1/conv2d_39/Conv2D/ReadVariableOp/resource", "op": "Const", "attr": {"value": {"tensor": {"dtype": "DT_FLOAT", "tensorShape": {"dim": [{"size": "3"}, {"size": "3"}, {"size": "128"}, {"size": "128"}]}}}, "dtype": {"type": "DT_FLOAT"}}}, {"name": "functional_1/tf_op_layer_Add_42/Add_42/y", "op": "Const", "attr": {"value": {"tensor": {"dtype": "DT_FLOAT", "tensorShape": {"dim": [{"size": "128"}]}}}, "dtype": {"type": "DT_FLOAT"}}}, {"name": "functional_1/tf_op_layer_concat_15/concat_15/axis", "op": "Const", "attr": {"value": {"tensor": {"dtype": "DT_INT32", "tensorShape": {}}}, "dtype": {"type": "DT_INT32"}}}, {"name": "functional_1/conv2d_41/Conv2D/ReadVariableOp/resource", "op": "Const", "attr": {"value": {"tensor": {"dtype": "DT_FLOAT", "tensorShape": {"dim": [{"size": "3"}, {"size": "3"}, {"size": "256"}, {"size": "128"}]}}}, "dtype": {"type": "DT_FLOAT"}}}, {"name": "functional_1/tf_op_layer_Add_44/Add_44/y", "op": "Const", "attr": {"dtype": {"type": "DT_FLOAT"}, "value": {"tensor": {"dtype": "DT_FLOAT", "tensorShape": {"dim": [{"size": "128"}]}}}}}, {"name": "functional_1/tf_op_layer_ResizeBilinear_12/ResizeBilinear_12/size", "op": "Const", "attr": {"value": {"tensor": {"dtype": "DT_INT32", "tensorShape": {"dim": [{"size": "2"}]}}}, "dtype": {"type": "DT_INT32"}}}, {"name": "functional_1/conv2d_38/Conv2D/ReadVariableOp/resource", "op": "Const", "attr": {"dtype": {"type": "DT_FLOAT"}, "value": {"tensor": {"dtype": "DT_FLOAT", "tensorShape": {"dim": [{"size": "3"}, {"size": "3"}, {"size": "128"}, {"size": "128"}]}}}}}, {"name": "functional_1/tf_op_layer_Add_41/Add_41/y", "op": "Const", "attr": {"value": {"tensor": {"dtype": "DT_FLOAT", "tensorShape": {"dim": [{"size": "128"}]}}}, "dtype": {"type": "DT_FLOAT"}}}, {"name": "functional_1/tf_op_layer_concat_16/concat_16/axis", "op": "Const", "attr": {"dtype": {"type": "DT_INT32"}, "value": {"tensor": {"dtype": "DT_INT32", "tensorShape": {}}}}}, {"name": "functional_1/conv2d_42/Conv2D/ReadVariableOp/resource", "op": "Const", "attr": {"value": {"tensor": {"dtype": "DT_FLOAT", "tensorShape": {"dim": [{"size": "3"}, {"size": "3"}, {"size": "256"}, {"size": "128"}]}}}, "dtype": {"type": "DT_FLOAT"}}}, {"name": "functional_1/tf_op_layer_Add_45/Add_45/y", "op": "Const", "attr": {"dtype": {"type": "DT_FLOAT"}, "value": {"tensor": {"dtype": "DT_FLOAT", "tensorShape": {"dim": [{"size": "128"}]}}}}}, {"name": "functional_1/tf_op_layer_ResizeBilinear_13/ResizeBilinear_13/size", "op": "Const", "attr": {"dtype": {"type": "DT_INT32"}, "value": {"tensor": {"dtype": "DT_INT32", "tensorShape": {"dim": [{"size": "2"}]}}}}}, {"name": "functional_1/conv2d_37/Conv2D/ReadVariableOp/resource", "op": "Const", "attr": {"value": {"tensor": {"dtype": "DT_FLOAT", "tensorShape": {"dim": [{"size": "3"}, {"size": "3"}, {"size": "512"}, {"size": "128"}]}}}, "dtype": {"type": "DT_FLOAT"}}}, {"name": "functional_1/tf_op_layer_Add_40/Add_40/y", "op": "Const", "attr": {"value": {"tensor": {"dtype": "DT_FLOAT", "tensorShape": {"dim": [{"size": "128"}]}}}, "dtype": {"type": "DT_FLOAT"}}}, {"name": "functional_1/tf_op_layer_concat_17/concat_17/axis", "op": "Const", "attr": {"value": {"tensor": {"dtype": "DT_INT32", "tensorShape": {}}}, "dtype": {"type": "DT_INT32"}}}, {"name": "functional_1/conv2d_43/Conv2D/ReadVariableOp/resource", "op": "Const", "attr": {"value": {"tensor": {"dtype": "DT_FLOAT", "tensorShape": {"dim": [{"size": "3"}, {"size": "3"}, {"size": "256"}, {"size": "512"}]}}}, "dtype": {"type": "DT_FLOAT"}}}, {"name": "functional_1/tf_op_layer_Add_46/Add_46/y", "op": "Const", "attr": {"value": {"tensor": {"dtype": "DT_FLOAT", "tensorShape": {"dim": [{"size": "512"}]}}}, "dtype": {"type": "DT_FLOAT"}}}, {"name": "functional_1/conv2d_31/Conv2D/SpaceToBatchND/block_shape", "op": "Const", "attr": {"value": {"tensor": {"dtype": "DT_INT32", "tensorShape": {"dim": [{"size": "2"}]}}}, "dtype": {"type": "DT_INT32"}}}, {"name": "functional_1/conv2d_31/Conv2D/SpaceToBatchND/paddings", "op": "Const", "attr": {"dtype": {"type": "DT_INT32"}, "value": {"tensor": {"dtype": "DT_INT32", "tensorShape": {"dim": [{"size": "2"}, {"size": "2"}]}}}}}, {"name": "functional_1/conv2d_31/Conv2D/ReadVariableOp/resource", "op": "Const", "attr": {"value": {"tensor": {"dtype": "DT_FLOAT", "tensorShape": {"dim": [{"size": "3"}, {"size": "3"}, {"size": "64"}, {"size": "64"}]}}}, "dtype": {"type": "DT_FLOAT"}}}, {"name": "functional_1/conv2d_31/Conv2D/BatchToSpaceND/block_shape", "op": "Const", "attr": {"value": {"tensor": {"dtype": "DT_INT32", "tensorShape": {"dim": [{"size": "2"}]}}}, "dtype": {"type": "DT_INT32"}}}, {"name": "functional_1/conv2d_31/Conv2D/BatchToSpaceND/crops", "op": "Const", "attr": {"value": {"tensor": {"dtype": "DT_INT32", "tensorShape": {"dim": [{"size": "2"}, {"size": "2"}]}}}, "dtype": {"type": "DT_INT32"}}}, {"name": "functional_1/tf_op_layer_Add_33/Add_33/y", "op": "Const", "attr": {"dtype": {"type": "DT_FLOAT"}, "value": {"tensor": {"dtype": "DT_FLOAT", "tensorShape": {"dim": [{"size": "64"}]}}}}}, {"name": "functional_1/conv2d_30/Conv2D/ReadVariableOp/resource", "op": "Const", "attr": {"value": {"tensor": {"dtype": "DT_FLOAT", "tensorShape": {"dim": [{"size": "3"}, {"size": "3"}, {"size": "64"}, {"size": "64"}]}}}, "dtype": {"type": "DT_FLOAT"}}}, {"name": "functional_1/tf_op_layer_Add_32/Add_32/y", "op": "Const", "attr": {"value": {"tensor": {"dtype": "DT_FLOAT", "tensorShape": {"dim": [{"size": "64"}]}}}, "dtype": {"type": "DT_FLOAT"}}}, {"name": "functional_1/tf_op_layer_concat_11/concat_11/axis", "op": "Const", "attr": {"dtype": {"type": "DT_INT32"}, "value": {"tensor": {"dtype": "DT_INT32", "tensorShape": {}}}}}, {"name": "functional_1/conv2d_32/Conv2D/ReadVariableOp/resource", "op": "Const", "attr": {"value": {"tensor": {"dtype": "DT_FLOAT", "tensorShape": {"dim": [{"size": "3"}, {"size": "3"}, {"size": "128"}, {"size": "64"}]}}}, "dtype": {"type": "DT_FLOAT"}}}, {"name": "functional_1/tf_op_layer_Add_34/Add_34/y", "op": "Const", "attr": {"dtype": {"type": "DT_FLOAT"}, "value": {"tensor": {"dtype": "DT_FLOAT", "tensorShape": {"dim": [{"size": "64"}]}}}}}, {"name": "functional_1/tf_op_layer_ResizeBilinear_9/ResizeBilinear_9/size", "op": "Const", "attr": {"value": {"tensor": {"dtype": "DT_INT32", "tensorShape": {"dim": [{"size": "2"}]}}}, "dtype": {"type": "DT_INT32"}}}, {"name": "functional_1/conv2d_29/Conv2D/ReadVariableOp/resource", "op": "Const", "attr": {"dtype": {"type": "DT_FLOAT"}, "value": {"tensor": {"dtype": "DT_FLOAT", "tensorShape": {"dim": [{"size": "3"}, {"size": "3"}, {"size": "64"}, {"size": "64"}]}}}}}, {"name": "functional_1/tf_op_layer_Add_31/Add_31/y", "op": "Const", "attr": {"value": {"tensor": {"dtype": "DT_FLOAT", "tensorShape": {"dim": [{"size": "64"}]}}}, "dtype": {"type": "DT_FLOAT"}}}, {"name": "functional_1/tf_op_layer_concat_12/concat_12/axis", "op": "Const", "attr": {"dtype": {"type": "DT_INT32"}, "value": {"tensor": {"dtype": "DT_INT32", "tensorShape": {}}}}}, {"name": "functional_1/conv2d_33/Conv2D/ReadVariableOp/resource", "op": "Const", "attr": {"value": {"tensor": {"dtype": "DT_FLOAT", "tensorShape": {"dim": [{"size": "3"}, {"size": "3"}, {"size": "128"}, {"size": "64"}]}}}, "dtype": {"type": "DT_FLOAT"}}}, {"name": "functional_1/tf_op_layer_Add_35/Add_35/y", "op": "Const", "attr": {"dtype": {"type": "DT_FLOAT"}, "value": {"tensor": {"dtype": "DT_FLOAT", "tensorShape": {"dim": [{"size": "64"}]}}}}}, {"name": "functional_1/tf_op_layer_ResizeBilinear_10/ResizeBilinear_10/size", "op": "Const", "attr": {"value": {"tensor": {"dtype": "DT_INT32", "tensorShape": {"dim": [{"size": "2"}]}}}, "dtype": {"type": "DT_INT32"}}}, {"name": "functional_1/conv2d_28/Conv2D/ReadVariableOp/resource", "op": "Const", "attr": {"value": {"tensor": {"dtype": "DT_FLOAT", "tensorShape": {"dim": [{"size": "3"}, {"size": "3"}, {"size": "64"}, {"size": "64"}]}}}, "dtype": {"type": "DT_FLOAT"}}}, {"name": "functional_1/tf_op_layer_Add_30/Add_30/y", "op": "Const", "attr": {"dtype": {"type": "DT_FLOAT"}, "value": {"tensor": {"dtype": "DT_FLOAT", "tensorShape": {"dim": [{"size": "64"}]}}}}}, {"name": "functional_1/tf_op_layer_concat_13/concat_13/axis", "op": "Const", "attr": {"value": {"tensor": {"dtype": "DT_INT32", "tensorShape": {}}}, "dtype": {"type": "DT_INT32"}}}, {"name": "functional_1/conv2d_34/Conv2D/ReadVariableOp/resource", "op": "Const", "attr": {"dtype": {"type": "DT_FLOAT"}, "value": {"tensor": {"dtype": "DT_FLOAT", "tensorShape": {"dim": [{"size": "3"}, {"size": "3"}, {"size": "128"}, {"size": "64"}]}}}}}, {"name": "functional_1/tf_op_layer_Add_36/Add_36/y", "op": "Const", "attr": {"dtype": {"type": "DT_FLOAT"}, "value": {"tensor": {"dtype": "DT_FLOAT", "tensorShape": {"dim": [{"size": "64"}]}}}}}, {"name": "functional_1/tf_op_layer_ResizeBilinear_11/ResizeBilinear_11/size", "op": "Const", "attr": {"dtype": {"type": "DT_INT32"}, "value": {"tensor": {"dtype": "DT_INT32", "tensorShape": {"dim": [{"size": "2"}]}}}}}, {"name": "functional_1/conv2d_27/Conv2D/ReadVariableOp/resource", "op": "Const", "attr": {"value": {"tensor": {"dtype": "DT_FLOAT", "tensorShape": {"dim": [{"size": "3"}, {"size": "3"}, {"size": "256"}, {"size": "64"}]}}}, "dtype": {"type": "DT_FLOAT"}}}, {"name": "functional_1/tf_op_layer_Add_29/Add_29/y", "op": "Const", "attr": {"dtype": {"type": "DT_FLOAT"}, "value": {"tensor": {"dtype": "DT_FLOAT", "tensorShape": {"dim": [{"size": "64"}]}}}}}, {"name": "functional_1/tf_op_layer_concat_14/concat_14/axis", "op": "Const", "attr": {"dtype": {"type": "DT_INT32"}, "value": {"tensor": {"dtype": "DT_INT32", "tensorShape": {}}}}}, {"name": "functional_1/conv2d_35/Conv2D/ReadVariableOp/resource", "op": "Const", "attr": {"value": {"tensor": {"dtype": "DT_FLOAT", "tensorShape": {"dim": [{"size": "3"}, {"size": "3"}, {"size": "128"}, {"size": "256"}]}}}, "dtype": {"type": "DT_FLOAT"}}}, {"name": "functional_1/tf_op_layer_Add_37/Add_37/y", "op": "Const", "attr": {"value": {"tensor": {"dtype": "DT_FLOAT", "tensorShape": {"dim": [{"size": "256"}]}}}, "dtype": {"type": "DT_FLOAT"}}}, {"name": "functional_1/conv2d_20/Conv2D/SpaceToBatchND/block_shape", "op": "Const", "attr": {"dtype": {"type": "DT_INT32"}, "value": {"tensor": {"dtype": "DT_INT32", "tensorShape": {"dim": [{"size": "2"}]}}}}}, {"name": "functional_1/conv2d_20/Conv2D/SpaceToBatchND/paddings", "op": "Const", "attr": {"dtype": {"type": "DT_INT32"}, "value": {"tensor": {"dtype": "DT_INT32", "tensorShape": {"dim": [{"size": "2"}, {"size": "2"}]}}}}}, {"name": "functional_1/conv2d_20/Conv2D/ReadVariableOp/resource", "op": "Const", "attr": {"dtype": {"type": "DT_FLOAT"}, "value": {"tensor": {"dtype": "DT_FLOAT", "tensorShape": {"dim": [{"size": "3"}, {"size": "3"}, {"size": "32"}, {"size": "32"}]}}}}}, {"name": "functional_1/conv2d_20/Conv2D/BatchToSpaceND/block_shape", "op": "Const", "attr": {"value": {"tensor": {"dtype": "DT_INT32", "tensorShape": {"dim": [{"size": "2"}]}}}, "dtype": {"type": "DT_INT32"}}}, {"name": "functional_1/conv2d_20/Conv2D/BatchToSpaceND/crops", "op": "Const", "attr": {"dtype": {"type": "DT_INT32"}, "value": {"tensor": {"dtype": "DT_INT32", "tensorShape": {"dim": [{"size": "2"}, {"size": "2"}]}}}}}, {"name": "functional_1/tf_op_layer_Add_21/Add_21/y", "op": "Const", "attr": {"value": {"tensor": {"dtype": "DT_FLOAT", "tensorShape": {"dim": [{"size": "32"}]}}}, "dtype": {"type": "DT_FLOAT"}}}, {"name": "functional_1/conv2d_19/Conv2D/ReadVariableOp/resource", "op": "Const", "attr": {"dtype": {"type": "DT_FLOAT"}, "value": {"tensor": {"dtype": "DT_FLOAT", "tensorShape": {"dim": [{"size": "3"}, {"size": "3"}, {"size": "32"}, {"size": "32"}]}}}}}, {"name": "functional_1/tf_op_layer_Add_20/Add_20/y", "op": "Const", "attr": {"dtype": {"type": "DT_FLOAT"}, "value": {"tensor": {"dtype": "DT_FLOAT", "tensorShape": {"dim": [{"size": "32"}]}}}}}, {"name": "functional_1/tf_op_layer_concat_6/concat_6/axis", "op": "Const", "attr": {"value": {"tensor": {"dtype": "DT_INT32", "tensorShape": {}}}, "dtype": {"type": "DT_INT32"}}}, {"name": "functional_1/conv2d_21/Conv2D/ReadVariableOp/resource", "op": "Const", "attr": {"dtype": {"type": "DT_FLOAT"}, "value": {"tensor": {"dtype": "DT_FLOAT", "tensorShape": {"dim": [{"size": "3"}, {"size": "3"}, {"size": "64"}, {"size": "32"}]}}}}}, {"name": "functional_1/tf_op_layer_Add_22/Add_22/y", "op": "Const", "attr": {"value": {"tensor": {"dtype": "DT_FLOAT", "tensorShape": {"dim": [{"size": "32"}]}}}, "dtype": {"type": "DT_FLOAT"}}}, {"name": "functional_1/tf_op_layer_ResizeBilinear_5/ResizeBilinear_5/size", "op": "Const", "attr": {"dtype": {"type": "DT_INT32"}, "value": {"tensor": {"dtype": "DT_INT32", "tensorShape": {"dim": [{"size": "2"}]}}}}}, {"name": "functional_1/conv2d_18/Conv2D/ReadVariableOp/resource", "op": "Const", "attr": {"value": {"tensor": {"dtype": "DT_FLOAT", "tensorShape": {"dim": [{"size": "3"}, {"size": "3"}, {"size": "32"}, {"size": "32"}]}}}, "dtype": {"type": "DT_FLOAT"}}}, {"name": "functional_1/tf_op_layer_Add_19/Add_19/y", "op": "Const", "attr": {"dtype": {"type": "DT_FLOAT"}, "value": {"tensor": {"dtype": "DT_FLOAT", "tensorShape": {"dim": [{"size": "32"}]}}}}}, {"name": "functional_1/tf_op_layer_concat_7/concat_7/axis", "op": "Const", "attr": {"value": {"tensor": {"dtype": "DT_INT32", "tensorShape": {}}}, "dtype": {"type": "DT_INT32"}}}, {"name": "functional_1/conv2d_22/Conv2D/ReadVariableOp/resource", "op": "Const", "attr": {"dtype": {"type": "DT_FLOAT"}, "value": {"tensor": {"dtype": "DT_FLOAT", "tensorShape": {"dim": [{"size": "3"}, {"size": "3"}, {"size": "64"}, {"size": "32"}]}}}}}, {"name": "functional_1/tf_op_layer_Add_23/Add_23/y", "op": "Const", "attr": {"value": {"tensor": {"dtype": "DT_FLOAT", "tensorShape": {"dim": [{"size": "32"}]}}}, "dtype": {"type": "DT_FLOAT"}}}, {"name": "functional_1/tf_op_layer_ResizeBilinear_6/ResizeBilinear_6/size", "op": "Const", "attr": {"value": {"tensor": {"dtype": "DT_INT32", "tensorShape": {"dim": [{"size": "2"}]}}}, "dtype": {"type": "DT_INT32"}}}, {"name": "functional_1/conv2d_17/Conv2D/ReadVariableOp/resource", "op": "Const", "attr": {"dtype": {"type": "DT_FLOAT"}, "value": {"tensor": {"dtype": "DT_FLOAT", "tensorShape": {"dim": [{"size": "3"}, {"size": "3"}, {"size": "32"}, {"size": "32"}]}}}}}, {"name": "functional_1/tf_op_layer_Add_18/Add_18/y", "op": "Const", "attr": {"dtype": {"type": "DT_FLOAT"}, "value": {"tensor": {"dtype": "DT_FLOAT", "tensorShape": {"dim": [{"size": "32"}]}}}}}, {"name": "functional_1/tf_op_layer_concat_8/concat_8/axis", "op": "Const", "attr": {"value": {"tensor": {"dtype": "DT_INT32", "tensorShape": {}}}, "dtype": {"type": "DT_INT32"}}}, {"name": "functional_1/conv2d_23/Conv2D/ReadVariableOp/resource", "op": "Const", "attr": {"dtype": {"type": "DT_FLOAT"}, "value": {"tensor": {"dtype": "DT_FLOAT", "tensorShape": {"dim": [{"size": "3"}, {"size": "3"}, {"size": "64"}, {"size": "32"}]}}}}}, {"name": "functional_1/tf_op_layer_Add_24/Add_24/y", "op": "Const", "attr": {"value": {"tensor": {"dtype": "DT_FLOAT", "tensorShape": {"dim": [{"size": "32"}]}}}, "dtype": {"type": "DT_FLOAT"}}}, {"name": "functional_1/tf_op_layer_ResizeBilinear_7/ResizeBilinear_7/size", "op": "Const", "attr": {"dtype": {"type": "DT_INT32"}, "value": {"tensor": {"dtype": "DT_INT32", "tensorShape": {"dim": [{"size": "2"}]}}}}}, {"name": "functional_1/conv2d_16/Conv2D/ReadVariableOp/resource", "op": "Const", "attr": {"dtype": {"type": "DT_FLOAT"}, "value": {"tensor": {"dtype": "DT_FLOAT", "tensorShape": {"dim": [{"size": "3"}, {"size": "3"}, {"size": "32"}, {"size": "32"}]}}}}}, {"name": "functional_1/tf_op_layer_Add_17/Add_17/y", "op": "Const", "attr": {"value": {"tensor": {"dtype": "DT_FLOAT", "tensorShape": {"dim": [{"size": "32"}]}}}, "dtype": {"type": "DT_FLOAT"}}}, {"name": "functional_1/tf_op_layer_concat_9/concat_9/axis", "op": "Const", "attr": {"value": {"tensor": {"dtype": "DT_INT32", "tensorShape": {}}}, "dtype": {"type": "DT_INT32"}}}, {"name": "functional_1/conv2d_24/Conv2D/ReadVariableOp/resource", "op": "Const", "attr": {"value": {"tensor": {"dtype": "DT_FLOAT", "tensorShape": {"dim": [{"size": "3"}, {"size": "3"}, {"size": "64"}, {"size": "32"}]}}}, "dtype": {"type": "DT_FLOAT"}}}, {"name": "functional_1/tf_op_layer_Add_25/Add_25/y", "op": "Const", "attr": {"dtype": {"type": "DT_FLOAT"}, "value": {"tensor": {"dtype": "DT_FLOAT", "tensorShape": {"dim": [{"size": "32"}]}}}}}, {"name": "functional_1/tf_op_layer_ResizeBilinear_8/ResizeBilinear_8/size", "op": "Const", "attr": {"dtype": {"type": "DT_INT32"}, "value": {"tensor": {"dtype": "DT_INT32", "tensorShape": {"dim": [{"size": "2"}]}}}}}, {"name": "functional_1/conv2d_15/Conv2D/ReadVariableOp/resource", "op": "Const", "attr": {"dtype": {"type": "DT_FLOAT"}, "value": {"tensor": {"dtype": "DT_FLOAT", "tensorShape": {"dim": [{"size": "3"}, {"size": "3"}, {"size": "128"}, {"size": "32"}]}}}}}, {"name": "functional_1/tf_op_layer_Add_16/Add_16/y", "op": "Const", "attr": {"dtype": {"type": "DT_FLOAT"}, "value": {"tensor": {"dtype": "DT_FLOAT", "tensorShape": {"dim": [{"size": "32"}]}}}}}, {"name": "functional_1/tf_op_layer_concat_10/concat_10/axis", "op": "Const", "attr": {"dtype": {"type": "DT_INT32"}, "value": {"tensor": {"dtype": "DT_INT32", "tensorShape": {}}}}}, {"name": "functional_1/conv2d_25/Conv2D/ReadVariableOp/resource", "op": "Const", "attr": {"value": {"tensor": {"dtype": "DT_FLOAT", "tensorShape": {"dim": [{"size": "3"}, {"size": "3"}, {"size": "64"}, {"size": "128"}]}}}, "dtype": {"type": "DT_FLOAT"}}}, {"name": "functional_1/tf_op_layer_Add_26/Add_26/y", "op": "Const", "attr": {"dtype": {"type": "DT_FLOAT"}, "value": {"tensor": {"dtype": "DT_FLOAT", "tensorShape": {"dim": [{"size": "128"}]}}}}}, {"name": "functional_1/conv2d_7/Conv2D/SpaceToBatchND/block_shape", "op": "Const", "attr": {"value": {"tensor": {"dtype": "DT_INT32", "tensorShape": {"dim": [{"size": "2"}]}}}, "dtype": {"type": "DT_INT32"}}}, {"name": "functional_1/conv2d_7/Conv2D/SpaceToBatchND/paddings", "op": "Const", "attr": {"dtype": {"type": "DT_INT32"}, "value": {"tensor": {"dtype": "DT_INT32", "tensorShape": {"dim": [{"size": "2"}, {"size": "2"}]}}}}}, {"name": "functional_1/conv2d_7/Conv2D/ReadVariableOp/resource", "op": "Const", "attr": {"dtype": {"type": "DT_FLOAT"}, "value": {"tensor": {"dtype": "DT_FLOAT", "tensorShape": {"dim": [{"size": "3"}, {"size": "3"}, {"size": "32"}, {"size": "32"}]}}}}}, {"name": "functional_1/conv2d_7/Conv2D/BatchToSpaceND/block_shape", "op": "Const", "attr": {"dtype": {"type": "DT_INT32"}, "value": {"tensor": {"dtype": "DT_INT32", "tensorShape": {"dim": [{"size": "2"}]}}}}}, {"name": "functional_1/conv2d_7/Conv2D/BatchToSpaceND/crops", "op": "Const", "attr": {"dtype": {"type": "DT_INT32"}, "value": {"tensor": {"dtype": "DT_INT32", "tensorShape": {"dim": [{"size": "2"}, {"size": "2"}]}}}}}, {"name": "functional_1/tf_op_layer_Add_7/Add_7/y", "op": "Const", "attr": {"dtype": {"type": "DT_FLOAT"}, "value": {"tensor": {"dtype": "DT_FLOAT", "tensorShape": {"dim": [{"size": "32"}]}}}}}, {"name": "functional_1/conv2d_6/Conv2D/ReadVariableOp/resource", "op": "Const", "attr": {"dtype": {"type": "DT_FLOAT"}, "value": {"tensor": {"dtype": "DT_FLOAT", "tensorShape": {"dim": [{"size": "3"}, {"size": "3"}, {"size": "32"}, {"size": "32"}]}}}}}, {"name": "functional_1/tf_op_layer_Add_6/Add_6/y", "op": "Const", "attr": {"value": {"tensor": {"dtype": "DT_FLOAT", "tensorShape": {"dim": [{"size": "32"}]}}}, "dtype": {"type": "DT_FLOAT"}}}, {"name": "functional_1/tf_op_layer_concat/concat/axis", "op": "Const", "attr": {"value": {"tensor": {"dtype": "DT_INT32", "tensorShape": {}}}, "dtype": {"type": "DT_INT32"}}}, {"name": "functional_1/conv2d_8/Conv2D/ReadVariableOp/resource", "op": "Const", "attr": {"value": {"tensor": {"dtype": "DT_FLOAT", "tensorShape": {"dim": [{"size": "3"}, {"size": "3"}, {"size": "64"}, {"size": "32"}]}}}, "dtype": {"type": "DT_FLOAT"}}}, {"name": "functional_1/tf_op_layer_Add_8/Add_8/y", "op": "Const", "attr": {"dtype": {"type": "DT_FLOAT"}, "value": {"tensor": {"dtype": "DT_FLOAT", "tensorShape": {"dim": [{"size": "32"}]}}}}}, {"name": "functional_1/tf_op_layer_ResizeBilinear/ResizeBilinear/size", "op": "Const", "attr": {"dtype": {"type": "DT_INT32"}, "value": {"tensor": {"dtype": "DT_INT32", "tensorShape": {"dim": [{"size": "2"}]}}}}}, {"name": "functional_1/conv2d_5/Conv2D/ReadVariableOp/resource", "op": "Const", "attr": {"value": {"tensor": {"dtype": "DT_FLOAT", "tensorShape": {"dim": [{"size": "3"}, {"size": "3"}, {"size": "32"}, {"size": "32"}]}}}, "dtype": {"type": "DT_FLOAT"}}}, {"name": "functional_1/tf_op_layer_Add_5/Add_5/y", "op": "Const", "attr": {"dtype": {"type": "DT_FLOAT"}, "value": {"tensor": {"dtype": "DT_FLOAT", "tensorShape": {"dim": [{"size": "32"}]}}}}}, {"name": "functional_1/tf_op_layer_concat_1/concat_1/axis", "op": "Const", "attr": {"value": {"tensor": {"dtype": "DT_INT32", "tensorShape": {}}}, "dtype": {"type": "DT_INT32"}}}, {"name": "functional_1/conv2d_9/Conv2D/ReadVariableOp/resource", "op": "Const", "attr": {"dtype": {"type": "DT_FLOAT"}, "value": {"tensor": {"dtype": "DT_FLOAT", "tensorShape": {"dim": [{"size": "3"}, {"size": "3"}, {"size": "64"}, {"size": "32"}]}}}}}, {"name": "functional_1/tf_op_layer_Add_9/Add_9/y", "op": "Const", "attr": {"value": {"tensor": {"dtype": "DT_FLOAT", "tensorShape": {"dim": [{"size": "32"}]}}}, "dtype": {"type": "DT_FLOAT"}}}, {"name": "functional_1/tf_op_layer_ResizeBilinear_1/ResizeBilinear_1/size", "op": "Const", "attr": {"dtype": {"type": "DT_INT32"}, "value": {"tensor": {"dtype": "DT_INT32", "tensorShape": {"dim": [{"size": "2"}]}}}}}, {"name": "functional_1/conv2d_4/Conv2D/ReadVariableOp/resource", "op": "Const", "attr": {"dtype": {"type": "DT_FLOAT"}, "value": {"tensor": {"dtype": "DT_FLOAT", "tensorShape": {"dim": [{"size": "3"}, {"size": "3"}, {"size": "32"}, {"size": "32"}]}}}}}, {"name": "functional_1/tf_op_layer_Add_4/Add_4/y", "op": "Const", "attr": {"dtype": {"type": "DT_FLOAT"}, "value": {"tensor": {"dtype": "DT_FLOAT", "tensorShape": {"dim": [{"size": "32"}]}}}}}, {"name": "functional_1/tf_op_layer_concat_2/concat_2/axis", "op": "Const", "attr": {"value": {"tensor": {"dtype": "DT_INT32", "tensorShape": {}}}, "dtype": {"type": "DT_INT32"}}}, {"name": "functional_1/conv2d_10/Conv2D/ReadVariableOp/resource", "op": "Const", "attr": {"value": {"tensor": {"dtype": "DT_FLOAT", "tensorShape": {"dim": [{"size": "3"}, {"size": "3"}, {"size": "64"}, {"size": "32"}]}}}, "dtype": {"type": "DT_FLOAT"}}}, {"name": "functional_1/tf_op_layer_Add_10/Add_10/y", "op": "Const", "attr": {"dtype": {"type": "DT_FLOAT"}, "value": {"tensor": {"dtype": "DT_FLOAT", "tensorShape": {"dim": [{"size": "32"}]}}}}}, {"name": "functional_1/tf_op_layer_ResizeBilinear_2/ResizeBilinear_2/size", "op": "Const", "attr": {"dtype": {"type": "DT_INT32"}, "value": {"tensor": {"dtype": "DT_INT32", "tensorShape": {"dim": [{"size": "2"}]}}}}}, {"name": "functional_1/conv2d_3/Conv2D/ReadVariableOp/resource", "op": "Const", "attr": {"dtype": {"type": "DT_FLOAT"}, "value": {"tensor": {"dtype": "DT_FLOAT", "tensorShape": {"dim": [{"size": "3"}, {"size": "3"}, {"size": "32"}, {"size": "32"}]}}}}}, {"name": "functional_1/tf_op_layer_Add_3/Add_3/y", "op": "Const", "attr": {"value": {"tensor": {"dtype": "DT_FLOAT", "tensorShape": {"dim": [{"size": "32"}]}}}, "dtype": {"type": "DT_FLOAT"}}}, {"name": "functional_1/tf_op_layer_concat_3/concat_3/axis", "op": "Const", "attr": {"value": {"tensor": {"dtype": "DT_INT32", "tensorShape": {}}}, "dtype": {"type": "DT_INT32"}}}, {"name": "functional_1/conv2d_11/Conv2D/ReadVariableOp/resource", "op": "Const", "attr": {"value": {"tensor": {"dtype": "DT_FLOAT", "tensorShape": {"dim": [{"size": "3"}, {"size": "3"}, {"size": "64"}, {"size": "32"}]}}}, "dtype": {"type": "DT_FLOAT"}}}, {"name": "functional_1/tf_op_layer_Add_11/Add_11/y", "op": "Const", "attr": {"dtype": {"type": "DT_FLOAT"}, "value": {"tensor": {"dtype": "DT_FLOAT", "tensorShape": {"dim": [{"size": "32"}]}}}}}, {"name": "functional_1/tf_op_layer_ResizeBilinear_3/ResizeBilinear_3/size", "op": "Const", "attr": {"value": {"tensor": {"dtype": "DT_INT32", "tensorShape": {"dim": [{"size": "2"}]}}}, "dtype": {"type": "DT_INT32"}}}, {"name": "functional_1/conv2d_2/Conv2D/ReadVariableOp/resource", "op": "Const", "attr": {"value": {"tensor": {"dtype": "DT_FLOAT", "tensorShape": {"dim": [{"size": "3"}, {"size": "3"}, {"size": "32"}, {"size": "32"}]}}}, "dtype": {"type": "DT_FLOAT"}}}, {"name": "functional_1/tf_op_layer_Add_2/Add_2/y", "op": "Const", "attr": {"value": {"tensor": {"dtype": "DT_FLOAT", "tensorShape": {"dim": [{"size": "32"}]}}}, "dtype": {"type": "DT_FLOAT"}}}, {"name": "functional_1/tf_op_layer_concat_4/concat_4/axis", "op": "Const", "attr": {"dtype": {"type": "DT_INT32"}, "value": {"tensor": {"dtype": "DT_INT32", "tensorShape": {}}}}}, {"name": "functional_1/conv2d_12/Conv2D/ReadVariableOp/resource", "op": "Const", "attr": {"value": {"tensor": {"dtype": "DT_FLOAT", "tensorShape": {"dim": [{"size": "3"}, {"size": "3"}, {"size": "64"}, {"size": "32"}]}}}, "dtype": {"type": "DT_FLOAT"}}}, {"name": "functional_1/tf_op_layer_Add_12/Add_12/y", "op": "Const", "attr": {"value": {"tensor": {"dtype": "DT_FLOAT", "tensorShape": {"dim": [{"size": "32"}]}}}, "dtype": {"type": "DT_FLOAT"}}}, {"name": "functional_1/tf_op_layer_ResizeBilinear_4/ResizeBilinear_4/size", "op": "Const", "attr": {"dtype": {"type": "DT_INT32"}, "value": {"tensor": {"dtype": "DT_INT32", "tensorShape": {"dim": [{"size": "2"}]}}}}}, {"name": "functional_1/conv2d_1/Conv2D/ReadVariableOp/resource", "op": "Const", "attr": {"dtype": {"type": "DT_FLOAT"}, "value": {"tensor": {"dtype": "DT_FLOAT", "tensorShape": {"dim": [{"size": "3"}, {"size": "3"}, {"size": "64"}, {"size": "32"}]}}}}}, {"name": "functional_1/tf_op_layer_Add_1/Add_1/y", "op": "Const", "attr": {"dtype": {"type": "DT_FLOAT"}, "value": {"tensor": {"dtype": "DT_FLOAT", "tensorShape": {"dim": [{"size": "32"}]}}}}}, {"name": "functional_1/tf_op_layer_concat_5/concat_5/axis", "op": "Const", "attr": {"dtype": {"type": "DT_INT32"}, "value": {"tensor": {"dtype": "DT_INT32", "tensorShape": {}}}}}, {"name": "functional_1/conv2d_13/Conv2D/ReadVariableOp/resource", "op": "Const", "attr": {"value": {"tensor": {"dtype": "DT_FLOAT", "tensorShape": {"dim": [{"size": "3"}, {"size": "3"}, {"size": "64"}, {"size": "64"}]}}}, "dtype": {"type": "DT_FLOAT"}}}, {"name": "functional_1/tf_op_layer_Add_13/Add_13/y", "op": "Const", "attr": {"value": {"tensor": {"dtype": "DT_FLOAT", "tensorShape": {"dim": [{"size": "64"}]}}}, "dtype": {"type": "DT_FLOAT"}}}, {"name": "functional_1/conv2d/Conv2D/ReadVariableOp/resource", "op": "Const", "attr": {"dtype": {"type": "DT_FLOAT"}, "value": {"tensor": {"dtype": "DT_FLOAT", "tensorShape": {"dim": [{"size": "3"}, {"size": "3"}, {"size": "3"}, {"size": "64"}]}}}}}, {"name": "functional_1/tf_op_layer_Add/Add/y", "op": "Const", "attr": {"value": {"tensor": {"dtype": "DT_FLOAT", "tensorShape": {"dim": [{"size": "64"}]}}}, "dtype": {"type": "DT_FLOAT"}}}, {"name": "functional_1/conv2d_14/Conv2D/ReadVariableOp/resource", "op": "Const", "attr": {"value": {"tensor": {"dtype": "DT_FLOAT", "tensorShape": {"dim": [{"size": "3"}, {"size": "3"}, {"size": "64"}, {"size": "128"}]}}}, "dtype": {"type": "DT_FLOAT"}}}, {"name": "functional_1/tf_op_layer_Add_15/Add_15/y", "op": "Const", "attr": {"dtype": {"type": "DT_FLOAT"}, "value": {"tensor": {"dtype": "DT_FLOAT", "tensorShape": {"dim": [{"size": "128"}]}}}}}, {"name": "functional_1/conv2d_26/Conv2D/ReadVariableOp/resource", "op": "Const", "attr": {"value": {"tensor": {"dtype": "DT_FLOAT", "tensorShape": {"dim": [{"size": "3"}, {"size": "3"}, {"size": "128"}, {"size": "256"}]}}}, "dtype": {"type": "DT_FLOAT"}}}, {"name": "functional_1/tf_op_layer_Add_28/Add_28/y", "op": "Const", "attr": {"value": {"tensor": {"dtype": "DT_FLOAT", "tensorShape": {"dim": [{"size": "256"}]}}}, "dtype": {"type": "DT_FLOAT"}}}, {"name": "functional_1/conv2d_36/Conv2D/ReadVariableOp/resource", "op": "Const", "attr": {"value": {"tensor": {"dtype": "DT_FLOAT", "tensorShape": {"dim": [{"size": "3"}, {"size": "3"}, {"size": "256"}, {"size": "512"}]}}}, "dtype": {"type": "DT_FLOAT"}}}, {"name": "functional_1/tf_op_layer_Add_39/Add_39/y", "op": "Const", "attr": {"dtype": {"type": "DT_FLOAT"}, "value": {"tensor": {"dtype": "DT_FLOAT", "tensorShape": {"dim": [{"size": "512"}]}}}}}, {"name": "functional_1/conv2d_44/Conv2D/ReadVariableOp/resource", "op": "Const", "attr": {"value": {"tensor": {"dtype": "DT_FLOAT", "tensorShape": {"dim": [{"size": "3"}, {"size": "3"}, {"size": "512"}, {"size": "512"}]}}}, "dtype": {"type": "DT_FLOAT"}}}, {"name": "functional_1/tf_op_layer_Add_48/Add_48/y", "op": "Const", "attr": {"value": {"tensor": {"dtype": "DT_FLOAT", "tensorShape": {"dim": [{"size": "512"}]}}}, "dtype": {"type": "DT_FLOAT"}}}, {"name": "functional_1/conv2d_52/Conv2D/ReadVariableOp/resource", "op": "Const", "attr": {"dtype": {"type": "DT_FLOAT"}, "value": {"tensor": {"dtype": "DT_FLOAT", "tensorShape": {"dim": [{"size": "3"}, {"size": "3"}, {"size": "512"}, {"size": "512"}]}}}}}, {"name": "functional_1/tf_op_layer_Add_57/Add_57/y", "op": "Const", "attr": {"dtype": {"type": "DT_FLOAT"}, "value": {"tensor": {"dtype": "DT_FLOAT", "tensorShape": {"dim": [{"size": "512"}]}}}}}, {"name": "functional_1/conv2d_117/Conv2D/ReadVariableOp/resource", "op": "Const", "attr": {"value": {"tensor": {"dtype": "DT_FLOAT", "tensorShape": {"dim": [{"size": "3"}, {"size": "3"}, {"size": "512"}, {"size": "1"}]}}}, "dtype": {"type": "DT_FLOAT"}}}, {"name": "functional_1/tf_op_layer_Add_128/Add_128/y", "op": "Const", "attr": {"value": {"tensor": {"dtype": "DT_FLOAT", "tensorShape": {"dim": [{"size": "1"}]}}}, "dtype": {"type": "DT_FLOAT"}}}, {"name": "functional_1/tf_op_layer_ResizeBilinear_37/ResizeBilinear_37/size", "op": "Const", "attr": {"value": {"tensor": {"dtype": "DT_INT32", "tensorShape": {"dim": [{"size": "2"}]}}}, "dtype": {"type": "DT_INT32"}}}, {"name": "inputs", "op": "Placeholder", "attr": {"dtype": {"type": "DT_FLOAT"}, "shape": {"shape": {"dim": [{"size": "1"}, {"size": "512"}, {"size": "512"}, {"size": "3"}]}}}}, {"name": "functional_1/conv2d/Conv2D", "op": "Conv2D", "input": ["inputs", "functional_1/conv2d/Conv2D/ReadVariableOp/resource"], "device": "/device:CPU:0", "attr": {"data_format": {"s": "TkhXQw=="}, "strides": {"list": {"i": ["1", "1", "1", "1"]}}, "use_cudnn_on_gpu": {"b": true}, "padding": {"s": "U0FNRQ=="}, "T": {"type": "DT_FLOAT"}, "dilations": {"list": {"i": ["1", "1", "1", "1"]}}, "explicit_paddings": {"list": {}}}}, {"name": "functional_1/tf_op_layer_Add/Add", "op": "Add", "input": ["functional_1/conv2d/Conv2D", "functional_1/tf_op_layer_Add/Add/y"], "attr": {"_cloned": {"b": true}, "T": {"type": "DT_FLOAT"}}}, {"name": "functional_1/tf_op_layer_Relu/Relu", "op": "Relu", "input": ["functional_1/tf_op_layer_Add/Add"], "attr": {"_cloned": {"b": true}, "T": {"type": "DT_FLOAT"}}}, {"name": "functional_1/conv2d_1/Conv2D", "op": "Conv2D", "input": ["functional_1/tf_op_layer_Relu/Relu", "functional_1/conv2d_1/Conv2D/ReadVariableOp/resource"], "device": "/device:CPU:0", "attr": {"explicit_paddings": {"list": {}}, "dilations": {"list": {"i": ["1", "1", "1", "1"]}}, "strides": {"list": {"i": ["1", "1", "1", "1"]}}, "use_cudnn_on_gpu": {"b": true}, "T": {"type": "DT_FLOAT"}, "padding": {"s": "U0FNRQ=="}, "data_format": {"s": "TkhXQw=="}}}, {"name": "functional_1/tf_op_layer_Add_1/Add_1", "op": "Add", "input": ["functional_1/conv2d_1/Conv2D", "functional_1/tf_op_layer_Add_1/Add_1/y"], "attr": {"T": {"type": "DT_FLOAT"}, "_cloned": {"b": true}}}, {"name": "functional_1/tf_op_layer_Relu_1/Relu_1", "op": "Relu", "input": ["functional_1/tf_op_layer_Add_1/Add_1"], "attr": {"_cloned": {"b": true}, "T": {"type": "DT_FLOAT"}}}, {"name": "functional_1/tf_op_layer_MaxPool/MaxPool", "op": "MaxPool", "input": ["functional_1/tf_op_layer_Relu_1/Relu_1"], "attr": {"ksize": {"list": {"i": ["1", "2", "2", "1"]}}, "padding": {"s": "U0FNRQ=="}, "T": {"type": "DT_FLOAT"}, "data_format": {"s": "TkhXQw=="}, "_cloned": {"b": true}, "strides": {"list": {"i": ["1", "2", "2", "1"]}}}}, {"name": "functional_1/conv2d_2/Conv2D", "op": "Conv2D", "input": ["functional_1/tf_op_layer_MaxPool/MaxPool", "functional_1/conv2d_2/Conv2D/ReadVariableOp/resource"], "device": "/device:CPU:0", "attr": {"data_format": {"s": "TkhXQw=="}, "padding": {"s": "U0FNRQ=="}, "use_cudnn_on_gpu": {"b": true}, "explicit_paddings": {"list": {}}, "T": {"type": "DT_FLOAT"}, "dilations": {"list": {"i": ["1", "1", "1", "1"]}}, "strides": {"list": {"i": ["1", "1", "1", "1"]}}}}, {"name": "functional_1/tf_op_layer_Add_2/Add_2", "op": "Add", "input": ["functional_1/conv2d_2/Conv2D", "functional_1/tf_op_layer_Add_2/Add_2/y"], "attr": {"_cloned": {"b": true}, "T": {"type": "DT_FLOAT"}}}, {"name": "functional_1/tf_op_layer_Relu_2/Relu_2", "op": "Relu", "input": ["functional_1/tf_op_layer_Add_2/Add_2"], "attr": {"_cloned": {"b": true}, "T": {"type": "DT_FLOAT"}}}, {"name": "functional_1/tf_op_layer_MaxPool_1/MaxPool_1", "op": "MaxPool", "input": ["functional_1/tf_op_layer_Relu_2/Relu_2"], "attr": {"T": {"type": "DT_FLOAT"}, "data_format": {"s": "TkhXQw=="}, "ksize": {"list": {"i": ["1", "2", "2", "1"]}}, "_cloned": {"b": true}, "strides": {"list": {"i": ["1", "2", "2", "1"]}}, "padding": {"s": "U0FNRQ=="}}}, {"name": "functional_1/conv2d_3/Conv2D", "op": "Conv2D", "input": ["functional_1/tf_op_layer_MaxPool_1/MaxPool_1", "functional_1/conv2d_3/Conv2D/ReadVariableOp/resource"], "device": "/device:CPU:0", "attr": {"dilations": {"list": {"i": ["1", "1", "1", "1"]}}, "use_cudnn_on_gpu": {"b": true}, "T": {"type": "DT_FLOAT"}, "data_format": {"s": "TkhXQw=="}, "strides": {"list": {"i": ["1", "1", "1", "1"]}}, "explicit_paddings": {"list": {}}, "padding": {"s": "U0FNRQ=="}}}, {"name": "functional_1/tf_op_layer_Add_3/Add_3", "op": "Add", "input": ["functional_1/conv2d_3/Conv2D", "functional_1/tf_op_layer_Add_3/Add_3/y"], "attr": {"_cloned": {"b": true}, "T": {"type": "DT_FLOAT"}}}, {"name": "functional_1/tf_op_layer_Relu_3/Relu_3", "op": "Relu", "input": ["functional_1/tf_op_layer_Add_3/Add_3"], "attr": {"_cloned": {"b": true}, "T": {"type": "DT_FLOAT"}}}, {"name": "functional_1/tf_op_layer_MaxPool_2/MaxPool_2", "op": "MaxPool", "input": ["functional_1/tf_op_layer_Relu_3/Relu_3"], "attr": {"padding": {"s": "U0FNRQ=="}, "ksize": {"list": {"i": ["1", "2", "2", "1"]}}, "T": {"type": "DT_FLOAT"}, "_cloned": {"b": true}, "strides": {"list": {"i": ["1", "2", "2", "1"]}}, "data_format": {"s": "TkhXQw=="}}}, {"name": "functional_1/conv2d_4/Conv2D", "op": "Conv2D", "input": ["functional_1/tf_op_layer_MaxPool_2/MaxPool_2", "functional_1/conv2d_4/Conv2D/ReadVariableOp/resource"], "device": "/device:CPU:0", "attr": {"dilations": {"list": {"i": ["1", "1", "1", "1"]}}, "data_format": {"s": "TkhXQw=="}, "T": {"type": "DT_FLOAT"}, "padding": {"s": "U0FNRQ=="}, "use_cudnn_on_gpu": {"b": true}, "strides": {"list": {"i": ["1", "1", "1", "1"]}}, "explicit_paddings": {"list": {}}}}, {"name": "functional_1/tf_op_layer_Add_4/Add_4", "op": "Add", "input": ["functional_1/conv2d_4/Conv2D", "functional_1/tf_op_layer_Add_4/Add_4/y"], "attr": {"_cloned": {"b": true}, "T": {"type": "DT_FLOAT"}}}, {"name": "functional_1/tf_op_layer_Relu_4/Relu_4", "op": "Relu", "input": ["functional_1/tf_op_layer_Add_4/Add_4"], "attr": {"_cloned": {"b": true}, "T": {"type": "DT_FLOAT"}}}, {"name": "functional_1/tf_op_layer_MaxPool_3/MaxPool_3", "op": "MaxPool", "input": ["functional_1/tf_op_layer_Relu_4/Relu_4"], "attr": {"ksize": {"list": {"i": ["1", "2", "2", "1"]}}, "data_format": {"s": "TkhXQw=="}, "strides": {"list": {"i": ["1", "2", "2", "1"]}}, "padding": {"s": "U0FNRQ=="}, "T": {"type": "DT_FLOAT"}, "_cloned": {"b": true}}}, {"name": "functional_1/conv2d_5/Conv2D", "op": "Conv2D", "input": ["functional_1/tf_op_layer_MaxPool_3/MaxPool_3", "functional_1/conv2d_5/Conv2D/ReadVariableOp/resource"], "device": "/device:CPU:0", "attr": {"data_format": {"s": "TkhXQw=="}, "use_cudnn_on_gpu": {"b": true}, "padding": {"s": "U0FNRQ=="}, "strides": {"list": {"i": ["1", "1", "1", "1"]}}, "explicit_paddings": {"list": {}}, "T": {"type": "DT_FLOAT"}, "dilations": {"list": {"i": ["1", "1", "1", "1"]}}}}, {"name": "functional_1/tf_op_layer_Add_5/Add_5", "op": "Add", "input": ["functional_1/conv2d_5/Conv2D", "functional_1/tf_op_layer_Add_5/Add_5/y"], "attr": {"_cloned": {"b": true}, "T": {"type": "DT_FLOAT"}}}, {"name": "functional_1/tf_op_layer_Relu_5/Relu_5", "op": "Relu", "input": ["functional_1/tf_op_layer_Add_5/Add_5"], "attr": {"T": {"type": "DT_FLOAT"}, "_cloned": {"b": true}}}, {"name": "functional_1/tf_op_layer_MaxPool_4/MaxPool_4", "op": "MaxPool", "input": ["functional_1/tf_op_layer_Relu_5/Relu_5"], "attr": {"data_format": {"s": "TkhXQw=="}, "ksize": {"list": {"i": ["1", "2", "2", "1"]}}, "strides": {"list": {"i": ["1", "2", "2", "1"]}}, "T": {"type": "DT_FLOAT"}, "_cloned": {"b": true}, "padding": {"s": "U0FNRQ=="}}}, {"name": "functional_1/conv2d_6/Conv2D", "op": "Conv2D", "input": ["functional_1/tf_op_layer_MaxPool_4/MaxPool_4", "functional_1/conv2d_6/Conv2D/ReadVariableOp/resource"], "device": "/device:CPU:0", "attr": {"T": {"type": "DT_FLOAT"}, "strides": {"list": {"i": ["1", "1", "1", "1"]}}, "dilations": {"list": {"i": ["1", "1", "1", "1"]}}, "padding": {"s": "U0FNRQ=="}, "use_cudnn_on_gpu": {"b": true}, "explicit_paddings": {"list": {}}, "data_format": {"s": "TkhXQw=="}}}, {"name": "functional_1/tf_op_layer_Add_6/Add_6", "op": "Add", "input": ["functional_1/conv2d_6/Conv2D", "functional_1/tf_op_layer_Add_6/Add_6/y"], "attr": {"_cloned": {"b": true}, "T": {"type": "DT_FLOAT"}}}, {"name": "functional_1/tf_op_layer_Relu_6/Relu_6", "op": "Relu", "input": ["functional_1/tf_op_layer_Add_6/Add_6"], "attr": {"_cloned": {"b": true}, "T": {"type": "DT_FLOAT"}}}, {"name": "functional_1/conv2d_7/Conv2D/SpaceToBatchND", "op": "SpaceToBatchND", "input": ["functional_1/tf_op_layer_Relu_6/Relu_6", "functional_1/conv2d_7/Conv2D/SpaceToBatchND/block_shape", "functional_1/conv2d_7/Conv2D/SpaceToBatchND/paddings"], "attr": {"T": {"type": "DT_FLOAT"}, "Tblock_shape": {"type": "DT_INT32"}, "Tpaddings": {"type": "DT_INT32"}}}, {"name": "functional_1/conv2d_7/Conv2D", "op": "Conv2D", "input": ["functional_1/conv2d_7/Conv2D/SpaceToBatchND", "functional_1/conv2d_7/Conv2D/ReadVariableOp/resource"], "device": "/device:CPU:0", "attr": {"data_format": {"s": "TkhXQw=="}, "T": {"type": "DT_FLOAT"}, "padding": {"s": "VkFMSUQ="}, "explicit_paddings": {"list": {}}, "strides": {"list": {"i": ["1", "1", "1", "1"]}}, "dilations": {"list": {"i": ["1", "1", "1", "1"]}}, "use_cudnn_on_gpu": {"b": true}}}, {"name": "functional_1/conv2d_7/Conv2D/BatchToSpaceND", "op": "BatchToSpaceND", "input": ["functional_1/conv2d_7/Conv2D", "functional_1/conv2d_7/Conv2D/BatchToSpaceND/block_shape", "functional_1/conv2d_7/Conv2D/BatchToSpaceND/crops"], "attr": {"T": {"type": "DT_FLOAT"}, "Tcrops": {"type": "DT_INT32"}, "Tblock_shape": {"type": "DT_INT32"}}}, {"name": "functional_1/tf_op_layer_Add_7/Add_7", "op": "Add", "input": ["functional_1/conv2d_7/Conv2D/BatchToSpaceND", "functional_1/tf_op_layer_Add_7/Add_7/y"], "attr": {"_cloned": {"b": true}, "T": {"type": "DT_FLOAT"}}}, {"name": "functional_1/tf_op_layer_Relu_7/Relu_7", "op": "Relu", "input": ["functional_1/tf_op_layer_Add_7/Add_7"], "attr": {"T": {"type": "DT_FLOAT"}, "_cloned": {"b": true}}}, {"name": "functional_1/tf_op_layer_concat/concat", "op": "ConcatV2", "input": ["functional_1/tf_op_layer_Relu_7/Relu_7", "functional_1/tf_op_layer_Relu_6/Relu_6", "functional_1/tf_op_layer_concat/concat/axis"], "attr": {"_cloned": {"b": true}, "Tidx": {"type": "DT_INT32"}, "T": {"type": "DT_FLOAT"}, "N": {"i": "2"}}}, {"name": "functional_1/conv2d_8/Conv2D", "op": "Conv2D", "input": ["functional_1/tf_op_layer_concat/concat", "functional_1/conv2d_8/Conv2D/ReadVariableOp/resource"], "device": "/device:CPU:0", "attr": {"explicit_paddings": {"list": {}}, "dilations": {"list": {"i": ["1", "1", "1", "1"]}}, "padding": {"s": "U0FNRQ=="}, "data_format": {"s": "TkhXQw=="}, "strides": {"list": {"i": ["1", "1", "1", "1"]}}, "use_cudnn_on_gpu": {"b": true}, "T": {"type": "DT_FLOAT"}}}, {"name": "functional_1/tf_op_layer_Add_8/Add_8", "op": "Add", "input": ["functional_1/conv2d_8/Conv2D", "functional_1/tf_op_layer_Add_8/Add_8/y"], "attr": {"T": {"type": "DT_FLOAT"}, "_cloned": {"b": true}}}, {"name": "functional_1/tf_op_layer_Relu_8/Relu_8", "op": "Relu", "input": ["functional_1/tf_op_layer_Add_8/Add_8"], "attr": {"T": {"type": "DT_FLOAT"}, "_cloned": {"b": true}}}, {"name": "functional_1/tf_op_layer_ResizeBilinear/ResizeBilinear", "op": "ResizeBilinear", "input": ["functional_1/tf_op_layer_Relu_8/Relu_8", "functional_1/tf_op_layer_ResizeBilinear/ResizeBilinear/size"], "attr": {"T": {"type": "DT_FLOAT"}, "half_pixel_centers": {"b": true}, "align_corners": {"b": false}, "_cloned": {"b": true}}}, {"name": "functional_1/tf_op_layer_concat_1/concat_1", "op": "ConcatV2", "input": ["functional_1/tf_op_layer_ResizeBilinear/ResizeBilinear", "functional_1/tf_op_layer_Relu_5/Relu_5", "functional_1/tf_op_layer_concat_1/concat_1/axis"], "attr": {"_cloned": {"b": true}, "T": {"type": "DT_FLOAT"}, "N": {"i": "2"}, "Tidx": {"type": "DT_INT32"}}}, {"name": "functional_1/conv2d_9/Conv2D", "op": "Conv2D", "input": ["functional_1/tf_op_layer_concat_1/concat_1", "functional_1/conv2d_9/Conv2D/ReadVariableOp/resource"], "device": "/device:CPU:0", "attr": {"dilations": {"list": {"i": ["1", "1", "1", "1"]}}, "data_format": {"s": "TkhXQw=="}, "padding": {"s": "U0FNRQ=="}, "use_cudnn_on_gpu": {"b": true}, "strides": {"list": {"i": ["1", "1", "1", "1"]}}, "explicit_paddings": {"list": {}}, "T": {"type": "DT_FLOAT"}}}, {"name": "functional_1/tf_op_layer_Add_9/Add_9", "op": "Add", "input": ["functional_1/conv2d_9/Conv2D", "functional_1/tf_op_layer_Add_9/Add_9/y"], "attr": {"_cloned": {"b": true}, "T": {"type": "DT_FLOAT"}}}, {"name": "functional_1/tf_op_layer_Relu_9/Relu_9", "op": "Relu", "input": ["functional_1/tf_op_layer_Add_9/Add_9"], "attr": {"T": {"type": "DT_FLOAT"}, "_cloned": {"b": true}}}, {"name": "functional_1/tf_op_layer_ResizeBilinear_1/ResizeBilinear_1", "op": "ResizeBilinear", "input": ["functional_1/tf_op_layer_Relu_9/Relu_9", "functional_1/tf_op_layer_ResizeBilinear_1/ResizeBilinear_1/size"], "attr": {"_cloned": {"b": true}, "align_corners": {"b": false}, "half_pixel_centers": {"b": true}, "T": {"type": "DT_FLOAT"}}}, {"name": "functional_1/tf_op_layer_concat_2/concat_2", "op": "ConcatV2", "input": ["functional_1/tf_op_layer_ResizeBilinear_1/ResizeBilinear_1", "functional_1/tf_op_layer_Relu_4/Relu_4", "functional_1/tf_op_layer_concat_2/concat_2/axis"], "attr": {"_cloned": {"b": true}, "T": {"type": "DT_FLOAT"}, "N": {"i": "2"}, "Tidx": {"type": "DT_INT32"}}}, {"name": "functional_1/conv2d_10/Conv2D", "op": "Conv2D", "input": ["functional_1/tf_op_layer_concat_2/concat_2", "functional_1/conv2d_10/Conv2D/ReadVariableOp/resource"], "device": "/device:CPU:0", "attr": {"strides": {"list": {"i": ["1", "1", "1", "1"]}}, "explicit_paddings": {"list": {}}, "dilations": {"list": {"i": ["1", "1", "1", "1"]}}, "use_cudnn_on_gpu": {"b": true}, "T": {"type": "DT_FLOAT"}, "data_format": {"s": "TkhXQw=="}, "padding": {"s": "U0FNRQ=="}}}, {"name": "functional_1/tf_op_layer_Add_10/Add_10", "op": "Add", "input": ["functional_1/conv2d_10/Conv2D", "functional_1/tf_op_layer_Add_10/Add_10/y"], "attr": {"_cloned": {"b": true}, "T": {"type": "DT_FLOAT"}}}, {"name": "functional_1/tf_op_layer_Relu_10/Relu_10", "op": "Relu", "input": ["functional_1/tf_op_layer_Add_10/Add_10"], "attr": {"T": {"type": "DT_FLOAT"}, "_cloned": {"b": true}}}, {"name": "functional_1/tf_op_layer_ResizeBilinear_2/ResizeBilinear_2", "op": "ResizeBilinear", "input": ["functional_1/tf_op_layer_Relu_10/Relu_10", "functional_1/tf_op_layer_ResizeBilinear_2/ResizeBilinear_2/size"], "attr": {"_cloned": {"b": true}, "T": {"type": "DT_FLOAT"}, "align_corners": {"b": false}, "half_pixel_centers": {"b": true}}}, {"name": "functional_1/tf_op_layer_concat_3/concat_3", "op": "ConcatV2", "input": ["functional_1/tf_op_layer_ResizeBilinear_2/ResizeBilinear_2", "functional_1/tf_op_layer_Relu_3/Relu_3", "functional_1/tf_op_layer_concat_3/concat_3/axis"], "attr": {"T": {"type": "DT_FLOAT"}, "Tidx": {"type": "DT_INT32"}, "_cloned": {"b": true}, "N": {"i": "2"}}}, {"name": "functional_1/conv2d_11/Conv2D", "op": "Conv2D", "input": ["functional_1/tf_op_layer_concat_3/concat_3", "functional_1/conv2d_11/Conv2D/ReadVariableOp/resource"], "device": "/device:CPU:0", "attr": {"padding": {"s": "U0FNRQ=="}, "use_cudnn_on_gpu": {"b": true}, "explicit_paddings": {"list": {}}, "T": {"type": "DT_FLOAT"}, "strides": {"list": {"i": ["1", "1", "1", "1"]}}, "dilations": {"list": {"i": ["1", "1", "1", "1"]}}, "data_format": {"s": "TkhXQw=="}}}, {"name": "functional_1/tf_op_layer_Add_11/Add_11", "op": "Add", "input": ["functional_1/conv2d_11/Conv2D", "functional_1/tf_op_layer_Add_11/Add_11/y"], "attr": {"T": {"type": "DT_FLOAT"}, "_cloned": {"b": true}}}, {"name": "functional_1/tf_op_layer_Relu_11/Relu_11", "op": "Relu", "input": ["functional_1/tf_op_layer_Add_11/Add_11"], "attr": {"_cloned": {"b": true}, "T": {"type": "DT_FLOAT"}}}, {"name": "functional_1/tf_op_layer_ResizeBilinear_3/ResizeBilinear_3", "op": "ResizeBilinear", "input": ["functional_1/tf_op_layer_Relu_11/Relu_11", "functional_1/tf_op_layer_ResizeBilinear_3/ResizeBilinear_3/size"], "attr": {"T": {"type": "DT_FLOAT"}, "_cloned": {"b": true}, "half_pixel_centers": {"b": true}, "align_corners": {"b": false}}}, {"name": "functional_1/tf_op_layer_concat_4/concat_4", "op": "ConcatV2", "input": ["functional_1/tf_op_layer_ResizeBilinear_3/ResizeBilinear_3", "functional_1/tf_op_layer_Relu_2/Relu_2", "functional_1/tf_op_layer_concat_4/concat_4/axis"], "attr": {"N": {"i": "2"}, "T": {"type": "DT_FLOAT"}, "_cloned": {"b": true}, "Tidx": {"type": "DT_INT32"}}}, {"name": "functional_1/conv2d_12/Conv2D", "op": "Conv2D", "input": ["functional_1/tf_op_layer_concat_4/concat_4", "functional_1/conv2d_12/Conv2D/ReadVariableOp/resource"], "device": "/device:CPU:0", "attr": {"strides": {"list": {"i": ["1", "1", "1", "1"]}}, "padding": {"s": "U0FNRQ=="}, "dilations": {"list": {"i": ["1", "1", "1", "1"]}}, "data_format": {"s": "TkhXQw=="}, "T": {"type": "DT_FLOAT"}, "use_cudnn_on_gpu": {"b": true}, "explicit_paddings": {"list": {}}}}, {"name": "functional_1/tf_op_layer_Add_12/Add_12", "op": "Add", "input": ["functional_1/conv2d_12/Conv2D", "functional_1/tf_op_layer_Add_12/Add_12/y"], "attr": {"_cloned": {"b": true}, "T": {"type": "DT_FLOAT"}}}, {"name": "functional_1/tf_op_layer_Relu_12/Relu_12", "op": "Relu", "input": ["functional_1/tf_op_layer_Add_12/Add_12"], "attr": {"T": {"type": "DT_FLOAT"}, "_cloned": {"b": true}}}, {"name": "functional_1/tf_op_layer_ResizeBilinear_4/ResizeBilinear_4", "op": "ResizeBilinear", "input": ["functional_1/tf_op_layer_Relu_12/Relu_12", "functional_1/tf_op_layer_ResizeBilinear_4/ResizeBilinear_4/size"], "attr": {"half_pixel_centers": {"b": true}, "_cloned": {"b": true}, "align_corners": {"b": false}, "T": {"type": "DT_FLOAT"}}}, {"name": "functional_1/tf_op_layer_concat_5/concat_5", "op": "ConcatV2", "input": ["functional_1/tf_op_layer_ResizeBilinear_4/ResizeBilinear_4", "functional_1/tf_op_layer_Relu_1/Relu_1", "functional_1/tf_op_layer_concat_5/concat_5/axis"], "attr": {"_cloned": {"b": true}, "Tidx": {"type": "DT_INT32"}, "N": {"i": "2"}, "T": {"type": "DT_FLOAT"}}}, {"name": "functional_1/conv2d_13/Conv2D", "op": "Conv2D", "input": ["functional_1/tf_op_layer_concat_5/concat_5", "functional_1/conv2d_13/Conv2D/ReadVariableOp/resource"], "device": "/device:CPU:0", "attr": {"T": {"type": "DT_FLOAT"}, "dilations": {"list": {"i": ["1", "1", "1", "1"]}}, "data_format": {"s": "TkhXQw=="}, "explicit_paddings": {"list": {}}, "padding": {"s": "U0FNRQ=="}, "use_cudnn_on_gpu": {"b": true}, "strides": {"list": {"i": ["1", "1", "1", "1"]}}}}, {"name": "functional_1/tf_op_layer_Add_13/Add_13", "op": "Add", "input": ["functional_1/conv2d_13/Conv2D", "functional_1/tf_op_layer_Add_13/Add_13/y"], "attr": {"_cloned": {"b": true}, "T": {"type": "DT_FLOAT"}}}, {"name": "functional_1/tf_op_layer_Relu_13/Relu_13", "op": "Relu", "input": ["functional_1/tf_op_layer_Add_13/Add_13"], "attr": {"T": {"type": "DT_FLOAT"}, "_cloned": {"b": true}}}, {"name": "functional_1/tf_op_layer_Add_14/Add_14", "op": "Add", "input": ["functional_1/tf_op_layer_Relu_13/Relu_13", "functional_1/tf_op_layer_Relu/Relu"], "attr": {"T": {"type": "DT_FLOAT"}, "_cloned": {"b": true}}}, {"name": "functional_1/tf_op_layer_MaxPool_5/MaxPool_5", "op": "MaxPool", "input": ["functional_1/tf_op_layer_Add_14/Add_14"], "attr": {"ksize": {"list": {"i": ["1", "2", "2", "1"]}}, "strides": {"list": {"i": ["1", "2", "2", "1"]}}, "data_format": {"s": "TkhXQw=="}, "_cloned": {"b": true}, "padding": {"s": "U0FNRQ=="}, "T": {"type": "DT_FLOAT"}}}, {"name": "functional_1/conv2d_14/Conv2D", "op": "Conv2D", "input": ["functional_1/tf_op_layer_MaxPool_5/MaxPool_5", "functional_1/conv2d_14/Conv2D/ReadVariableOp/resource"], "device": "/device:CPU:0", "attr": {"padding": {"s": "U0FNRQ=="}, "strides": {"list": {"i": ["1", "1", "1", "1"]}}, "dilations": {"list": {"i": ["1", "1", "1", "1"]}}, "explicit_paddings": {"list": {}}, "use_cudnn_on_gpu": {"b": true}, "data_format": {"s": "TkhXQw=="}, "T": {"type": "DT_FLOAT"}}}, {"name": "functional_1/tf_op_layer_Add_15/Add_15", "op": "Add", "input": ["functional_1/conv2d_14/Conv2D", "functional_1/tf_op_layer_Add_15/Add_15/y"], "attr": {"T": {"type": "DT_FLOAT"}, "_cloned": {"b": true}}}, {"name": "functional_1/tf_op_layer_Relu_14/Relu_14", "op": "Relu", "input": ["functional_1/tf_op_layer_Add_15/Add_15"], "attr": {"_cloned": {"b": true}, "T": {"type": "DT_FLOAT"}}}, {"name": "functional_1/conv2d_15/Conv2D", "op": "Conv2D", "input": ["functional_1/tf_op_layer_Relu_14/Relu_14", "functional_1/conv2d_15/Conv2D/ReadVariableOp/resource"], "device": "/device:CPU:0", "attr": {"use_cudnn_on_gpu": {"b": true}, "data_format": {"s": "TkhXQw=="}, "explicit_paddings": {"list": {}}, "padding": {"s": "U0FNRQ=="}, "T": {"type": "DT_FLOAT"}, "dilations": {"list": {"i": ["1", "1", "1", "1"]}}, "strides": {"list": {"i": ["1", "1", "1", "1"]}}}}, {"name": "functional_1/tf_op_layer_Add_16/Add_16", "op": "Add", "input": ["functional_1/conv2d_15/Conv2D", "functional_1/tf_op_layer_Add_16/Add_16/y"], "attr": {"_cloned": {"b": true}, "T": {"type": "DT_FLOAT"}}}, {"name": "functional_1/tf_op_layer_Relu_15/Relu_15", "op": "Relu", "input": ["functional_1/tf_op_layer_Add_16/Add_16"], "attr": {"T": {"type": "DT_FLOAT"}, "_cloned": {"b": true}}}, {"name": "functional_1/tf_op_layer_MaxPool_6/MaxPool_6", "op": "MaxPool", "input": ["functional_1/tf_op_layer_Relu_15/Relu_15"], "attr": {"_cloned": {"b": true}, "data_format": {"s": "TkhXQw=="}, "ksize": {"list": {"i": ["1", "2", "2", "1"]}}, "padding": {"s": "U0FNRQ=="}, "T": {"type": "DT_FLOAT"}, "strides": {"list": {"i": ["1", "2", "2", "1"]}}}}, {"name": "functional_1/conv2d_16/Conv2D", "op": "Conv2D", "input": ["functional_1/tf_op_layer_MaxPool_6/MaxPool_6", "functional_1/conv2d_16/Conv2D/ReadVariableOp/resource"], "device": "/device:CPU:0", "attr": {"padding": {"s": "U0FNRQ=="}, "T": {"type": "DT_FLOAT"}, "strides": {"list": {"i": ["1", "1", "1", "1"]}}, "use_cudnn_on_gpu": {"b": true}, "data_format": {"s": "TkhXQw=="}, "explicit_paddings": {"list": {}}, "dilations": {"list": {"i": ["1", "1", "1", "1"]}}}}, {"name": "functional_1/tf_op_layer_Add_17/Add_17", "op": "Add", "input": ["functional_1/conv2d_16/Conv2D", "functional_1/tf_op_layer_Add_17/Add_17/y"], "attr": {"T": {"type": "DT_FLOAT"}, "_cloned": {"b": true}}}, {"name": "functional_1/tf_op_layer_Relu_16/Relu_16", "op": "Relu", "input": ["functional_1/tf_op_layer_Add_17/Add_17"], "attr": {"T": {"type": "DT_FLOAT"}, "_cloned": {"b": true}}}, {"name": "functional_1/tf_op_layer_MaxPool_7/MaxPool_7", "op": "MaxPool", "input": ["functional_1/tf_op_layer_Relu_16/Relu_16"], "attr": {"data_format": {"s": "TkhXQw=="}, "strides": {"list": {"i": ["1", "2", "2", "1"]}}, "_cloned": {"b": true}, "ksize": {"list": {"i": ["1", "2", "2", "1"]}}, "padding": {"s": "U0FNRQ=="}, "T": {"type": "DT_FLOAT"}}}, {"name": "functional_1/conv2d_17/Conv2D", "op": "Conv2D", "input": ["functional_1/tf_op_layer_MaxPool_7/MaxPool_7", "functional_1/conv2d_17/Conv2D/ReadVariableOp/resource"], "device": "/device:CPU:0", "attr": {"T": {"type": "DT_FLOAT"}, "strides": {"list": {"i": ["1", "1", "1", "1"]}}, "explicit_paddings": {"list": {}}, "data_format": {"s": "TkhXQw=="}, "padding": {"s": "U0FNRQ=="}, "use_cudnn_on_gpu": {"b": true}, "dilations": {"list": {"i": ["1", "1", "1", "1"]}}}}, {"name": "functional_1/tf_op_layer_Add_18/Add_18", "op": "Add", "input": ["functional_1/conv2d_17/Conv2D", "functional_1/tf_op_layer_Add_18/Add_18/y"], "attr": {"_cloned": {"b": true}, "T": {"type": "DT_FLOAT"}}}, {"name": "functional_1/tf_op_layer_Relu_17/Relu_17", "op": "Relu", "input": ["functional_1/tf_op_layer_Add_18/Add_18"], "attr": {"_cloned": {"b": true}, "T": {"type": "DT_FLOAT"}}}, {"name": "functional_1/tf_op_layer_MaxPool_8/MaxPool_8", "op": "MaxPool", "input": ["functional_1/tf_op_layer_Relu_17/Relu_17"], "attr": {"T": {"type": "DT_FLOAT"}, "strides": {"list": {"i": ["1", "2", "2", "1"]}}, "padding": {"s": "U0FNRQ=="}, "data_format": {"s": "TkhXQw=="}, "ksize": {"list": {"i": ["1", "2", "2", "1"]}}, "_cloned": {"b": true}}}, {"name": "functional_1/conv2d_18/Conv2D", "op": "Conv2D", "input": ["functional_1/tf_op_layer_MaxPool_8/MaxPool_8", "functional_1/conv2d_18/Conv2D/ReadVariableOp/resource"], "device": "/device:CPU:0", "attr": {"padding": {"s": "U0FNRQ=="}, "strides": {"list": {"i": ["1", "1", "1", "1"]}}, "dilations": {"list": {"i": ["1", "1", "1", "1"]}}, "explicit_paddings": {"list": {}}, "data_format": {"s": "TkhXQw=="}, "T": {"type": "DT_FLOAT"}, "use_cudnn_on_gpu": {"b": true}}}, {"name": "functional_1/tf_op_layer_Add_19/Add_19", "op": "Add", "input": ["functional_1/conv2d_18/Conv2D", "functional_1/tf_op_layer_Add_19/Add_19/y"], "attr": {"_cloned": {"b": true}, "T": {"type": "DT_FLOAT"}}}, {"name": "functional_1/tf_op_layer_Relu_18/Relu_18", "op": "Relu", "input": ["functional_1/tf_op_layer_Add_19/Add_19"], "attr": {"T": {"type": "DT_FLOAT"}, "_cloned": {"b": true}}}, {"name": "functional_1/tf_op_layer_MaxPool_9/MaxPool_9", "op": "MaxPool", "input": ["functional_1/tf_op_layer_Relu_18/Relu_18"], "attr": {"data_format": {"s": "TkhXQw=="}, "padding": {"s": "U0FNRQ=="}, "strides": {"list": {"i": ["1", "2", "2", "1"]}}, "T": {"type": "DT_FLOAT"}, "ksize": {"list": {"i": ["1", "2", "2", "1"]}}, "_cloned": {"b": true}}}, {"name": "functional_1/conv2d_19/Conv2D", "op": "Conv2D", "input": ["functional_1/tf_op_layer_MaxPool_9/MaxPool_9", "functional_1/conv2d_19/Conv2D/ReadVariableOp/resource"], "device": "/device:CPU:0", "attr": {"data_format": {"s": "TkhXQw=="}, "use_cudnn_on_gpu": {"b": true}, "strides": {"list": {"i": ["1", "1", "1", "1"]}}, "explicit_paddings": {"list": {}}, "T": {"type": "DT_FLOAT"}, "padding": {"s": "U0FNRQ=="}, "dilations": {"list": {"i": ["1", "1", "1", "1"]}}}}, {"name": "functional_1/tf_op_layer_Add_20/Add_20", "op": "Add", "input": ["functional_1/conv2d_19/Conv2D", "functional_1/tf_op_layer_Add_20/Add_20/y"], "attr": {"_cloned": {"b": true}, "T": {"type": "DT_FLOAT"}}}, {"name": "functional_1/tf_op_layer_Relu_19/Relu_19", "op": "Relu", "input": ["functional_1/tf_op_layer_Add_20/Add_20"], "attr": {"_cloned": {"b": true}, "T": {"type": "DT_FLOAT"}}}, {"name": "functional_1/conv2d_20/Conv2D/SpaceToBatchND", "op": "SpaceToBatchND", "input": ["functional_1/tf_op_layer_Relu_19/Relu_19", "functional_1/conv2d_20/Conv2D/SpaceToBatchND/block_shape", "functional_1/conv2d_20/Conv2D/SpaceToBatchND/paddings"], "attr": {"Tpaddings": {"type": "DT_INT32"}, "T": {"type": "DT_FLOAT"}, "Tblock_shape": {"type": "DT_INT32"}}}, {"name": "functional_1/conv2d_20/Conv2D", "op": "Conv2D", "input": ["functional_1/conv2d_20/Conv2D/SpaceToBatchND", "functional_1/conv2d_20/Conv2D/ReadVariableOp/resource"], "device": "/device:CPU:0", "attr": {"dilations": {"list": {"i": ["1", "1", "1", "1"]}}, "data_format": {"s": "TkhXQw=="}, "strides": {"list": {"i": ["1", "1", "1", "1"]}}, "padding": {"s": "VkFMSUQ="}, "use_cudnn_on_gpu": {"b": true}, "T": {"type": "DT_FLOAT"}, "explicit_paddings": {"list": {}}}}, {"name": "functional_1/conv2d_20/Conv2D/BatchToSpaceND", "op": "BatchToSpaceND", "input": ["functional_1/conv2d_20/Conv2D", "functional_1/conv2d_20/Conv2D/BatchToSpaceND/block_shape", "functional_1/conv2d_20/Conv2D/BatchToSpaceND/crops"], "attr": {"Tblock_shape": {"type": "DT_INT32"}, "T": {"type": "DT_FLOAT"}, "Tcrops": {"type": "DT_INT32"}}}, {"name": "functional_1/tf_op_layer_Add_21/Add_21", "op": "Add", "input": ["functional_1/conv2d_20/Conv2D/BatchToSpaceND", "functional_1/tf_op_layer_Add_21/Add_21/y"], "attr": {"T": {"type": "DT_FLOAT"}, "_cloned": {"b": true}}}, {"name": "functional_1/tf_op_layer_Relu_20/Relu_20", "op": "Relu", "input": ["functional_1/tf_op_layer_Add_21/Add_21"], "attr": {"_cloned": {"b": true}, "T": {"type": "DT_FLOAT"}}}, {"name": "functional_1/tf_op_layer_concat_6/concat_6", "op": "ConcatV2", "input": ["functional_1/tf_op_layer_Relu_20/Relu_20", "functional_1/tf_op_layer_Relu_19/Relu_19", "functional_1/tf_op_layer_concat_6/concat_6/axis"], "attr": {"N": {"i": "2"}, "Tidx": {"type": "DT_INT32"}, "_cloned": {"b": true}, "T": {"type": "DT_FLOAT"}}}, {"name": "functional_1/conv2d_21/Conv2D", "op": "Conv2D", "input": ["functional_1/tf_op_layer_concat_6/concat_6", "functional_1/conv2d_21/Conv2D/ReadVariableOp/resource"], "device": "/device:CPU:0", "attr": {"padding": {"s": "U0FNRQ=="}, "T": {"type": "DT_FLOAT"}, "data_format": {"s": "TkhXQw=="}, "dilations": {"list": {"i": ["1", "1", "1", "1"]}}, "use_cudnn_on_gpu": {"b": true}, "explicit_paddings": {"list": {}}, "strides": {"list": {"i": ["1", "1", "1", "1"]}}}}, {"name": "functional_1/tf_op_layer_Add_22/Add_22", "op": "Add", "input": ["functional_1/conv2d_21/Conv2D", "functional_1/tf_op_layer_Add_22/Add_22/y"], "attr": {"_cloned": {"b": true}, "T": {"type": "DT_FLOAT"}}}, {"name": "functional_1/tf_op_layer_Relu_21/Relu_21", "op": "Relu", "input": ["functional_1/tf_op_layer_Add_22/Add_22"], "attr": {"T": {"type": "DT_FLOAT"}, "_cloned": {"b": true}}}, {"name": "functional_1/tf_op_layer_ResizeBilinear_5/ResizeBilinear_5", "op": "ResizeBilinear", "input": ["functional_1/tf_op_layer_Relu_21/Relu_21", "functional_1/tf_op_layer_ResizeBilinear_5/ResizeBilinear_5/size"], "attr": {"align_corners": {"b": false}, "T": {"type": "DT_FLOAT"}, "half_pixel_centers": {"b": true}, "_cloned": {"b": true}}}, {"name": "functional_1/tf_op_layer_concat_7/concat_7", "op": "ConcatV2", "input": ["functional_1/tf_op_layer_ResizeBilinear_5/ResizeBilinear_5", "functional_1/tf_op_layer_Relu_18/Relu_18", "functional_1/tf_op_layer_concat_7/concat_7/axis"], "attr": {"_cloned": {"b": true}, "T": {"type": "DT_FLOAT"}, "Tidx": {"type": "DT_INT32"}, "N": {"i": "2"}}}, {"name": "functional_1/conv2d_22/Conv2D", "op": "Conv2D", "input": ["functional_1/tf_op_layer_concat_7/concat_7", "functional_1/conv2d_22/Conv2D/ReadVariableOp/resource"], "device": "/device:CPU:0", "attr": {"strides": {"list": {"i": ["1", "1", "1", "1"]}}, "data_format": {"s": "TkhXQw=="}, "explicit_paddings": {"list": {}}, "padding": {"s": "U0FNRQ=="}, "use_cudnn_on_gpu": {"b": true}, "dilations": {"list": {"i": ["1", "1", "1", "1"]}}, "T": {"type": "DT_FLOAT"}}}, {"name": "functional_1/tf_op_layer_Add_23/Add_23", "op": "Add", "input": ["functional_1/conv2d_22/Conv2D", "functional_1/tf_op_layer_Add_23/Add_23/y"], "attr": {"_cloned": {"b": true}, "T": {"type": "DT_FLOAT"}}}, {"name": "functional_1/tf_op_layer_Relu_22/Relu_22", "op": "Relu", "input": ["functional_1/tf_op_layer_Add_23/Add_23"], "attr": {"T": {"type": "DT_FLOAT"}, "_cloned": {"b": true}}}, {"name": "functional_1/tf_op_layer_ResizeBilinear_6/ResizeBilinear_6", "op": "ResizeBilinear", "input": ["functional_1/tf_op_layer_Relu_22/Relu_22", "functional_1/tf_op_layer_ResizeBilinear_6/ResizeBilinear_6/size"], "attr": {"align_corners": {"b": false}, "T": {"type": "DT_FLOAT"}, "half_pixel_centers": {"b": true}, "_cloned": {"b": true}}}, {"name": "functional_1/tf_op_layer_concat_8/concat_8", "op": "ConcatV2", "input": ["functional_1/tf_op_layer_ResizeBilinear_6/ResizeBilinear_6", "functional_1/tf_op_layer_Relu_17/Relu_17", "functional_1/tf_op_layer_concat_8/concat_8/axis"], "attr": {"T": {"type": "DT_FLOAT"}, "N": {"i": "2"}, "_cloned": {"b": true}, "Tidx": {"type": "DT_INT32"}}}, {"name": "functional_1/conv2d_23/Conv2D", "op": "Conv2D", "input": ["functional_1/tf_op_layer_concat_8/concat_8", "functional_1/conv2d_23/Conv2D/ReadVariableOp/resource"], "device": "/device:CPU:0", "attr": {"dilations": {"list": {"i": ["1", "1", "1", "1"]}}, "T": {"type": "DT_FLOAT"}, "padding": {"s": "U0FNRQ=="}, "use_cudnn_on_gpu": {"b": true}, "strides": {"list": {"i": ["1", "1", "1", "1"]}}, "explicit_paddings": {"list": {}}, "data_format": {"s": "TkhXQw=="}}}, {"name": "functional_1/tf_op_layer_Add_24/Add_24", "op": "Add", "input": ["functional_1/conv2d_23/Conv2D", "functional_1/tf_op_layer_Add_24/Add_24/y"], "attr": {"T": {"type": "DT_FLOAT"}, "_cloned": {"b": true}}}, {"name": "functional_1/tf_op_layer_Relu_23/Relu_23", "op": "Relu", "input": ["functional_1/tf_op_layer_Add_24/Add_24"], "attr": {"T": {"type": "DT_FLOAT"}, "_cloned": {"b": true}}}, {"name": "functional_1/tf_op_layer_ResizeBilinear_7/ResizeBilinear_7", "op": "ResizeBilinear", "input": ["functional_1/tf_op_layer_Relu_23/Relu_23", "functional_1/tf_op_layer_ResizeBilinear_7/ResizeBilinear_7/size"], "attr": {"T": {"type": "DT_FLOAT"}, "_cloned": {"b": true}, "align_corners": {"b": false}, "half_pixel_centers": {"b": true}}}, {"name": "functional_1/tf_op_layer_concat_9/concat_9", "op": "ConcatV2", "input": ["functional_1/tf_op_layer_ResizeBilinear_7/ResizeBilinear_7", "functional_1/tf_op_layer_Relu_16/Relu_16", "functional_1/tf_op_layer_concat_9/concat_9/axis"], "attr": {"_cloned": {"b": true}, "N": {"i": "2"}, "T": {"type": "DT_FLOAT"}, "Tidx": {"type": "DT_INT32"}}}, {"name": "functional_1/conv2d_24/Conv2D", "op": "Conv2D", "input": ["functional_1/tf_op_layer_concat_9/concat_9", "functional_1/conv2d_24/Conv2D/ReadVariableOp/resource"], "device": "/device:CPU:0", "attr": {"dilations": {"list": {"i": ["1", "1", "1", "1"]}}, "data_format": {"s": "TkhXQw=="}, "explicit_paddings": {"list": {}}, "strides": {"list": {"i": ["1", "1", "1", "1"]}}, "T": {"type": "DT_FLOAT"}, "use_cudnn_on_gpu": {"b": true}, "padding": {"s": "U0FNRQ=="}}}, {"name": "functional_1/tf_op_layer_Add_25/Add_25", "op": "Add", "input": ["functional_1/conv2d_24/Conv2D", "functional_1/tf_op_layer_Add_25/Add_25/y"], "attr": {"_cloned": {"b": true}, "T": {"type": "DT_FLOAT"}}}, {"name": "functional_1/tf_op_layer_Relu_24/Relu_24", "op": "Relu", "input": ["functional_1/tf_op_layer_Add_25/Add_25"], "attr": {"T": {"type": "DT_FLOAT"}, "_cloned": {"b": true}}}, {"name": "functional_1/tf_op_layer_ResizeBilinear_8/ResizeBilinear_8", "op": "ResizeBilinear", "input": ["functional_1/tf_op_layer_Relu_24/Relu_24", "functional_1/tf_op_layer_ResizeBilinear_8/ResizeBilinear_8/size"], "attr": {"T": {"type": "DT_FLOAT"}, "half_pixel_centers": {"b": true}, "align_corners": {"b": false}, "_cloned": {"b": true}}}, {"name": "functional_1/tf_op_layer_concat_10/concat_10", "op": "ConcatV2", "input": ["functional_1/tf_op_layer_ResizeBilinear_8/ResizeBilinear_8", "functional_1/tf_op_layer_Relu_15/Relu_15", "functional_1/tf_op_layer_concat_10/concat_10/axis"], "attr": {"_cloned": {"b": true}, "Tidx": {"type": "DT_INT32"}, "N": {"i": "2"}, "T": {"type": "DT_FLOAT"}}}, {"name": "functional_1/conv2d_25/Conv2D", "op": "Conv2D", "input": ["functional_1/tf_op_layer_concat_10/concat_10", "functional_1/conv2d_25/Conv2D/ReadVariableOp/resource"], "device": "/device:CPU:0", "attr": {"dilations": {"list": {"i": ["1", "1", "1", "1"]}}, "padding": {"s": "U0FNRQ=="}, "strides": {"list": {"i": ["1", "1", "1", "1"]}}, "explicit_paddings": {"list": {}}, "T": {"type": "DT_FLOAT"}, "use_cudnn_on_gpu": {"b": true}, "data_format": {"s": "TkhXQw=="}}}, {"name": "functional_1/tf_op_layer_Add_26/Add_26", "op": "Add", "input": ["functional_1/conv2d_25/Conv2D", "functional_1/tf_op_layer_Add_26/Add_26/y"], "attr": {"T": {"type": "DT_FLOAT"}, "_cloned": {"b": true}}}, {"name": "functional_1/tf_op_layer_Relu_25/Relu_25", "op": "Relu", "input": ["functional_1/tf_op_layer_Add_26/Add_26"], "attr": {"T": {"type": "DT_FLOAT"}, "_cloned": {"b": true}}}, {"name": "functional_1/tf_op_layer_Add_27/Add_27", "op": "Add", "input": ["functional_1/tf_op_layer_Relu_25/Relu_25", "functional_1/tf_op_layer_Relu_14/Relu_14"], "attr": {"_cloned": {"b": true}, "T": {"type": "DT_FLOAT"}}}, {"name": "functional_1/tf_op_layer_MaxPool_10/MaxPool_10", "op": "MaxPool", "input": ["functional_1/tf_op_layer_Add_27/Add_27"], "attr": {"padding": {"s": "U0FNRQ=="}, "T": {"type": "DT_FLOAT"}, "data_format": {"s": "TkhXQw=="}, "_cloned": {"b": true}, "strides": {"list": {"i": ["1", "2", "2", "1"]}}, "ksize": {"list": {"i": ["1", "2", "2", "1"]}}}}, {"name": "functional_1/conv2d_26/Conv2D", "op": "Conv2D", "input": ["functional_1/tf_op_layer_MaxPool_10/MaxPool_10", "functional_1/conv2d_26/Conv2D/ReadVariableOp/resource"], "device": "/device:CPU:0", "attr": {"dilations": {"list": {"i": ["1", "1", "1", "1"]}}, "explicit_paddings": {"list": {}}, "T": {"type": "DT_FLOAT"}, "data_format": {"s": "TkhXQw=="}, "padding": {"s": "U0FNRQ=="}, "strides": {"list": {"i": ["1", "1", "1", "1"]}}, "use_cudnn_on_gpu": {"b": true}}}, {"name": "functional_1/tf_op_layer_Add_28/Add_28", "op": "Add", "input": ["functional_1/conv2d_26/Conv2D", "functional_1/tf_op_layer_Add_28/Add_28/y"], "attr": {"_cloned": {"b": true}, "T": {"type": "DT_FLOAT"}}}, {"name": "functional_1/tf_op_layer_Relu_26/Relu_26", "op": "Relu", "input": ["functional_1/tf_op_layer_Add_28/Add_28"], "attr": {"T": {"type": "DT_FLOAT"}, "_cloned": {"b": true}}}, {"name": "functional_1/conv2d_27/Conv2D", "op": "Conv2D", "input": ["functional_1/tf_op_layer_Relu_26/Relu_26", "functional_1/conv2d_27/Conv2D/ReadVariableOp/resource"], "device": "/device:CPU:0", "attr": {"explicit_paddings": {"list": {}}, "dilations": {"list": {"i": ["1", "1", "1", "1"]}}, "padding": {"s": "U0FNRQ=="}, "T": {"type": "DT_FLOAT"}, "data_format": {"s": "TkhXQw=="}, "strides": {"list": {"i": ["1", "1", "1", "1"]}}, "use_cudnn_on_gpu": {"b": true}}}, {"name": "functional_1/tf_op_layer_Add_29/Add_29", "op": "Add", "input": ["functional_1/conv2d_27/Conv2D", "functional_1/tf_op_layer_Add_29/Add_29/y"], "attr": {"T": {"type": "DT_FLOAT"}, "_cloned": {"b": true}}}, {"name": "functional_1/tf_op_layer_Relu_27/Relu_27", "op": "Relu", "input": ["functional_1/tf_op_layer_Add_29/Add_29"], "attr": {"_cloned": {"b": true}, "T": {"type": "DT_FLOAT"}}}, {"name": "functional_1/tf_op_layer_MaxPool_11/MaxPool_11", "op": "MaxPool", "input": ["functional_1/tf_op_layer_Relu_27/Relu_27"], "attr": {"T": {"type": "DT_FLOAT"}, "padding": {"s": "U0FNRQ=="}, "ksize": {"list": {"i": ["1", "2", "2", "1"]}}, "data_format": {"s": "TkhXQw=="}, "strides": {"list": {"i": ["1", "2", "2", "1"]}}, "_cloned": {"b": true}}}, {"name": "functional_1/conv2d_28/Conv2D", "op": "Conv2D", "input": ["functional_1/tf_op_layer_MaxPool_11/MaxPool_11", "functional_1/conv2d_28/Conv2D/ReadVariableOp/resource"], "device": "/device:CPU:0", "attr": {"T": {"type": "DT_FLOAT"}, "dilations": {"list": {"i": ["1", "1", "1", "1"]}}, "use_cudnn_on_gpu": {"b": true}, "data_format": {"s": "TkhXQw=="}, "strides": {"list": {"i": ["1", "1", "1", "1"]}}, "explicit_paddings": {"list": {}}, "padding": {"s": "U0FNRQ=="}}}, {"name": "functional_1/tf_op_layer_Add_30/Add_30", "op": "Add", "input": ["functional_1/conv2d_28/Conv2D", "functional_1/tf_op_layer_Add_30/Add_30/y"], "attr": {"T": {"type": "DT_FLOAT"}, "_cloned": {"b": true}}}, {"name": "functional_1/tf_op_layer_Relu_28/Relu_28", "op": "Relu", "input": ["functional_1/tf_op_layer_Add_30/Add_30"], "attr": {"_cloned": {"b": true}, "T": {"type": "DT_FLOAT"}}}, {"name": "functional_1/tf_op_layer_MaxPool_12/MaxPool_12", "op": "MaxPool", "input": ["functional_1/tf_op_layer_Relu_28/Relu_28"], "attr": {"padding": {"s": "U0FNRQ=="}, "ksize": {"list": {"i": ["1", "2", "2", "1"]}}, "strides": {"list": {"i": ["1", "2", "2", "1"]}}, "data_format": {"s": "TkhXQw=="}, "_cloned": {"b": true}, "T": {"type": "DT_FLOAT"}}}, {"name": "functional_1/conv2d_29/Conv2D", "op": "Conv2D", "input": ["functional_1/tf_op_layer_MaxPool_12/MaxPool_12", "functional_1/conv2d_29/Conv2D/ReadVariableOp/resource"], "device": "/device:CPU:0", "attr": {"use_cudnn_on_gpu": {"b": true}, "strides": {"list": {"i": ["1", "1", "1", "1"]}}, "data_format": {"s": "TkhXQw=="}, "dilations": {"list": {"i": ["1", "1", "1", "1"]}}, "padding": {"s": "U0FNRQ=="}, "T": {"type": "DT_FLOAT"}, "explicit_paddings": {"list": {}}}}, {"name": "functional_1/tf_op_layer_Add_31/Add_31", "op": "Add", "input": ["functional_1/conv2d_29/Conv2D", "functional_1/tf_op_layer_Add_31/Add_31/y"], "attr": {"T": {"type": "DT_FLOAT"}, "_cloned": {"b": true}}}, {"name": "functional_1/tf_op_layer_Relu_29/Relu_29", "op": "Relu", "input": ["functional_1/tf_op_layer_Add_31/Add_31"], "attr": {"_cloned": {"b": true}, "T": {"type": "DT_FLOAT"}}}, {"name": "functional_1/tf_op_layer_MaxPool_13/MaxPool_13", "op": "MaxPool", "input": ["functional_1/tf_op_layer_Relu_29/Relu_29"], "attr": {"_cloned": {"b": true}, "T": {"type": "DT_FLOAT"}, "data_format": {"s": "TkhXQw=="}, "ksize": {"list": {"i": ["1", "2", "2", "1"]}}, "strides": {"list": {"i": ["1", "2", "2", "1"]}}, "padding": {"s": "U0FNRQ=="}}}, {"name": "functional_1/conv2d_30/Conv2D", "op": "Conv2D", "input": ["functional_1/tf_op_layer_MaxPool_13/MaxPool_13", "functional_1/conv2d_30/Conv2D/ReadVariableOp/resource"], "device": "/device:CPU:0", "attr": {"data_format": {"s": "TkhXQw=="}, "padding": {"s": "U0FNRQ=="}, "explicit_paddings": {"list": {}}, "strides": {"list": {"i": ["1", "1", "1", "1"]}}, "T": {"type": "DT_FLOAT"}, "use_cudnn_on_gpu": {"b": true}, "dilations": {"list": {"i": ["1", "1", "1", "1"]}}}}, {"name": "functional_1/tf_op_layer_Add_32/Add_32", "op": "Add", "input": ["functional_1/conv2d_30/Conv2D", "functional_1/tf_op_layer_Add_32/Add_32/y"], "attr": {"T": {"type": "DT_FLOAT"}, "_cloned": {"b": true}}}, {"name": "functional_1/tf_op_layer_Relu_30/Relu_30", "op": "Relu", "input": ["functional_1/tf_op_layer_Add_32/Add_32"], "attr": {"T": {"type": "DT_FLOAT"}, "_cloned": {"b": true}}}, {"name": "functional_1/conv2d_31/Conv2D/SpaceToBatchND", "op": "SpaceToBatchND", "input": ["functional_1/tf_op_layer_Relu_30/Relu_30", "functional_1/conv2d_31/Conv2D/SpaceToBatchND/block_shape", "functional_1/conv2d_31/Conv2D/SpaceToBatchND/paddings"], "attr": {"Tpaddings": {"type": "DT_INT32"}, "T": {"type": "DT_FLOAT"}, "Tblock_shape": {"type": "DT_INT32"}}}, {"name": "functional_1/conv2d_31/Conv2D", "op": "Conv2D", "input": ["functional_1/conv2d_31/Conv2D/SpaceToBatchND", "functional_1/conv2d_31/Conv2D/ReadVariableOp/resource"], "device": "/device:CPU:0", "attr": {"strides": {"list": {"i": ["1", "1", "1", "1"]}}, "use_cudnn_on_gpu": {"b": true}, "padding": {"s": "VkFMSUQ="}, "dilations": {"list": {"i": ["1", "1", "1", "1"]}}, "T": {"type": "DT_FLOAT"}, "data_format": {"s": "TkhXQw=="}, "explicit_paddings": {"list": {}}}}, {"name": "functional_1/conv2d_31/Conv2D/BatchToSpaceND", "op": "BatchToSpaceND", "input": ["functional_1/conv2d_31/Conv2D", "functional_1/conv2d_31/Conv2D/BatchToSpaceND/block_shape", "functional_1/conv2d_31/Conv2D/BatchToSpaceND/crops"], "attr": {"T": {"type": "DT_FLOAT"}, "Tcrops": {"type": "DT_INT32"}, "Tblock_shape": {"type": "DT_INT32"}}}, {"name": "functional_1/tf_op_layer_Add_33/Add_33", "op": "Add", "input": ["functional_1/conv2d_31/Conv2D/BatchToSpaceND", "functional_1/tf_op_layer_Add_33/Add_33/y"], "attr": {"_cloned": {"b": true}, "T": {"type": "DT_FLOAT"}}}, {"name": "functional_1/tf_op_layer_Relu_31/Relu_31", "op": "Relu", "input": ["functional_1/tf_op_layer_Add_33/Add_33"], "attr": {"_cloned": {"b": true}, "T": {"type": "DT_FLOAT"}}}, {"name": "functional_1/tf_op_layer_concat_11/concat_11", "op": "ConcatV2", "input": ["functional_1/tf_op_layer_Relu_31/Relu_31", "functional_1/tf_op_layer_Relu_30/Relu_30", "functional_1/tf_op_layer_concat_11/concat_11/axis"], "attr": {"_cloned": {"b": true}, "Tidx": {"type": "DT_INT32"}, "T": {"type": "DT_FLOAT"}, "N": {"i": "2"}}}, {"name": "functional_1/conv2d_32/Conv2D", "op": "Conv2D", "input": ["functional_1/tf_op_layer_concat_11/concat_11", "functional_1/conv2d_32/Conv2D/ReadVariableOp/resource"], "device": "/device:CPU:0", "attr": {"strides": {"list": {"i": ["1", "1", "1", "1"]}}, "data_format": {"s": "TkhXQw=="}, "T": {"type": "DT_FLOAT"}, "explicit_paddings": {"list": {}}, "padding": {"s": "U0FNRQ=="}, "use_cudnn_on_gpu": {"b": true}, "dilations": {"list": {"i": ["1", "1", "1", "1"]}}}}, {"name": "functional_1/tf_op_layer_Add_34/Add_34", "op": "Add", "input": ["functional_1/conv2d_32/Conv2D", "functional_1/tf_op_layer_Add_34/Add_34/y"], "attr": {"_cloned": {"b": true}, "T": {"type": "DT_FLOAT"}}}, {"name": "functional_1/tf_op_layer_Relu_32/Relu_32", "op": "Relu", "input": ["functional_1/tf_op_layer_Add_34/Add_34"], "attr": {"T": {"type": "DT_FLOAT"}, "_cloned": {"b": true}}}, {"name": "functional_1/tf_op_layer_ResizeBilinear_9/ResizeBilinear_9", "op": "ResizeBilinear", "input": ["functional_1/tf_op_layer_Relu_32/Relu_32", "functional_1/tf_op_layer_ResizeBilinear_9/ResizeBilinear_9/size"], "attr": {"T": {"type": "DT_FLOAT"}, "align_corners": {"b": false}, "half_pixel_centers": {"b": true}, "_cloned": {"b": true}}}, {"name": "functional_1/tf_op_layer_concat_12/concat_12", "op": "ConcatV2", "input": ["functional_1/tf_op_layer_ResizeBilinear_9/ResizeBilinear_9", "functional_1/tf_op_layer_Relu_29/Relu_29", "functional_1/tf_op_layer_concat_12/concat_12/axis"], "attr": {"_cloned": {"b": true}, "N": {"i": "2"}, "T": {"type": "DT_FLOAT"}, "Tidx": {"type": "DT_INT32"}}}, {"name": "functional_1/conv2d_33/Conv2D", "op": "Conv2D", "input": ["functional_1/tf_op_layer_concat_12/concat_12", "functional_1/conv2d_33/Conv2D/ReadVariableOp/resource"], "device": "/device:CPU:0", "attr": {"use_cudnn_on_gpu": {"b": true}, "data_format": {"s": "TkhXQw=="}, "padding": {"s": "U0FNRQ=="}, "dilations": {"list": {"i": ["1", "1", "1", "1"]}}, "strides": {"list": {"i": ["1", "1", "1", "1"]}}, "explicit_paddings": {"list": {}}, "T": {"type": "DT_FLOAT"}}}, {"name": "functional_1/tf_op_layer_Add_35/Add_35", "op": "Add", "input": ["functional_1/conv2d_33/Conv2D", "functional_1/tf_op_layer_Add_35/Add_35/y"], "attr": {"T": {"type": "DT_FLOAT"}, "_cloned": {"b": true}}}, {"name": "functional_1/tf_op_layer_Relu_33/Relu_33", "op": "Relu", "input": ["functional_1/tf_op_layer_Add_35/Add_35"], "attr": {"_cloned": {"b": true}, "T": {"type": "DT_FLOAT"}}}, {"name": "functional_1/tf_op_layer_ResizeBilinear_10/ResizeBilinear_10", "op": "ResizeBilinear", "input": ["functional_1/tf_op_layer_Relu_33/Relu_33", "functional_1/tf_op_layer_ResizeBilinear_10/ResizeBilinear_10/size"], "attr": {"half_pixel_centers": {"b": true}, "_cloned": {"b": true}, "T": {"type": "DT_FLOAT"}, "align_corners": {"b": false}}}, {"name": "functional_1/tf_op_layer_concat_13/concat_13", "op": "ConcatV2", "input": ["functional_1/tf_op_layer_ResizeBilinear_10/ResizeBilinear_10", "functional_1/tf_op_layer_Relu_28/Relu_28", "functional_1/tf_op_layer_concat_13/concat_13/axis"], "attr": {"_cloned": {"b": true}, "T": {"type": "DT_FLOAT"}, "Tidx": {"type": "DT_INT32"}, "N": {"i": "2"}}}, {"name": "functional_1/conv2d_34/Conv2D", "op": "Conv2D", "input": ["functional_1/tf_op_layer_concat_13/concat_13", "functional_1/conv2d_34/Conv2D/ReadVariableOp/resource"], "device": "/device:CPU:0", "attr": {"dilations": {"list": {"i": ["1", "1", "1", "1"]}}, "T": {"type": "DT_FLOAT"}, "data_format": {"s": "TkhXQw=="}, "use_cudnn_on_gpu": {"b": true}, "padding": {"s": "U0FNRQ=="}, "explicit_paddings": {"list": {}}, "strides": {"list": {"i": ["1", "1", "1", "1"]}}}}, {"name": "functional_1/tf_op_layer_Add_36/Add_36", "op": "Add", "input": ["functional_1/conv2d_34/Conv2D", "functional_1/tf_op_layer_Add_36/Add_36/y"], "attr": {"_cloned": {"b": true}, "T": {"type": "DT_FLOAT"}}}, {"name": "functional_1/tf_op_layer_Relu_34/Relu_34", "op": "Relu", "input": ["functional_1/tf_op_layer_Add_36/Add_36"], "attr": {"_cloned": {"b": true}, "T": {"type": "DT_FLOAT"}}}, {"name": "functional_1/tf_op_layer_ResizeBilinear_11/ResizeBilinear_11", "op": "ResizeBilinear", "input": ["functional_1/tf_op_layer_Relu_34/Relu_34", "functional_1/tf_op_layer_ResizeBilinear_11/ResizeBilinear_11/size"], "attr": {"align_corners": {"b": false}, "T": {"type": "DT_FLOAT"}, "half_pixel_centers": {"b": true}, "_cloned": {"b": true}}}, {"name": "functional_1/tf_op_layer_concat_14/concat_14", "op": "ConcatV2", "input": ["functional_1/tf_op_layer_ResizeBilinear_11/ResizeBilinear_11", "functional_1/tf_op_layer_Relu_27/Relu_27", "functional_1/tf_op_layer_concat_14/concat_14/axis"], "attr": {"N": {"i": "2"}, "T": {"type": "DT_FLOAT"}, "Tidx": {"type": "DT_INT32"}, "_cloned": {"b": true}}}, {"name": "functional_1/conv2d_35/Conv2D", "op": "Conv2D", "input": ["functional_1/tf_op_layer_concat_14/concat_14", "functional_1/conv2d_35/Conv2D/ReadVariableOp/resource"], "device": "/device:CPU:0", "attr": {"strides": {"list": {"i": ["1", "1", "1", "1"]}}, "explicit_paddings": {"list": {}}, "data_format": {"s": "TkhXQw=="}, "use_cudnn_on_gpu": {"b": true}, "dilations": {"list": {"i": ["1", "1", "1", "1"]}}, "padding": {"s": "U0FNRQ=="}, "T": {"type": "DT_FLOAT"}}}, {"name": "functional_1/tf_op_layer_Add_37/Add_37", "op": "Add", "input": ["functional_1/conv2d_35/Conv2D", "functional_1/tf_op_layer_Add_37/Add_37/y"], "attr": {"T": {"type": "DT_FLOAT"}, "_cloned": {"b": true}}}, {"name": "functional_1/tf_op_layer_Relu_35/Relu_35", "op": "Relu", "input": ["functional_1/tf_op_layer_Add_37/Add_37"], "attr": {"T": {"type": "DT_FLOAT"}, "_cloned": {"b": true}}}, {"name": "functional_1/tf_op_layer_Add_38/Add_38", "op": "Add", "input": ["functional_1/tf_op_layer_Relu_35/Relu_35", "functional_1/tf_op_layer_Relu_26/Relu_26"], "attr": {"T": {"type": "DT_FLOAT"}, "_cloned": {"b": true}}}, {"name": "functional_1/tf_op_layer_MaxPool_14/MaxPool_14", "op": "MaxPool", "input": ["functional_1/tf_op_layer_Add_38/Add_38"], "attr": {"ksize": {"list": {"i": ["1", "2", "2", "1"]}}, "padding": {"s": "U0FNRQ=="}, "_cloned": {"b": true}, "data_format": {"s": "TkhXQw=="}, "strides": {"list": {"i": ["1", "2", "2", "1"]}}, "T": {"type": "DT_FLOAT"}}}, {"name": "functional_1/conv2d_36/Conv2D", "op": "Conv2D", "input": ["functional_1/tf_op_layer_MaxPool_14/MaxPool_14", "functional_1/conv2d_36/Conv2D/ReadVariableOp/resource"], "device": "/device:CPU:0", "attr": {"strides": {"list": {"i": ["1", "1", "1", "1"]}}, "T": {"type": "DT_FLOAT"}, "data_format": {"s": "TkhXQw=="}, "explicit_paddings": {"list": {}}, "dilations": {"list": {"i": ["1", "1", "1", "1"]}}, "use_cudnn_on_gpu": {"b": true}, "padding": {"s": "U0FNRQ=="}}}, {"name": "functional_1/tf_op_layer_Add_39/Add_39", "op": "Add", "input": ["functional_1/conv2d_36/Conv2D", "functional_1/tf_op_layer_Add_39/Add_39/y"], "attr": {"_cloned": {"b": true}, "T": {"type": "DT_FLOAT"}}}, {"name": "functional_1/tf_op_layer_Relu_36/Relu_36", "op": "Relu", "input": ["functional_1/tf_op_layer_Add_39/Add_39"], "attr": {"_cloned": {"b": true}, "T": {"type": "DT_FLOAT"}}}, {"name": "functional_1/conv2d_37/Conv2D", "op": "Conv2D", "input": ["functional_1/tf_op_layer_Relu_36/Relu_36", "functional_1/conv2d_37/Conv2D/ReadVariableOp/resource"], "device": "/device:CPU:0", "attr": {"T": {"type": "DT_FLOAT"}, "data_format": {"s": "TkhXQw=="}, "padding": {"s": "U0FNRQ=="}, "dilations": {"list": {"i": ["1", "1", "1", "1"]}}, "strides": {"list": {"i": ["1", "1", "1", "1"]}}, "use_cudnn_on_gpu": {"b": true}, "explicit_paddings": {"list": {}}}}, {"name": "functional_1/tf_op_layer_Add_40/Add_40", "op": "Add", "input": ["functional_1/conv2d_37/Conv2D", "functional_1/tf_op_layer_Add_40/Add_40/y"], "attr": {"T": {"type": "DT_FLOAT"}, "_cloned": {"b": true}}}, {"name": "functional_1/tf_op_layer_Relu_37/Relu_37", "op": "Relu", "input": ["functional_1/tf_op_layer_Add_40/Add_40"], "attr": {"T": {"type": "DT_FLOAT"}, "_cloned": {"b": true}}}, {"name": "functional_1/tf_op_layer_MaxPool_15/MaxPool_15", "op": "MaxPool", "input": ["functional_1/tf_op_layer_Relu_37/Relu_37"], "attr": {"_cloned": {"b": true}, "data_format": {"s": "TkhXQw=="}, "T": {"type": "DT_FLOAT"}, "ksize": {"list": {"i": ["1", "2", "2", "1"]}}, "padding": {"s": "U0FNRQ=="}, "strides": {"list": {"i": ["1", "2", "2", "1"]}}}}, {"name": "functional_1/conv2d_38/Conv2D", "op": "Conv2D", "input": ["functional_1/tf_op_layer_MaxPool_15/MaxPool_15", "functional_1/conv2d_38/Conv2D/ReadVariableOp/resource"], "device": "/device:CPU:0", "attr": {"data_format": {"s": "TkhXQw=="}, "use_cudnn_on_gpu": {"b": true}, "strides": {"list": {"i": ["1", "1", "1", "1"]}}, "dilations": {"list": {"i": ["1", "1", "1", "1"]}}, "T": {"type": "DT_FLOAT"}, "padding": {"s": "U0FNRQ=="}, "explicit_paddings": {"list": {}}}}, {"name": "functional_1/tf_op_layer_Add_41/Add_41", "op": "Add", "input": ["functional_1/conv2d_38/Conv2D", "functional_1/tf_op_layer_Add_41/Add_41/y"], "attr": {"_cloned": {"b": true}, "T": {"type": "DT_FLOAT"}}}, {"name": "functional_1/tf_op_layer_Relu_38/Relu_38", "op": "Relu", "input": ["functional_1/tf_op_layer_Add_41/Add_41"], "attr": {"_cloned": {"b": true}, "T": {"type": "DT_FLOAT"}}}, {"name": "functional_1/tf_op_layer_MaxPool_16/MaxPool_16", "op": "MaxPool", "input": ["functional_1/tf_op_layer_Relu_38/Relu_38"], "attr": {"strides": {"list": {"i": ["1", "2", "2", "1"]}}, "data_format": {"s": "TkhXQw=="}, "ksize": {"list": {"i": ["1", "2", "2", "1"]}}, "padding": {"s": "U0FNRQ=="}, "T": {"type": "DT_FLOAT"}, "_cloned": {"b": true}}}, {"name": "functional_1/conv2d_39/Conv2D", "op": "Conv2D", "input": ["functional_1/tf_op_layer_MaxPool_16/MaxPool_16", "functional_1/conv2d_39/Conv2D/ReadVariableOp/resource"], "device": "/device:CPU:0", "attr": {"use_cudnn_on_gpu": {"b": true}, "dilations": {"list": {"i": ["1", "1", "1", "1"]}}, "data_format": {"s": "TkhXQw=="}, "padding": {"s": "U0FNRQ=="}, "explicit_paddings": {"list": {}}, "T": {"type": "DT_FLOAT"}, "strides": {"list": {"i": ["1", "1", "1", "1"]}}}}, {"name": "functional_1/tf_op_layer_Add_42/Add_42", "op": "Add", "input": ["functional_1/conv2d_39/Conv2D", "functional_1/tf_op_layer_Add_42/Add_42/y"], "attr": {"T": {"type": "DT_FLOAT"}, "_cloned": {"b": true}}}, {"name": "functional_1/tf_op_layer_Relu_39/Relu_39", "op": "Relu", "input": ["functional_1/tf_op_layer_Add_42/Add_42"], "attr": {"_cloned": {"b": true}, "T": {"type": "DT_FLOAT"}}}, {"name": "functional_1/conv2d_40/Conv2D/SpaceToBatchND", "op": "SpaceToBatchND", "input": ["functional_1/tf_op_layer_Relu_39/Relu_39", "functional_1/conv2d_40/Conv2D/SpaceToBatchND/block_shape", "functional_1/conv2d_40/Conv2D/SpaceToBatchND/paddings"], "attr": {"T": {"type": "DT_FLOAT"}, "Tpaddings": {"type": "DT_INT32"}, "Tblock_shape": {"type": "DT_INT32"}}}, {"name": "functional_1/conv2d_40/Conv2D", "op": "Conv2D", "input": ["functional_1/conv2d_40/Conv2D/SpaceToBatchND", "functional_1/conv2d_40/Conv2D/ReadVariableOp/resource"], "device": "/device:CPU:0", "attr": {"padding": {"s": "VkFMSUQ="}, "strides": {"list": {"i": ["1", "1", "1", "1"]}}, "data_format": {"s": "TkhXQw=="}, "dilations": {"list": {"i": ["1", "1", "1", "1"]}}, "explicit_paddings": {"list": {}}, "T": {"type": "DT_FLOAT"}, "use_cudnn_on_gpu": {"b": true}}}, {"name": "functional_1/conv2d_40/Conv2D/BatchToSpaceND", "op": "BatchToSpaceND", "input": ["functional_1/conv2d_40/Conv2D", "functional_1/conv2d_40/Conv2D/BatchToSpaceND/block_shape", "functional_1/conv2d_40/Conv2D/BatchToSpaceND/crops"], "attr": {"T": {"type": "DT_FLOAT"}, "Tcrops": {"type": "DT_INT32"}, "Tblock_shape": {"type": "DT_INT32"}}}, {"name": "functional_1/tf_op_layer_Add_43/Add_43", "op": "Add", "input": ["functional_1/conv2d_40/Conv2D/BatchToSpaceND", "functional_1/tf_op_layer_Add_43/Add_43/y"], "attr": {"T": {"type": "DT_FLOAT"}, "_cloned": {"b": true}}}, {"name": "functional_1/tf_op_layer_Relu_40/Relu_40", "op": "Relu", "input": ["functional_1/tf_op_layer_Add_43/Add_43"], "attr": {"_cloned": {"b": true}, "T": {"type": "DT_FLOAT"}}}, {"name": "functional_1/tf_op_layer_concat_15/concat_15", "op": "ConcatV2", "input": ["functional_1/tf_op_layer_Relu_40/Relu_40", "functional_1/tf_op_layer_Relu_39/Relu_39", "functional_1/tf_op_layer_concat_15/concat_15/axis"], "attr": {"N": {"i": "2"}, "T": {"type": "DT_FLOAT"}, "_cloned": {"b": true}, "Tidx": {"type": "DT_INT32"}}}, {"name": "functional_1/conv2d_41/Conv2D", "op": "Conv2D", "input": ["functional_1/tf_op_layer_concat_15/concat_15", "functional_1/conv2d_41/Conv2D/ReadVariableOp/resource"], "device": "/device:CPU:0", "attr": {"strides": {"list": {"i": ["1", "1", "1", "1"]}}, "explicit_paddings": {"list": {}}, "padding": {"s": "U0FNRQ=="}, "use_cudnn_on_gpu": {"b": true}, "data_format": {"s": "TkhXQw=="}, "dilations": {"list": {"i": ["1", "1", "1", "1"]}}, "T": {"type": "DT_FLOAT"}}}, {"name": "functional_1/tf_op_layer_Add_44/Add_44", "op": "Add", "input": ["functional_1/conv2d_41/Conv2D", "functional_1/tf_op_layer_Add_44/Add_44/y"], "attr": {"T": {"type": "DT_FLOAT"}, "_cloned": {"b": true}}}, {"name": "functional_1/tf_op_layer_Relu_41/Relu_41", "op": "Relu", "input": ["functional_1/tf_op_layer_Add_44/Add_44"], "attr": {"_cloned": {"b": true}, "T": {"type": "DT_FLOAT"}}}, {"name": "functional_1/tf_op_layer_ResizeBilinear_12/ResizeBilinear_12", "op": "ResizeBilinear", "input": ["functional_1/tf_op_layer_Relu_41/Relu_41", "functional_1/tf_op_layer_ResizeBilinear_12/ResizeBilinear_12/size"], "attr": {"T": {"type": "DT_FLOAT"}, "half_pixel_centers": {"b": true}, "align_corners": {"b": false}, "_cloned": {"b": true}}}, {"name": "functional_1/tf_op_layer_concat_16/concat_16", "op": "ConcatV2", "input": ["functional_1/tf_op_layer_ResizeBilinear_12/ResizeBilinear_12", "functional_1/tf_op_layer_Relu_38/Relu_38", "functional_1/tf_op_layer_concat_16/concat_16/axis"], "attr": {"_cloned": {"b": true}, "N": {"i": "2"}, "T": {"type": "DT_FLOAT"}, "Tidx": {"type": "DT_INT32"}}}, {"name": "functional_1/conv2d_42/Conv2D", "op": "Conv2D", "input": ["functional_1/tf_op_layer_concat_16/concat_16", "functional_1/conv2d_42/Conv2D/ReadVariableOp/resource"], "device": "/device:CPU:0", "attr": {"padding": {"s": "U0FNRQ=="}, "use_cudnn_on_gpu": {"b": true}, "strides": {"list": {"i": ["1", "1", "1", "1"]}}, "explicit_paddings": {"list": {}}, "T": {"type": "DT_FLOAT"}, "dilations": {"list": {"i": ["1", "1", "1", "1"]}}, "data_format": {"s": "TkhXQw=="}}}, {"name": "functional_1/tf_op_layer_Add_45/Add_45", "op": "Add", "input": ["functional_1/conv2d_42/Conv2D", "functional_1/tf_op_layer_Add_45/Add_45/y"], "attr": {"T": {"type": "DT_FLOAT"}, "_cloned": {"b": true}}}, {"name": "functional_1/tf_op_layer_Relu_42/Relu_42", "op": "Relu", "input": ["functional_1/tf_op_layer_Add_45/Add_45"], "attr": {"_cloned": {"b": true}, "T": {"type": "DT_FLOAT"}…
tional_1/tf_op_layer_concat_38/concat_38/axis", "shape": [], "dtype": "int32"}, {"name": "functional_1/conv2d_93/Conv2D/ReadVariableOp/resource", "shape": [3, 3, 64, 32], "dtype": "float32", "quantization": {"dtype": "float16", "original_dtype": "float32"}}, {"name": "functional_1/tf_op_layer_Add_102/Add_102/y", "shape": [32], "dtype": "float32", "quantization": {"dtype": "float16", "original_dtype": "float32"}}, {"name": "functional_1/tf_op_layer_ResizeBilinear_23/ResizeBilinear_23/size", "shape": [2], "dtype": "int32"}, {"name": "functional_1/conv2d_90/Conv2D/ReadVariableOp/resource", "shape": [3, 3, 32, 32], "dtype": "float32", "quantization": {"dtype": "float16", "original_dtype": "float32"}}, {"name": "functional_1/tf_op_layer_Add_99/Add_99/y", "shape": [32], "dtype": "float32", "quantization": {"dtype": "float16", "original_dtype": "float32"}}, {"name": "functional_1/tf_op_layer_concat_39/concat_39/axis", "shape": [], "dtype": "int32"}, {"name": "functional_1/conv2d_94/Conv2D/ReadVariableOp/resource", "shape": [3, 3, 64, 32], "dtype": "float32", "quantization": {"dtype": "float16", "original_dtype": "float32"}}, {"name": "functional_1/tf_op_layer_Add_103/Add_103/y", "shape": [32], "dtype": "float32", "quantization": {"dtype": "float16", "original_dtype": "float32"}}, {"name": "functional_1/tf_op_layer_ResizeBilinear_24/ResizeBilinear_24/size", "shape": [2], "dtype": "int32"}, {"name": "functional_1/conv2d_89/Conv2D/ReadVariableOp/resource", "shape": [3, 3, 32, 32], "dtype": "float32", "quantization": {"dtype": "float16", "original_dtype": "float32"}}, {"name": "functional_1/tf_op_layer_Add_98/Add_98/y", "shape": [32], "dtype": "float32", "quantization": {"dtype": "float16", "original_dtype": "float32"}}, {"name": "functional_1/tf_op_layer_concat_40/concat_40/axis", "shape": [], "dtype": "int32"}, {"name": "functional_1/conv2d_95/Conv2D/ReadVariableOp/resource", "shape": [3, 3, 64, 32], "dtype": "float32", "quantization": {"dtype": "float16", "original_dtype": "float32"}}, {"name": "functional_1/tf_op_layer_Add_104/Add_104/y", "shape": [32], "dtype": "float32", "quantization": {"dtype": "float16", "original_dtype": "float32"}}, {"name": "functional_1/tf_op_layer_ResizeBilinear_25/ResizeBilinear_25/size", "shape": [2], "dtype": "int32"}, {"name": "functional_1/conv2d_88/Conv2D/ReadVariableOp/resource", "shape": [3, 3, 32, 32], "dtype": "float32", "quantization": {"dtype": "float16", "original_dtype": "float32"}}, {"name": "functional_1/tf_op_layer_Add_97/Add_97/y", "shape": [32], "dtype": "float32", "quantization": {"dtype": "float16", "original_dtype": "float32"}}, {"name": "functional_1/tf_op_layer_concat_41/concat_41/axis", "shape": [], "dtype": "int32"}, {"name": "functional_1/conv2d_96/Conv2D/ReadVariableOp/resource", "shape": [3, 3, 64, 32], "dtype": "float32", "quantization": {"dtype": "float16", "original_dtype": "float32"}}, {"name": "functional_1/tf_op_layer_Add_105/Add_105/y", "shape": [32], "dtype": "float32", "quantization": {"dtype": "float16", "original_dtype": "float32"}}, {"name": "functional_1/tf_op_layer_ResizeBilinear_26/ResizeBilinear_26/size", "shape": [2], "dtype": "int32"}, {"name": "functional_1/conv2d_87/Conv2D/ReadVariableOp/resource", "shape": [3, 3, 64, 32], "dtype": "float32", "quantization": {"dtype": "float16", "original_dtype": "float32"}}, {"name": "functional_1/tf_op_layer_Add_96/Add_96/y", "shape": [32], "dtype": "float32", "quantization": {"dtype": "float16", "original_dtype": "float32"}}, {"name": "functional_1/tf_op_layer_concat_42/concat_42/axis", "shape": [], "dtype": "int32"}, {"name": "functional_1/conv2d_97/Conv2D/ReadVariableOp/resource", "shape": [3, 3, 64, 64], "dtype": "float32", "quantization": {"dtype": "float16", "original_dtype": "float32"}}, {"name": "functional_1/tf_op_layer_Add_106/Add_106/y", "shape": [64], "dtype": "float32", "quantization": {"dtype": "float16", "original_dtype": "float32"}}, {"name": "functional_1/tf_op_layer_ResizeBilinear_22/ResizeBilinear_22/size", "shape": [2], "dtype": "int32"}, {"name": "functional_1/tf_op_layer_concat_37/concat_37/axis", "shape": [], "dtype": "int32"}, {"name": "functional_1/conv2d_86/Conv2D/ReadVariableOp/resource", "shape": [3, 3, 256, 64], "dtype": "float32", "quantization": {"dtype": "float16", "original_dtype": "float32"}}, {"name": "functional_1/tf_op_layer_Add_95/Add_95/y", "shape": [64], "dtype": "float32", "quantization": {"dtype": "float16", "original_dtype": "float32"}}, {"name": "functional_1/conv2d_113/Conv2D/ReadVariableOp/resource", "shape": [3, 3, 64, 1], "dtype": "float32", "quantization": {"dtype": "float16", "original_dtype": "float32"}}, {"name": "functional_1/tf_op_layer_Add_124/Add_124/y", "shape": [1], "dtype": "float32", "quantization": {"dtype": "float16", "original_dtype": "float32"}}, {"name": "functional_1/tf_op_layer_ResizeBilinear_33/ResizeBilinear_33/size", "shape": [2], "dtype": "int32"}, {"name": "functional_1/conv2d_81/Conv2D/SpaceToBatchND/block_shape", "shape": [2], "dtype": "int32"}, {"name": "functional_1/conv2d_81/Conv2D/SpaceToBatchND/paddings", "shape": [2, 2], "dtype": "int32"}, {"name": "functional_1/conv2d_81/Conv2D/ReadVariableOp/resource", "shape": [3, 3, 64, 64], "dtype": "float32", "quantization": {"dtype": "float16", "original_dtype": "float32"}}, {"name": "functional_1/conv2d_81/Conv2D/BatchToSpaceND/block_shape", "shape": [2], "dtype": "int32"}, {"name": "functional_1/conv2d_81/Conv2D/BatchToSpaceND/crops", "shape": [2, 2], "dtype": "int32"}, {"name": "functional_1/tf_op_layer_Add_89/Add_89/y", "shape": [64], "dtype": "float32", "quantization": {"dtype": "float16", "original_dtype": "float32"}}, {"name": "functional_1/conv2d_80/Conv2D/ReadVariableOp/resource", "shape": [3, 3, 64, 64], "dtype": "float32", "quantization": {"dtype": "float16", "original_dtype": "float32"}}, {"name": "functional_1/tf_op_layer_Add_88/Add_88/y", "shape": [64], "dtype": "float32", "quantization": {"dtype": "float16", "original_dtype": "float32"}}, {"name": "functional_1/tf_op_layer_concat_33/concat_33/axis", "shape": [], "dtype": "int32"}, {"name": "functional_1/conv2d_82/Conv2D/ReadVariableOp/resource", "shape": [3, 3, 128, 64], "dtype": "float32", "quantization": {"dtype": "float16", "original_dtype": "float32"}}, {"name": "functional_1/tf_op_layer_Add_90/Add_90/y", "shape": [64], "dtype": "float32", "quantization": {"dtype": "float16", "original_dtype": "float32"}}, {"name": "functional_1/tf_op_layer_ResizeBilinear_19/ResizeBilinear_19/size", "shape": [2], "dtype": "int32"}, {"name": "functional_1/conv2d_79/Conv2D/ReadVariableOp/resource", "shape": [3, 3, 64, 64], "dtype": "float32", "quantization": {"dtype": "float16", "original_dtype": "float32"}}, {"name": "functional_1/tf_op_layer_Add_87/Add_87/y", "shape": [64], "dtype": "float32", "quantization": {"dtype": "float16", "original_dtype": "float32"}}, {"name": "functional_1/tf_op_layer_concat_34/concat_34/axis", "shape": [], "dtype": "int32"}, {"name": "functional_1/conv2d_83/Conv2D/ReadVariableOp/resource", "shape": [3, 3, 128, 64], "dtype": "float32", "quantization": {"dtype": "float16", "original_dtype": "float32"}}, {"name": "functional_1/tf_op_layer_Add_91/Add_91/y", "shape": [64], "dtype": "float32", "quantization": {"dtype": "float16", "original_dtype": "float32"}}, {"name": "functional_1/tf_op_layer_ResizeBilinear_20/ResizeBilinear_20/size", "shape": [2], "dtype": "int32"}, {"name": "functional_1/conv2d_78/Conv2D/ReadVariableOp/resource", "shape": [3, 3, 64, 64], "dtype": "float32", "quantization": {"dtype": "float16", "original_dtype": "float32"}}, {"name": "functional_1/tf_op_layer_Add_86/Add_86/y", "shape": [64], "dtype": "float32", "quantization": {"dtype": "float16", "original_dtype": "float32"}}, {"name": "functional_1/tf_op_layer_concat_35/concat_35/axis", "shape": [], "dtype": "int32"}, {"name": "functional_1/conv2d_84/Conv2D/ReadVariableOp/resource", "shape": [3, 3, 128, 64], "dtype": "float32", "quantization": {"dtype": "float16", "original_dtype": "float32"}}, {"name": "functional_1/tf_op_layer_Add_92/Add_92/y", "shape": [64], "dtype": "float32", "quantization": {"dtype": "float16", "original_dtype": "float32"}}, {"name": "functional_1/tf_op_layer_ResizeBilinear_21/ResizeBilinear_21/size", "shape": [2], "dtype": "int32"}, {"name": "functional_1/conv2d_77/Conv2D/ReadVariableOp/resource", "shape": [3, 3, 128, 64], "dtype": "float32", "quantization": {"dtype": "float16", "original_dtype": "float32"}}, {"name": "functional_1/tf_op_layer_Add_85/Add_85/y", "shape": [64], "dtype": "float32", "quantization": {"dtype": "float16", "original_dtype": "float32"}}, {"name": "functional_1/tf_op_layer_concat_36/concat_36/axis", "shape": [], "dtype": "int32"}, {"name": "functional_1/conv2d_85/Conv2D/ReadVariableOp/resource", "shape": [3, 3, 128, 128], "dtype": "float32", "quantization": {"dtype": "float16", "original_dtype": "float32"}}, {"name": "functional_1/tf_op_layer_Add_93/Add_93/y", "shape": [128], "dtype": "float32", "quantization": {"dtype": "float16", "original_dtype": "float32"}}, {"name": "functional_1/tf_op_layer_ResizeBilinear_18/ResizeBilinear_18/size", "shape": [2], "dtype": "int32"}, {"name": "functional_1/tf_op_layer_concat_32/concat_32/axis", "shape": [], "dtype": "int32"}, {"name": "functional_1/conv2d_76/Conv2D/ReadVariableOp/resource", "shape": [3, 3, 512, 128], "dtype": "float32", "quantization": {"dtype": "float16", "original_dtype": "float32"}}, {"name": "functional_1/tf_op_layer_Add_84/Add_84/y", "shape": [128], "dtype": "float32", "quantization": {"dtype": "float16", "original_dtype": "float32"}}, {"name": "functional_1/conv2d_114/Conv2D/ReadVariableOp/resource", "shape": [3, 3, 128, 1], "dtype": "float32", "quantization": {"dtype": "float16", "original_dtype": "float32"}}, {"name": "functional_1/tf_op_layer_Add_125/Add_125/y", "shape": [1], "dtype": "float32", "quantization": {"dtype": "float16", "original_dtype": "float32"}}, {"name": "functional_1/tf_op_layer_ResizeBilinear_34/ResizeBilinear_34/size", "shape": [2], "dtype": "int32"}, {"name": "functional_1/conv2d_72/Conv2D/SpaceToBatchND/block_shape", "shape": [2], "dtype": "int32"}, {"name": "functional_1/conv2d_72/Conv2D/SpaceToBatchND/paddings", "shape": [2, 2], "dtype": "int32"}, {"name": "functional_1/conv2d_72/Conv2D/ReadVariableOp/resource", "shape": [3, 3, 128, 128], "dtype": "float32", "quantization": {"dtype": "float16", "original_dtype": "float32"}}, {"name": "functional_1/conv2d_72/Conv2D/BatchToSpaceND/block_shape", "shape": [2], "dtype": "int32"}, {"name": "functional_1/conv2d_72/Conv2D/BatchToSpaceND/crops", "shape": [2, 2], "dtype": "int32"}, {"name": "functional_1/tf_op_layer_Add_79/Add_79/y", "shape": [128], "dtype": "float32", "quantization": {"dtype": "float16", "original_dtype": "float32"}}, {"name": "functional_1/conv2d_71/Conv2D/ReadVariableOp/resource", "shape": [3, 3, 128, 128], "dtype": "float32", "quantization": {"dtype": "float16", "original_dtype": "float32"}}, {"name": "functional_1/tf_op_layer_Add_78/Add_78/y", "shape": [128], "dtype": "float32", "quantization": {"dtype": "float16", "original_dtype": "float32"}}, {"name": "functional_1/tf_op_layer_concat_29/concat_29/axis", "shape": [], "dtype": "int32"}, {"name": "functional_1/conv2d_73/Conv2D/ReadVariableOp/resource", "shape": [3, 3, 256, 128], "dtype": "float32", "quantization": {"dtype": "float16", "original_dtype": "float32"}}, {"name": "functional_1/tf_op_layer_Add_80/Add_80/y", "shape": [128], "dtype": "float32", "quantization": {"dtype": "float16", "original_dtype": "float32"}}, {"name": "functional_1/tf_op_layer_ResizeBilinear_16/ResizeBilinear_16/size", "shape": [2], "dtype": "int32"}, {"name": "functional_1/conv2d_70/Conv2D/ReadVariableOp/resource", "shape": [3, 3, 128, 128], "dtype": "float32", "quantization": {"dtype": "float16", "original_dtype": "float32"}}, {"name": "functional_1/tf_op_layer_Add_77/Add_77/y", "shape": [128], "dtype": "float32", "quantization": {"dtype": "float16", "original_dtype": "float32"}}, {"name": "functional_1/tf_op_layer_concat_30/concat_30/axis", "shape": [], "dtype": "int32"}, {"name": "functional_1/conv2d_74/Conv2D/ReadVariableOp/resource", "shape": [3, 3, 256, 128], "dtype": "float32", "quantization": {"dtype": "float16", "original_dtype": "float32"}}, {"name": "functional_1/tf_op_layer_Add_81/Add_81/y", "shape": [128], "dtype": "float32", "quantization": {"dtype": "float16", "original_dtype": "float32"}}, {"name": "functional_1/tf_op_layer_ResizeBilinear_17/ResizeBilinear_17/size", "shape": [2], "dtype": "int32"}, {"name": "functional_1/conv2d_69/Conv2D/ReadVariableOp/resource", "shape": [3, 3, 256, 128], "dtype": "float32", "quantization": {"dtype": "float16", "original_dtype": "float32"}}, {"name": "functional_1/tf_op_layer_Add_76/Add_76/y", "shape": [128], "dtype": "float32", "quantization": {"dtype": "float16", "original_dtype": "float32"}}, {"name": "functional_1/tf_op_layer_concat_31/concat_31/axis", "shape": [], "dtype": "int32"}, {"name": "functional_1/conv2d_75/Conv2D/ReadVariableOp/resource", "shape": [3, 3, 256, 256], "dtype": "float32", "quantization": {"dtype": "float16", "original_dtype": "float32"}}, {"name": "functional_1/tf_op_layer_Add_82/Add_82/y", "shape": [256], "dtype": "float32", "quantization": {"dtype": "float16", "original_dtype": "float32"}}, {"name": "functional_1/tf_op_layer_ResizeBilinear_15/ResizeBilinear_15/size", "shape": [2], "dtype": "int32"}, {"name": "functional_1/tf_op_layer_concat_28/concat_28/axis", "shape": [], "dtype": "int32"}, {"name": "functional_1/conv2d_68/Conv2D/ReadVariableOp/resource", "shape": [3, 3, 1024, 256], "dtype": "float32", "quantization": {"dtype": "float16", "original_dtype": "float32"}}, {"name": "functional_1/tf_op_layer_Add_75/Add_75/y", "shape": [256], "dtype": "float32", "quantization": {"dtype": "float16", "original_dtype": "float32"}}, {"name": "functional_1/conv2d_115/Conv2D/ReadVariableOp/resource", "shape": [3, 3, 256, 1], "dtype": "float32", "quantization": {"dtype": "float16", "original_dtype": "float32"}}, {"name": "functional_1/tf_op_layer_Add_126/Add_126/y", "shape": [1], "dtype": "float32", "quantization": {"dtype": "float16", "original_dtype": "float32"}}, {"name": "functional_1/tf_op_layer_ResizeBilinear_35/ResizeBilinear_35/size", "shape": [2], "dtype": "int32"}, {"name": "functional_1/conv2d_64/Conv2D/SpaceToBatchND/block_shape", "shape": [2], "dtype": "int32"}, {"name": "functional_1/conv2d_64/Conv2D/SpaceToBatchND/paddings", "shape": [2, 2], "dtype": "int32"}, {"name": "functional_1/conv2d_64/Conv2D/ReadVariableOp/resource", "shape": [3, 3, 256, 256], "dtype": "float32", "quantization": {"dtype": "float16", "original_dtype": "float32"}}, {"name": "functional_1/conv2d_64/Conv2D/BatchToSpaceND/block_shape", "shape": [2], "dtype": "int32"}, {"name": "functional_1/conv2d_64/Conv2D/BatchToSpaceND/crops", "shape": [2, 2], "dtype": "int32"}, {"name": "functional_1/tf_op_layer_Add_70/Add_70/y", "shape": [256], "dtype": "float32", "quantization": {"dtype": "float16", "original_dtype": "float32"}}, {"name": "functional_1/conv2d_63/Conv2D/SpaceToBatchND/block_shape", "shape": [2], "dtype": "int32"}, {"name": "functional_1/conv2d_63/Conv2D/SpaceToBatchND/paddings", "shape": [2, 2], "dtype": "int32"}, {"name": "functional_1/conv2d_63/Conv2D/ReadVariableOp/resource", "shape": [3, 3, 256, 256], "dtype": "float32", "quantization": {"dtype": "float16", "original_dtype": "float32"}}, {"name": "functional_1/conv2d_63/Conv2D/BatchToSpaceND/block_shape", "shape": [2], "dtype": "int32"}, {"name": "functional_1/conv2d_63/Conv2D/BatchToSpaceND/crops", "shape": [2, 2], "dtype": "int32"}, {"name": "functional_1/tf_op_layer_Add_69/Add_69/y", "shape": [256], "dtype": "float32", "quantization": {"dtype": "float16", "original_dtype": "float32"}}, {"name": "functional_1/tf_op_layer_concat_25/concat_25/axis", "shape": [], "dtype": "int32"}, {"name": "functional_1/conv2d_65/Conv2D/SpaceToBatchND/block_shape", "shape": [2], "dtype": "int32"}, {"name": "functional_1/conv2d_65/Conv2D/SpaceToBatchND/paddings", "shape": [2, 2], "dtype": "int32"}, {"name": "functional_1/conv2d_65/Conv2D/ReadVariableOp/resource", "shape": [3, 3, 512, 256], "dtype": "float32", "quantization": {"dtype": "float16", "original_dtype": "float32"}}, {"name": "functional_1/conv2d_65/Conv2D/BatchToSpaceND/block_shape", "shape": [2], "dtype": "int32"}, {"name": "functional_1/conv2d_65/Conv2D/BatchToSpaceND/crops", "shape": [2, 2], "dtype": "int32"}, {"name": "functional_1/tf_op_layer_Add_71/Add_71/y", "shape": [256], "dtype": "float32", "quantization": {"dtype": "float16", "original_dtype": "float32"}}, {"name": "functional_1/conv2d_62/Conv2D/SpaceToBatchND/block_shape", "shape": [2], "dtype": "int32"}, {"name": "functional_1/conv2d_62/Conv2D/SpaceToBatchND/paddings", "shape": [2, 2], "dtype": "int32"}, {"name": "functional_1/conv2d_62/Conv2D/ReadVariableOp/resource", "shape": [3, 3, 256, 256], "dtype": "float32", "quantization": {"dtype": "float16", "original_dtype": "float32"}}, {"name": "functional_1/conv2d_62/Conv2D/BatchToSpaceND/block_shape", "shape": [2], "dtype": "int32"}, {"name": "functional_1/conv2d_62/Conv2D/BatchToSpaceND/crops", "shape": [2, 2], "dtype": "int32"}, {"name": "functional_1/tf_op_layer_Add_68/Add_68/y", "shape": [256], "dtype": "float32", "quantization": {"dtype": "float16", "original_dtype": "float32"}}, {"name": "functional_1/tf_op_layer_concat_26/concat_26/axis", "shape": [], "dtype": "int32"}, {"name": "functional_1/conv2d_66/Conv2D/SpaceToBatchND/block_shape", "shape": [2], "dtype": "int32"}, {"name": "functional_1/conv2d_66/Conv2D/SpaceToBatchND/paddings", "shape": [2, 2], "dtype": "int32"}, {"name": "functional_1/conv2d_66/Conv2D/ReadVariableOp/resource", "shape": [3, 3, 512, 256], "dtype": "float32", "quantization": {"dtype": "float16", "original_dtype": "float32"}}, {"name": "functional_1/conv2d_66/Conv2D/BatchToSpaceND/block_shape", "shape": [2], "dtype": "int32"}, {"name": "functional_1/conv2d_66/Conv2D/BatchToSpaceND/crops", "shape": [2, 2], "dtype": "int32"}, {"name": "functional_1/tf_op_layer_Add_72/Add_72/y", "shape": [256], "dtype": "float32", "quantization": {"dtype": "float16", "original_dtype": "float32"}}, {"name": "functional_1/conv2d_61/Conv2D/ReadVariableOp/resource", "shape": [3, 3, 512, 256], "dtype": "float32", "quantization": {"dtype": "float16", "original_dtype": "float32"}}, {"name": "functional_1/tf_op_layer_Add_67/Add_67/y", "shape": [256], "dtype": "float32", "quantization": {"dtype": "float16", "original_dtype": "float32"}}, {"name": "functional_1/tf_op_layer_concat_27/concat_27/axis", "shape": [], "dtype": "int32"}, {"name": "functional_1/conv2d_67/Conv2D/ReadVariableOp/resource", "shape": [3, 3, 512, 512], "dtype": "float32", "quantization": {"dtype": "float16", "original_dtype": "float32"}}, {"name": "functional_1/tf_op_layer_Add_73/Add_73/y", "shape": [512], "dtype": "float32", "quantization": {"dtype": "float16", "original_dtype": "float32"}}, {"name": "functional_1/tf_op_layer_ResizeBilinear_14/ResizeBilinear_14/size", "shape": [2], "dtype": "int32"}, {"name": "functional_1/tf_op_layer_concat_24/concat_24/axis", "shape": [], "dtype": "int32"}, {"name": "functional_1/conv2d_60/Conv2D/ReadVariableOp/resource", "shape": [3, 3, 1024, 512], "dtype": "float32", "quantization": {"dtype": "float16", "original_dtype": "float32"}}, {"name": "functional_1/tf_op_layer_Add_66/Add_66/y", "shape": [512], "dtype": "float32", "quantization": {"dtype": "float16", "original_dtype": "float32"}}, {"name": "functional_1/conv2d_116/Conv2D/ReadVariableOp/resource", "shape": [3, 3, 512, 1], "dtype": "float32", "quantization": {"dtype": "float16", "original_dtype": "float32"}}, {"name": "functional_1/tf_op_layer_Add_127/Add_127/y", "shape": [1], "dtype": "float32", "quantization": {"dtype": "float16", "original_dtype": "float32"}}, {"name": "functional_1/tf_op_layer_ResizeBilinear_36/ResizeBilinear_36/size", "shape": [2], "dtype": "int32"}, {"name": "functional_1/conv2d_56/Conv2D/SpaceToBatchND/block_shape", "shape": [2], "dtype": "int32"}, {"name": "functional_1/conv2d_56/Conv2D/SpaceToBatchND/paddings", "shape": [2, 2], "dtype": "int32"}, {"name": "functional_1/conv2d_56/Conv2D/ReadVariableOp/resource", "shape": [3, 3, 256, 256], "dtype": "float32", "quantization": {"dtype": "float16", "original_dtype": "float32"}}, {"name": "functional_1/conv2d_56/Conv2D/BatchToSpaceND/block_shape", "shape": [2], "dtype": "int32"}, {"name": "functional_1/conv2d_56/Conv2D/BatchToSpaceND/crops", "shape": [2, 2], "dtype": "int32"}, {"name": "functional_1/tf_op_layer_Add_61/Add_61/y", "shape": [256], "dtype": "float32", "quantization": {"dtype": "float16", "original_dtype": "float32"}}, {"name": "functional_1/conv2d_55/Conv2D/SpaceToBatchND/block_shape", "shape": [2], "dtype": "int32"}, {"name": "functional_1/conv2d_55/Conv2D/SpaceToBatchND/paddings", "shape": [2, 2], "dtype": "int32"}, {"name": "functional_1/conv2d_55/Conv2D/ReadVariableOp/resource", "shape": [3, 3, 256, 256], "dtype": "float32", "quantization": {"dtype": "float16", "original_dtype": "float32"}}, {"name": "functional_1/conv2d_55/Conv2D/BatchToSpaceND/block_shape", "shape": [2], "dtype": "int32"}, {"name": "functional_1/conv2d_55/Conv2D/BatchToSpaceND/crops", "shape": [2, 2], "dtype": "int32"}, {"name": "functional_1/tf_op_layer_Add_60/Add_60/y", "shape": [256], "dtype": "float32", "quantization": {"dtype": "float16", "original_dtype": "float32"}}, {"name": "functional_1/tf_op_layer_concat_21/concat_21/axis", "shape": [], "dtype": "int32"}, {"name": "functional_1/conv2d_57/Conv2D/SpaceToBatchND/block_shape", "shape": [2], "dtype": "int32"}, {"name": "functional_1/conv2d_57/Conv2D/SpaceToBatchND/paddings", "shape": [2, 2], "dtype": "int32"}, {"name": "functional_1/conv2d_57/Conv2D/ReadVariableOp/resource", "shape": [3, 3, 512, 256], "dtype": "float32", "quantization": {"dtype": "float16", "original_dtype": "float32"}}, {"name": "functional_1/conv2d_57/Conv2D/BatchToSpaceND/block_shape", "shape": [2], "dtype": "int32"}, {"name": "functional_1/conv2d_57/Conv2D/BatchToSpaceND/crops", "shape": [2, 2], "dtype": "int32"}, {"name": "functional_1/tf_op_layer_Add_62/Add_62/y", "shape": [256], "dtype": "float32", "quantization": {"dtype": "float16", "original_dtype": "float32"}}, {"name": "functional_1/conv2d_54/Conv2D/SpaceToBatchND/block_shape", "shape": [2], "dtype": "int32"}, {"name": "functional_1/conv2d_54/Conv2D/SpaceToBatchND/paddings", "shape": [2, 2], "dtype": "int32"}, {"name": "functional_1/conv2d_54/Conv2D/ReadVariableOp/resource", "shape": [3, 3, 256, 256], "dtype": "float32", "quantization": {"dtype": "float16", "original_dtype": "float32"}}, {"name": "functional_1/conv2d_54/Conv2D/BatchToSpaceND/block_shape", "shape": [2], "dtype": "int32"}, {"name": "functional_1/conv2d_54/Conv2D/BatchToSpaceND/crops", "shape": [2, 2], "dtype": "int32"}, {"name": "functional_1/tf_op_layer_Add_59/Add_59/y", "shape": [256], "dtype": "float32", "quantization": {"dtype": "float16", "original_dtype": "float32"}}, {"name": "functional_1/tf_op_layer_concat_22/concat_22/axis", "shape": [], "dtype": "int32"}, {"name": "functional_1/conv2d_58/Conv2D/SpaceToBatchND/block_shape", "shape": [2], "dtype": "int32"}, {"name": "functional_1/conv2d_58/Conv2D/SpaceToBatchND/paddings", "shape": [2, 2], "dtype": "int32"}, {"name": "functional_1/conv2d_58/Conv2D/ReadVariableOp/resource", "shape": [3, 3, 512, 256], "dtype": "float32", "quantization": {"dtype": "float16", "original_dtype": "float32"}}, {"name": "functional_1/conv2d_58/Conv2D/BatchToSpaceND/block_shape", "shape": [2], "dtype": "int32"}, {"name": "functional_1/conv2d_58/Conv2D/BatchToSpaceND/crops", "shape": [2, 2], "dtype": "int32"}, {"name": "functional_1/tf_op_layer_Add_63/Add_63/y", "shape": [256], "dtype": "float32", "quantization": {"dtype": "float16", "original_dtype": "float32"}}, {"name": "functional_1/conv2d_53/Conv2D/ReadVariableOp/resource", "shape": [3, 3, 512, 256], "dtype": "float32", "quantization": {"dtype": "float16", "original_dtype": "float32"}}, {"name": "functional_1/tf_op_layer_Add_58/Add_58/y", "shape": [256], "dtype": "float32", "quantization": {"dtype": "float16", "original_dtype": "float32"}}, {"name": "functional_1/tf_op_layer_concat_23/concat_23/axis", "shape": [], "dtype": "int32"}, {"name": "functional_1/conv2d_59/Conv2D/ReadVariableOp/resource", "shape": [3, 3, 512, 512], "dtype": "float32", "quantization": {"dtype": "float16", "original_dtype": "float32"}}, {"name": "functional_1/tf_op_layer_Add_64/Add_64/y", "shape": [512], "dtype": "float32", "quantization": {"dtype": "float16", "original_dtype": "float32"}}, {"name": "functional_1/conv2d_48/Conv2D/SpaceToBatchND/block_shape", "shape": [2], "dtype": "int32"}, {"name": "functional_1/conv2d_48/Conv2D/SpaceToBatchND/paddings", "shape": [2, 2], "dtype": "int32"}, {"name": "functional_1/conv2d_48/Conv2D/ReadVariableOp/resource", "shape": [3, 3, 256, 256], "dtype": "float32", "quantization": {"dtype": "float16", "original_dtype": "float32"}}, {"name": "functional_1/conv2d_48/Conv2D/BatchToSpaceND/block_shape", "shape": [2], "dtype": "int32"}, {"name": "functional_1/conv2d_48/Conv2D/BatchToSpaceND/crops", "shape": [2, 2], "dtype": "int32"}, {"name": "functional_1/tf_op_layer_Add_52/Add_52/y", "shape": [256], "dtype": "float32", "quantization": {"dtype": "float16", "original_dtype": "float32"}}, {"name": "functional_1/conv2d_47/Conv2D/SpaceToBatchND/block_shape", "shape": [2], "dtype": "int32"}, {"name": "functional_1/conv2d_47/Conv2D/SpaceToBatchND/paddings", "shape": [2, 2], "dtype": "int32"}, {"name": "functional_1/conv2d_47/Conv2D/ReadVariableOp/resource", "shape": [3, 3, 256, 256], "dtype": "float32", "quantization": {"dtype": "float16", "original_dtype": "float32"}}, {"name": "functional_1/conv2d_47/Conv2D/BatchToSpaceND/block_shape", "shape": [2], "dtype": "int32"}, {"name": "functional_1/conv2d_47/Conv2D/BatchToSpaceND/crops", "shape": [2, 2], "dtype": "int32"}, {"name": "functional_1/tf_op_layer_Add_51/Add_51/y", "shape": [256], "dtype": "float32", "quantization": {"dtype": "float16", "original_dtype": "float32"}}, {"name": "functional_1/tf_op_layer_concat_18/concat_18/axis", "shape": [], "dtype": "int32"}, {"name": "functional_1/conv2d_49/Conv2D/SpaceToBatchND/block_shape", "shape": [2], "dtype": "int32"}, {"name": "functional_1/conv2d_49/Conv2D/SpaceToBatchND/paddings", "shape": [2, 2], "dtype": "int32"}, {"name": "functional_1/conv2d_49/Conv2D/ReadVariableOp/resource", "shape": [3, 3, 512, 256], "dtype": "float32", "quantization": {"dtype": "float16", "original_dtype": "float32"}}, {"name": "functional_1/conv2d_49/Conv2D/BatchToSpaceND/block_shape", "shape": [2], "dtype": "int32"}, {"name": "functional_1/conv2d_49/Conv2D/BatchToSpaceND/crops", "shape": [2, 2], "dtype": "int32"}, {"name": "functional_1/tf_op_layer_Add_53/Add_53/y", "shape": [256], "dtype": "float32", "quantization": {"dtype": "float16", "original_dtype": "float32"}}, {"name": "functional_1/conv2d_46/Conv2D/SpaceToBatchND/block_shape", "shape": [2], "dtype": "int32"}, {"name": "functional_1/conv2d_46/Conv2D/SpaceToBatchND/paddings", "shape": [2, 2], "dtype": "int32"}, {"name": "functional_1/conv2d_46/Conv2D/ReadVariableOp/resource", "shape": [3, 3, 256, 256], "dtype": "float32", "quantization": {"dtype": "float16", "original_dtype": "float32"}}, {"name": "functional_1/conv2d_46/Conv2D/BatchToSpaceND/block_shape", "shape": [2], "dtype": "int32"}, {"name": "functional_1/conv2d_46/Conv2D/BatchToSpaceND/crops", "shape": [2, 2], "dtype": "int32"}, {"name": "functional_1/tf_op_layer_Add_50/Add_50/y", "shape": [256], "dtype": "float32", "quantization": {"dtype": "float16", "original_dtype": "float32"}}, {"name": "functional_1/tf_op_layer_concat_19/concat_19/axis", "shape": [], "dtype": "int32"}, {"name": "functional_1/conv2d_50/Conv2D/SpaceToBatchND/block_shape", "shape": [2], "dtype": "int32"}, {"name": "functional_1/conv2d_50/Conv2D/SpaceToBatchND/paddings", "shape": [2, 2], "dtype": "int32"}, {"name": "functional_1/conv2d_50/Conv2D/ReadVariableOp/resource", "shape": [3, 3, 512, 256], "dtype": "float32", "quantization": {"dtype": "float16", "original_dtype": "float32"}}, {"name": "functional_1/conv2d_50/Conv2D/BatchToSpaceND/block_shape", "shape": [2], "dtype": "int32"}, {"name": "functional_1/conv2d_50/Conv2D/BatchToSpaceND/crops", "shape": [2, 2], "dtype": "int32"}, {"name": "functional_1/tf_op_layer_Add_54/Add_54/y", "shape": [256], "dtype": "float32", "quantization": {"dtype": "float16", "original_dtype": "float32"}}, {"name": "functional_1/conv2d_45/Conv2D/ReadVariableOp/resource", "shape": [3, 3, 512, 256], "dtype": "float32", "quantization": {"dtype": "float16", "original_dtype": "float32"}}, {"name": "functional_1/tf_op_layer_Add_49/Add_49/y", "shape": [256], "dtype": "float32", "quantization": {"dtype": "float16", "original_dtype": "float32"}}, {"name": "functional_1/tf_op_layer_concat_20/concat_20/axis", "shape": [], "dtype": "int32"}, {"name": "functional_1/conv2d_51/Conv2D/ReadVariableOp/resource", "shape": [3, 3, 512, 512], "dtype": "float32", "quantization": {"dtype": "float16", "original_dtype": "float32"}}, {"name": "functional_1/tf_op_layer_Add_55/Add_55/y", "shape": [512], "dtype": "float32", "quantization": {"dtype": "float16", "original_dtype": "float32"}}, {"name": "functional_1/conv2d_40/Conv2D/SpaceToBatchND/block_shape", "shape": [2], "dtype": "int32"}, {"name": "functional_1/conv2d_40/Conv2D/SpaceToBatchND/paddings", "shape": [2, 2], "dtype": "int32"}, {"name": "functional_1/conv2d_40/Conv2D/ReadVariableOp/resource", "shape": [3, 3, 128, 128], "dtype": "float32", "quantization": {"dtype": "float16", "original_dtype": "float32"}}, {"name": "functional_1/conv2d_40/Conv2D/BatchToSpaceND/block_shape", "shape": [2], "dtype": "int32"}, {"name": "functional_1/conv2d_40/Conv2D/BatchToSpaceND/crops", "shape": [2, 2], "dtype": "int32"}, {"name": "functional_1/tf_op_layer_Add_43/Add_43/y", "shape": [128], "dtype": "float32", "quantization": {"dtype": "float16", "original_dtype": "float32"}}, {"name": "functional_1/conv2d_39/Conv2D/ReadVariableOp/resource", "shape": [3, 3, 128, 128], "dtype": "float32", "quantization": {"dtype": "float16", "original_dtype": "float32"}}, {"name": "functional_1/tf_op_layer_Add_42/Add_42/y", "shape": [128], "dtype": "float32", "quantization": {"dtype": "float16", "original_dtype": "float32"}}, {"name": "functional_1/tf_op_layer_concat_15/concat_15/axis", "shape": [], "dtype": "int32"}, {"name": "functional_1/conv2d_41/Conv2D/ReadVariableOp/resource", "shape": [3, 3, 256, 128], "dtype": "float32", "quantization": {"dtype": "float16", "original_dtype": "float32"}}, {"name": "functional_1/tf_op_layer_Add_44/Add_44/y", "shape": [128], "dtype": "float32", "quantization": {"dtype": "float16", "original_dtype": "float32"}}, {"name": "functional_1/tf_op_layer_ResizeBilinear_12/ResizeBilinear_12/size", "shape": [2], "dtype": "int32"}, {"name": "functional_1/conv2d_38/Conv2D/ReadVariableOp/resource", "shape": [3, 3, 128, 128], "dtype": "float32", "quantization": {"dtype": "float16", "original_dtype": "float32"}}, {"name": "functional_1/tf_op_layer_Add_41/Add_41/y", "shape": [128], "dtype": "float32", "quantization": {"dtype": "float16", "original_dtype": "float32"}}, {"name": "functional_1/tf_op_layer_concat_16/concat_16/axis", "shape": [], "dtype": "int32"}, {"name": "functional_1/conv2d_42/Conv2D/ReadVariableOp/resource", "shape": [3, 3, 256, 128], "dtype": "float32", "quantization": {"dtype": "float16", "original_dtype": "float32"}}, {"name": "functional_1/tf_op_layer_Add_45/Add_45/y", "shape": [128], "dtype": "float32", "quantization": {"dtype": "float16", "original_dtype": "float32"}}, {"name": "functional_1/tf_op_layer_ResizeBilinear_13/ResizeBilinear_13/size", "shape": [2], "dtype": "int32"}, {"name": "functional_1/conv2d_37/Conv2D/ReadVariableOp/resource", "shape": [3, 3, 512, 128], "dtype": "float32", "quantization": {"dtype": "float16", "original_dtype": "float32"}}, {"name": "functional_1/tf_op_layer_Add_40/Add_40/y", "shape": [128], "dtype": "float32", "quantization": {"dtype": "float16", "original_dtype": "float32"}}, {"name": "functional_1/tf_op_layer_concat_17/concat_17/axis", "shape": [], "dtype": "int32"}, {"name": "functional_1/conv2d_43/Conv2D/ReadVariableOp/resource", "shape": [3, 3, 256, 512], "dtype": "float32", "quantization": {"dtype": "float16", "original_dtype": "float32"}}, {"name": "functional_1/tf_op_layer_Add_46/Add_46/y", "shape": [512], "dtype": "float32", "quantization": {"dtype": "float16", "original_dtype": "float32"}}, {"name": "functional_1/conv2d_31/Conv2D/SpaceToBatchND/block_shape", "shape": [2], "dtype": "int32"}, {"name": "functional_1/conv2d_31/Conv2D/SpaceToBatchND/paddings", "shape": [2, 2], "dtype": "int32"}, {"name": "functional_1/conv2d_31/Conv2D/ReadVariableOp/resource", "shape": [3, 3, 64, 64], "dtype": "float32", "quantization": {"dtype": "float16", "original_dtype": "float32"}}, {"name": "functional_1/conv2d_31/Conv2D/BatchToSpaceND/block_shape", "shape": [2], "dtype": "int32"}, {"name": "functional_1/conv2d_31/Conv2D/BatchToSpaceND/crops", "shape": [2, 2], "dtype": "int32"}, {"name": "functional_1/tf_op_layer_Add_33/Add_33/y", "shape": [64], "dtype": "float32", "quantization": {"dtype": "float16", "original_dtype": "float32"}}, {"name": "functional_1/conv2d_30/Conv2D/ReadVariableOp/resource", "shape": [3, 3, 64, 64], "dtype": "float32", "quantization": {"dtype": "float16", "original_dtype": "float32"}}, {"name": "functional_1/tf_op_layer_Add_32/Add_32/y", "shape": [64], "dtype": "float32", "quantization": {"dtype": "float16", "original_dtype": "float32"}}, {"name": "functional_1/tf_op_layer_concat_11/concat_11/axis", "shape": [], "dtype": "int32"}, {"name": "functional_1/conv2d_32/Conv2D/ReadVariableOp/resource", "shape": [3, 3, 128, 64], "dtype": "float32", "quantization": {"dtype": "float16", "original_dtype": "float32"}}, {"name": "functional_1/tf_op_layer_Add_34/Add_34/y", "shape": [64], "dtype": "float32", "quantization": {"dtype": "float16", "original_dtype": "float32"}}, {"name": "functional_1/tf_op_layer_ResizeBilinear_9/ResizeBilinear_9/size", "shape": [2], "dtype": "int32"}, {"name": "functional_1/conv2d_29/Conv2D/ReadVariableOp/resource", "shape": [3, 3, 64, 64], "dtype": "float32", "quantization": {"dtype": "float16", "original_dtype": "float32"}}, {"name": "functional_1/tf_op_layer_Add_31/Add_31/y", "shape": [64], "dtype": "float32", "quantization": {"dtype": "float16", "original_dtype": "float32"}}, {"name": "functional_1/tf_op_layer_concat_12/concat_12/axis", "shape": [], "dtype": "int32"}, {"name": "functional_1/conv2d_33/Conv2D/ReadVariableOp/resource", "shape": [3, 3, 128, 64], "dtype": "float32", "quantization": {"dtype": "float16", "original_dtype": "float32"}}, {"name": "functional_1/tf_op_layer_Add_35/Add_35/y", "shape": [64], "dtype": "float32", "quantization": {"dtype": "float16", "original_dtype": "float32"}}, {"name": "functional_1/tf_op_layer_ResizeBilinear_10/ResizeBilinear_10/size", "shape": [2], "dtype": "int32"}, {"name": "functional_1/conv2d_28/Conv2D/ReadVariableOp/resource", "shape": [3, 3, 64, 64], "dtype": "float32", "quantization": {"dtype": "float16", "original_dtype": "float32"}}, {"name": "functional_1/tf_op_layer_Add_30/Add_30/y", "shape": [64], "dtype": "float32", "quantization": {"dtype": "float16", "original_dtype": "float32"}}, {"name": "functional_1/tf_op_layer_concat_13/concat_13/axis", "shape": [], "dtype": "int32"}, {"name": "functional_1/conv2d_34/Conv2D/ReadVariableOp/resource", "shape": [3, 3, 128, 64], "dtype": "float32", "quantization": {"dtype": "float16", "original_dtype": "float32"}}, {"name": "functional_1/tf_op_layer_Add_36/Add_36/y", "shape": [64], "dtype": "float32", "quantization": {"dtype": "float16", "original_dtype": "float32"}}, {"name": "functional_1/tf_op_layer_ResizeBilinear_11/ResizeBilinear_11/size", "shape": [2], "dtype": "int32"}, {"name": "functional_1/conv2d_27/Conv2D/ReadVariableOp/resource", "shape": [3, 3, 256, 64], "dtype": "float32", "quantization": {"dtype": "float16", "original_dtype": "float32"}}, {"name": "functional_1/tf_op_layer_Add_29/Add_29/y", "shape": [64], "dtype": "float32", "quantization": {"dtype": "float16", "original_dtype": "float32"}}, {"name": "functional_1/tf_op_layer_concat_14/concat_14/axis", "shape": [], "dtype": "int32"}, {"name": "functional_1/conv2d_35/Conv2D/ReadVariableOp/resource", "shape": [3, 3, 128, 256], "dtype": "float32", "quantization": {"dtype": "float16", "original_dtype": "float32"}}, {"name": "functional_1/tf_op_layer_Add_37/Add_37/y", "shape": [256], "dtype": "float32", "quantization": {"dtype": "float16", "original_dtype": "float32"}}, {"name": "functional_1/conv2d_20/Conv2D/SpaceToBatchND/block_shape", "shape": [2], "dtype": "int32"}, {"name": "functional_1/conv2d_20/Conv2D/SpaceToBatchND/paddings", "shape": [2, 2], "dtype": "int32"}, {"name": "functional_1/conv2d_20/Conv2D/ReadVariableOp/resource", "shape": [3, 3, 32, 32], "dtype": "float32", "quantization": {"dtype": "float16", "original_dtype": "float32"}}, {"name": "functional_1/conv2d_20/Conv2D/BatchToSpaceND/block_shape", "shape": [2], "dtype": "int32"}, {"name": "functional_1/conv2d_20/Conv2D/BatchToSpaceND/crops", "shape": [2, 2], "dtype": "int32"}, {"name": "functional_1/tf_op_layer_Add_21/Add_21/y", "shape": [32], "dtype": "float32", "quantization": {"dtype": "float16", "original_dtype": "float32"}}, {"name": "functional_1/conv2d_19/Conv2D/ReadVariableOp/resource", "shape": [3, 3, 32, 32], "dtype": "float32", "quantization": {"dtype": "float16", "original_dtype": "float32"}}, {"name": "functional_1/tf_op_layer_Add_20/Add_20/y", "shape": [32], "dtype": "float32", "quantization": {"dtype": "float16", "original_dtype": "float32"}}, {"name": "functional_1/tf_op_layer_concat_6/concat_6/axis", "shape": [], "dtype": "int32"}, {"name": "functional_1/conv2d_21/Conv2D/ReadVariableOp/resource", "shape": [3, 3, 64, 32], "dtype": "float32", "quantization": {"dtype": "float16", "original_dtype": "float32"}}, {"name": "functional_1/tf_op_layer_Add_22/Add_22/y", "shape": [32], "dtype": "float32", "quantization": {"dtype": "float16", "original_dtype": "float32"}}, {"name": "functional_1/tf_op_layer_ResizeBilinear_5/ResizeBilinear_5/size", "shape": [2], "dtype": "int32"}, {"name": "functional_1/conv2d_18/Conv2D/ReadVariableOp/resource", "shape": [3, 3, 32, 32], "dtype": "float32", "quantization": {"dtype": "float16", "original_dtype": "float32"}}, {"name": "functional_1/tf_op_layer_Add_19/Add_19/y", "shape": [32], "dtype": "float32", "quantization": {"dtype": "float16", "original_dtype": "float32"}}, {"name": "functional_1/tf_op_layer_concat_7/concat_7/axis", "shape": [], "dtype": "int32"}, {"name": "functional_1/conv2d_22/Conv2D/ReadVariableOp/resource", "shape": [3, 3, 64, 32], "dtype": "float32", "quantization": {"dtype": "float16", "original_dtype": "float32"}}, {"name": "functional_1/tf_op_layer_Add_23/Add_23/y", "shape": [32], "dtype": "float32", "quantization": {"dtype": "float16", "original_dtype": "float32"}}, {"name": "functional_1/tf_op_layer_ResizeBilinear_6/ResizeBilinear_6/size", "shape": [2], "dtype": "int32"}, {"name": "functional_1/conv2d_17/Conv2D/ReadVariableOp/resource", "shape": [3, 3, 32, 32], "dtype": "float32", "quantization": {"dtype": "float16", "original_dtype": "float32"}}, {"name": "functional_1/tf_op_layer_Add_18/Add_18/y", "shape": [32], "dtype": "float32", "quantization": {"dtype": "float16", "original_dtype": "float32"}}, {"name": "functional_1/tf_op_layer_concat_8/concat_8/axis", "shape": [], "dtype": "int32"}, {"name": "functional_1/conv2d_23/Conv2D/ReadVariableOp/resource", "shape": [3, 3, 64, 32], "dtype": "float32", "quantization": {"dtype": "float16", "original_dtype": "float32"}}, {"name": "functional_1/tf_op_layer_Add_24/Add_24/y", "shape": [32], "dtype": "float32", "quantization": {"dtype": "float16", "original_dtype": "float32"}}, {"name": "functional_1/tf_op_layer_ResizeBilinear_7/ResizeBilinear_7/size", "shape": [2], "dtype": "int32"}, {"name": "functional_1/conv2d_16/Conv2D/ReadVariableOp/resource", "shape": [3, 3, 32, 32], "dtype": "float32", "quantization": {"dtype": "float16", "original_dtype": "float32"}}, {"name": "functional_1/tf_op_layer_Add_17/Add_17/y", "shape": [32], "dtype": "float32", "quantization": {"dtype": "float16", "original_dtype": "float32"}}, {"name": "functional_1/tf_op_layer_concat_9/concat_9/axis", "shape": [], "dtype": "int32"}, {"name": "functional_1/conv2d_24/Conv2D/ReadVariableOp/resource", "shape": [3, 3, 64, 32], "dtype": "float32", "quantization": {"dtype": "float16", "original_dtype": "float32"}}, {"name": "functional_1/tf_op_layer_Add_25/Add_25/y", "shape": [32], "dtype": "float32", "quantization": {"dtype": "float16", "original_dtype": "float32"}}, {"name": "functional_1/tf_op_layer_ResizeBilinear_8/ResizeBilinear_8/size", "shape": [2], "dtype": "int32"}, {"name": "functional_1/conv2d_15/Conv2D/ReadVariableOp/resource", "shape": [3, 3, 128, 32], "dtype": "float32", "quantization": {"dtype": "float16", "original_dtype": "float32"}}, {"name": "functional_1/tf_op_layer_Add_16/Add_16/y", "shape": [32], "dtype": "float32", "quantization": {"dtype": "float16", "original_dtype": "float32"}}, {"name": "functional_1/tf_op_layer_concat_10/concat_10/axis", "shape": [], "dtype": "int32"}, {"name": "functional_1/conv2d_25/Conv2D/ReadVariableOp/resource", "shape": [3, 3, 64, 128], "dtype": "float32", "quantization": {"dtype": "float16", "original_dtype": "float32"}}, {"name": "functional_1/tf_op_layer_Add_26/Add_26/y", "shape": [128], "dtype": "float32", "quantization": {"dtype": "float16", "original_dtype": "float32"}}, {"name": "functional_1/conv2d_7/Conv2D/SpaceToBatchND/block_shape", "shape": [2], "dtype": "int32"}, {"name": "functional_1/conv2d_7/Conv2D/SpaceToBatchND/paddings", "shape": [2, 2], "dtype": "int32"}, {"name": "functional_1/conv2d_7/Conv2D/ReadVariableOp/resource", "shape": [3, 3, 32, 32], "dtype": "float32", "quantization": {"dtype": "float16", "original_dtype": "float32"}}, {"name": "functional_1/conv2d_7/Conv2D/BatchToSpaceND/block_shape", "shape": [2], "dtype": "int32"}, {"name": "functional_1/conv2d_7/Conv2D/BatchToSpaceND/crops", "shape": [2, 2], "dtype": "int32"}, {"name": "functional_1/tf_op_layer_Add_7/Add_7/y", "shape": [32], "dtype": "float32", "quantization": {"dtype": "float16", "original_dtype": "float32"}}, {"name": "functional_1/conv2d_6/Conv2D/ReadVariableOp/resource", "shape": [3, 3, 32, 32], "dtype": "float32", "quantization": {"dtype": "float16", "original_dtype": "float32"}}, {"name": "functional_1/tf_op_layer_Add_6/Add_6/y", "shape": [32], "dtype": "float32", "quantization": {"dtype": "float16", "original_dtype": "float32"}}, {"name": "functional_1/tf_op_layer_concat/concat/axis", "shape": [], "dtype": "int32"}, {"name": "functional_1/conv2d_8/Conv2D/ReadVariableOp/resource", "shape": [3, 3, 64, 32], "dtype": "float32", "quantization": {"dtype": "float16", "original_dtype": "float32"}}, {"name": "functional_1/tf_op_layer_Add_8/Add_8/y", "shape": [32], "dtype": "float32", "quantization": {"dtype": "float16", "original_dtype": "float32"}}, {"name": "functional_1/tf_op_layer_ResizeBilinear/ResizeBilinear/size", "shape": [2], "dtype": "int32"}, {"name": "functional_1/conv2d_5/Conv2D/ReadVariableOp/resource", "shape": [3, 3, 32, 32], "dtype": "float32", "quantization": {"dtype": "float16", "original_dtype": "float32"}}, {"name": "functional_1/tf_op_layer_Add_5/Add_5/y", "shape": [32], "dtype": "float32", "quantization": {"dtype": "float16", "original_dtype": "float32"}}, {"name": "functional_1/tf_op_layer_concat_1/concat_1/axis", "shape": [], "dtype": "int32"}, {"name": "functional_1/conv2d_9/Conv2D/ReadVariableOp/resource", "shape": [3, 3, 64, 32], "dtype": "float32", "quantization": {"dtype": "float16", "original_dtype": "float32"}}, {"name": "functional_1/tf_op_layer_Add_9/Add_9/y", "shape": [32], "dtype": "float32", "quantization": {"dtype": "float16", "original_dtype": "float32"}}, {"name": "functional_1/tf_op_layer_ResizeBilinear_1/ResizeBilinear_1/size", "shape": [2], "dtype": "int32"}, {"name": "functional_1/conv2d_4/Conv2D/ReadVariableOp/resource", "shape": [3, 3, 32, 32], "dtype": "float32", "quantization": {"dtype": "float16", "original_dtype": "float32"}}, {"name": "functional_1/tf_op_layer_Add_4/Add_4/y", "shape": [32], "dtype": "float32", "quantization": {"dtype": "float16", "original_dtype": "float32"}}, {"name": "functional_1/tf_op_layer_concat_2/concat_2/axis", "shape": [], "dtype": "int32"}, {"name": "functional_1/conv2d_10/Conv2D/ReadVariableOp/resource", "shape": [3, 3, 64, 32], "dtype": "float32", "quantization": {"dtype": "float16", "original_dtype": "float32"}}, {"name": "functional_1/tf_op_layer_Add_10/Add_10/y", "shape": [32], "dtype": "float32", "quantization": {"dtype": "float16", "original_dtype": "float32"}}, {"name": "functional_1/tf_op_layer_ResizeBilinear_2/ResizeBilinear_2/size", "shape": [2], "dtype": "int32"}, {"name": "functional_1/conv2d_3/Conv2D/ReadVariableOp/resource", "shape": [3, 3, 32, 32], "dtype": "float32", "quantization": {"dtype": "float16", "original_dtype": "float32"}}, {"name": "functional_1/tf_op_layer_Add_3/Add_3/y", "shape": [32], "dtype": "float32", "quantization": {"dtype": "float16", "original_dtype": "float32"}}, {"name": "functional_1/tf_op_layer_concat_3/concat_3/axis", "shape": [], "dtype": "int32"}, {"name": "functional_1/conv2d_11/Conv2D/ReadVariableOp/resource", "shape": [3, 3, 64, 32], "dtype": "float32", "quantization": {"dtype": "float16", "original_dtype": "float32"}}, {"name": "functional_1/tf_op_layer_Add_11/Add_11/y", "shape": [32], "dtype": "float32", "quantization": {"dtype": "float16", "original_dtype": "float32"}}, {"name": "functional_1/tf_op_layer_ResizeBilinear_3/ResizeBilinear_3/size", "shape": [2], "dtype": "int32"}, {"name": "functional_1/conv2d_2/Conv2D/ReadVariableOp/resource", "shape": [3, 3, 32, 32], "dtype": "float32", "quantization": {"dtype": "float16", "original_dtype": "float32"}}, {"name": "functional_1/tf_op_layer_Add_2/Add_2/y", "shape": [32], "dtype": "float32", "quantization": {"dtype": "float16", "original_dtype": "float32"}}, {"name": "functional_1/tf_op_layer_concat_4/concat_4/axis", "shape": [], "dtype": "int32"}, {"name": "functional_1/conv2d_12/Conv2D/ReadVariableOp/resource", "shape": [3, 3, 64, 32], "dtype": "float32", "quantization": {"dtype": "float16", "original_dtype": "float32"}}, {"name": "functional_1/tf_op_layer_Add_12/Add_12/y", "shape": [32], "dtype": "float32", "quantization": {"dtype": "float16", "original_dtype": "float32"}}, {"name": "functional_1/tf_op_layer_ResizeBilinear_4/ResizeBilinear_4/size", "shape": [2], "dtype": "int32"}, {"name": "functional_1/conv2d_1/Conv2D/ReadVariableOp/resource", "shape": [3, 3, 64, 32], "dtype": "float32", "quantization": {"dtype": "float16", "original_dtype": "float32"}}, {"name": "functional_1/tf_op_layer_Add_1/Add_1/y", "shape": [32], "dtype": "float32", "quantization": {"dtype": "float16", "original_dtype": "float32"}}, {"name": "functional_1/tf_op_layer_concat_5/concat_5/axis", "shape": [], "dtype": "int32"}, {"name": "functional_1/conv2d_13/Conv2D/ReadVariableOp/resource", "shape": [3, 3, 64, 64], "dtype": "float32", "quantization": {"dtype": "float16", "original_dtype": "float32"}}, {"name": "functional_1/tf_op_layer_Add_13/Add_13/y", "shape": [64], "dtype": "float32", "quantization": {"dtype": "float16", "original_dtype": "float32"}}, {"name": "functional_1/conv2d/Conv2D/ReadVariableOp/resource", "shape": [3, 3, 3, 64], "dtype": "float32", "quantization": {"dtype": "float16", "original_dtype": "float32"}}, {"name": "functional_1/tf_op_layer_Add/Add/y", "shape": [64], "dtype": "float32", "quantization": {"dtype": "float16", "original_dtype": "float32"}}, {"name": "functional_1/conv2d_14/Conv2D/ReadVariableOp/resource", "shape": [3, 3, 64, 128], "dtype": "float32", "quantization": {"dtype": "float16", "original_dtype": "float32"}}, {"name": "functional_1/tf_op_layer_Add_15/Add_15/y", "shape": [128], "dtype": "float32", "quantization": {"dtype": "float16", "original_dtype": "float32"}}, {"name": "functional_1/conv2d_26/Conv2D/ReadVariableOp/resource", "shape": [3, 3, 128, 256], "dtype": "float32", "quantization": {"dtype": "float16", "original_dtype": "float32"}}, {"name": "functional_1/tf_op_layer_Add_28/Add_28/y", "shape": [256], "dtype": "float32", "quantization": {"dtype": "float16", "original_dtype": "float32"}}, {"name": "functional_1/conv2d_36/Conv2D/ReadVariableOp/resource", "shape": [3, 3, 256, 512], "dtype": "float32", "quantization": {"dtype": "float16", "original_dtype": "float32"}}, {"name": "functional_1/tf_op_layer_Add_39/Add_39/y", "shape": [512], "dtype": "float32", "quantization": {"dtype": "float16", "original_dtype": "float32"}}, {"name": "functional_1/conv2d_44/Conv2D/ReadVariableOp/resource", "shape": [3, 3, 512, 512], "dtype": "float32", "quantization": {"dtype": "float16", "original_dtype": "float32"}}, {"name": "functional_1/tf_op_layer_Add_48/Add_48/y", "shape": [512], "dtype": "float32", "quantization": {"dtype": "float16", "original_dtype": "float32"}}, {"name": "functional_1/conv2d_52/Conv2D/ReadVariableOp/resource", "shape": [3, 3, 512, 512], "dtype": "float32", "quantization": {"dtype": "float16", "original_dtype": "float32"}}, {"name": "functional_1/tf_op_layer_Add_57/Add_57/y", "shape": [512], "dtype": "float32", "quantization": {"dtype": "float16", "original_dtype": "float32"}}, {"name": "functional_1/conv2d_117/Conv2D/ReadVariableOp/resource", "shape": [3, 3, 512, 1], "dtype": "float32", "quantization": {"dtype": "float16", "original_dtype": "float32"}}, {"name": "functional_1/tf_op_layer_Add_128/Add_128/y", "shape": [1], "dtype": "float32", "quantization": {"dtype": "float16", "original_dtype": "float32"}}, {"name": "functional_1/tf_op_layer_ResizeBilinear_37/ResizeBilinear_37/size", "shape": [2], "dtype": "int32"}]}]}