{"format": "graph-model", "generatedBy": "2.3.0", "convertedBy": "TensorFlow.js Converter v2.3.0", "userDefinedMetadata": {"signature": {"inputs": {"input_tensor:0": {"name": "input_tensor:0", "dtype": "DT_FLOAT", "tensorShape": {"dim": [{"size": "1"}, {"size": "256"}, {"size": "256"}, {"size": "3"}]}}}, "outputs": {"final_output:0": {"name": "final_output:0", "dtype": "DT_INT64", "tensorShape": {"dim": [{"size": "256"}, {"size": "256"}]}}}}}, "modelTopology": {"node": [{"name": "BiseNetV2/aggregation_branch/guided_aggregation_block/detail_branch/1x1_conv_block/W", "op": "Const", "attr": {"value": {"tensor": {"dtype": "DT_FLOAT", "tensorShape": {"dim": [{"size": "1"}, {"size": "1"}, {"size": "128"}, {"size": "128"}]}}}, "dtype": {"type": "DT_FLOAT"}}}, {"name": "BiseNetV2/aggregation_branch/guided_aggregation_block/semantic_branch/semantic_upsample_features/size", "op": "Const", "attr": {"dtype": {"type": "DT_INT32"}, "value": {"tensor": {"dtype": "DT_INT32", "tensorShape": {"dim": [{"size": "2"}]}}}}}, {"name": "BiseNetV2/semantic_branch/stage_5/ce_block_3_repeat_1/context_embedding_block/global_avg_pooling/reduction_indices", "op": "Const", "attr": {"dtype": {"type": "DT_INT32"}, "value": {"tensor": {"dtype": "DT_INT32", "tensorShape": {"dim": [{"size": "2"}]}}}}}, {"name": "BiseNetV2/semantic_branch/stage_1/se_block_1_repeat_1/stem_block/concate_features/axis", "op": "Const", "attr": {"value": {"tensor": {"dtype": "DT_INT32", "tensorShape": {}}}, "dtype": {"type": "DT_INT32"}}}, {"name": "BiseNetV2/semantic_branch/stage_5/ce_block_3_repeat_1/context_embedding_block/final_conv_block/W", "op": "Const", "attr": {"value": {"tensor": {"dtype": "DT_FLOAT", "tensorShape": {"dim": [{"size": "3"}, {"size": "3"}, {"size": "128"}, {"size": "128"}]}}}, "dtype": {"type": "DT_FLOAT"}}}, {"name": "BiseNetV2/aggregation_branch/guided_aggregation_block/semantic_branch/1x1_conv_block/W", "op": "Const", "attr": {"value": {"tensor": {"dtype": "DT_FLOAT", "tensorShape": {"dim": [{"size": "1"}, {"size": "1"}, {"size": "128"}, {"size": "128"}]}}}, "dtype": {"type": "DT_FLOAT"}}}, {"name": "BiseNetV2/aggregation_branch/guided_aggregation_block/aggregation_features/guided_upsample_features/size", "op": "Const", "attr": {"value": {"tensor": {"dtype": "DT_INT32", "tensorShape": {"dim": [{"size": "2"}]}}}, "dtype": {"type": "DT_INT32"}}}, {"name": "BiseNetV2/logits/1x1_conv_block/W", "op": "Const", "attr": {"value": {"tensor": {"dtype": "DT_FLOAT", "tensorShape": {"dim": [{"size": "1"}, {"size": "1"}, {"size": "256"}, {"size": "19"}]}}}, "dtype": {"type": "DT_FLOAT"}}}, {"name": "BiseNetV2/logits/segmentation_head_logits/size", "op": "Const", "attr": {"value": {"tensor": {"dtype": "DT_INT32", "tensorShape": {"dim": [{"size": "2"}]}}}, "dtype": {"type": "DT_INT32"}}}, {"name": "BiseNetV2/prediction/dimension", "op": "Const", "attr": {"dtype": {"type": "DT_INT32"}, "value": {"tensor": {"dtype": "DT_INT32", "tensorShape": {}}}}}, {"name": "input_tensor", "op": "Placeholder", "attr": {"dtype": {"type": "DT_FLOAT"}, "shape": {"shape": {"dim": [{"size": "1"}, {"size": "256"}, {"size": "256"}, {"size": "3"}]}}}}, {"name": "BiseNetV2/detail_branch/stage_1/conv_block_1_repeat_1/3x3_conv/conv/Conv2D_weights", "op": "Const", "attr": {"value": {"tensor": {"dtype": "DT_FLOAT", "tensorShape": {"dim": [{"size": "3"}, {"size": "3"}, {"size": "3"}, {"size": "64"}]}}}, "dtype": {"type": "DT_FLOAT"}}}, {"name": "BiseNetV2/detail_branch/stage_1/conv_block_1_repeat_1/3x3_conv/conv/Conv2D_bn_offset", "op": "Const", "attr": {"dtype": {"type": "DT_FLOAT"}, "value": {"tensor": {"dtype": "DT_FLOAT", "tensorShape": {"dim": [{"size": "64"}]}}}}}, {"name": "BiseNetV2/semantic_branch/stage_5/ge_block_2_repeat_3/gather_expansion_block/stride_equal_one_module/depthwise_conv_block/depthwise_conv_output_weights", "op": "Const", "attr": {"value": {"tensor": {"dtype": "DT_FLOAT", "tensorShape": {"dim": [{"size": "3"}, {"size": "3"}, {"size": "128"}, {"size": "6"}]}}}, "dtype": {"type": "DT_FLOAT"}}}, {"name": "BiseNetV2/semantic_branch/stage_1/se_block_1_repeat_1/stem_block/conv_block_1/conv/Conv2D_weights", "op": "Const", "attr": {"value": {"tensor": {"dtype": "DT_FLOAT", "tensorShape": {"dim": [{"size": "3"}, {"size": "3"}, {"size": "3"}, {"size": "16"}]}}}, "dtype": {"type": "DT_FLOAT"}}}, {"name": "BiseNetV2/semantic_branch/stage_1/se_block_1_repeat_1/stem_block/conv_block_1/conv/Conv2D_bn_offset", "op": "Const", "attr": {"dtype": {"type": "DT_FLOAT"}, "value": {"tensor": {"dtype": "DT_FLOAT", "tensorShape": {"dim": [{"size": "16"}]}}}}}, {"name": "BiseNetV2/semantic_branch/stage_5/ge_block_2_repeat_3/gather_expansion_block/stride_equal_one_module/depthwise_conv_block/depthwise_conv_output_bn_offset", "op": "Const", "attr": {"value": {"tensor": {"dtype": "DT_FLOAT", "tensorShape": {"dim": [{"size": "768"}]}}}, "dtype": {"type": "DT_FLOAT"}}}, {"name": "BiseNetV2/detail_branch/stage_1/conv_block_2_repeat_1/3x3_conv/conv/Conv2D_weights", "op": "Const", "attr": {"value": {"tensor": {"dtype": "DT_FLOAT", "tensorShape": {"dim": [{"size": "3"}, {"size": "3"}, {"size": "64"}, {"size": "64"}]}}}, "dtype": {"type": "DT_FLOAT"}}}, {"name": "BiseNetV2/detail_branch/stage_1/conv_block_2_repeat_1/3x3_conv/conv/Conv2D_bn_offset", "op": "Const", "attr": {"value": {"tensor": {"dtype": "DT_FLOAT", "tensorShape": {"dim": [{"size": "64"}]}}}, "dtype": {"type": "DT_FLOAT"}}}, {"name": "BiseNetV2/semantic_branch/stage_5/ge_block_2_repeat_3/gather_expansion_block/stride_equal_one_module/1x1_conv_block/conv/Conv2D_weights", "op": "Const", "attr": {"value": {"tensor": {"dtype": "DT_FLOAT", "tensorShape": {"dim": [{"size": "1"}, {"size": "1"}, {"size": "768"}, {"size": "128"}]}}}, "dtype": {"type": "DT_FLOAT"}}}, {"name": "BiseNetV2/semantic_branch/stage_1/se_block_1_repeat_1/stem_block/downsample_branch_left/1x1_conv_block/conv/Conv2D_weights", "op": "Const", "attr": {"value": {"tensor": {"dtype": "DT_FLOAT", "tensorShape": {"dim": [{"size": "1"}, {"size": "1"}, {"size": "16"}, {"size": "8"}]}}}, "dtype": {"type": "DT_FLOAT"}}}, {"name": "BiseNetV2/semantic_branch/stage_1/se_block_1_repeat_1/stem_block/downsample_branch_left/1x1_conv_block/conv/Conv2D_bn_offset", "op": "Const", "attr": {"value": {"tensor": {"dtype": "DT_FLOAT", "tensorShape": {"dim": [{"size": "8"}]}}}, "dtype": {"type": "DT_FLOAT"}}}, {"name": "BiseNetV2/semantic_branch/stage_5/ge_block_2_repeat_3/gather_expansion_block/stride_equal_one_module/1x1_conv_block/conv/Conv2D_bn_offset", "op": "Const", "attr": {"value": {"tensor": {"dtype": "DT_FLOAT", "tensorShape": {"dim": [{"size": "128"}]}}}, "dtype": {"type": "DT_FLOAT"}}}, {"name": "BiseNetV2/detail_branch/stage_2/conv_block_1_repeat_1/3x3_conv/conv/Conv2D_weights", "op": "Const", "attr": {"dtype": {"type": "DT_FLOAT"}, "value": {"tensor": {"dtype": "DT_FLOAT", "tensorShape": {"dim": [{"size": "3"}, {"size": "3"}, {"size": "64"}, {"size": "64"}]}}}}}, {"name": "BiseNetV2/detail_branch/stage_2/conv_block_1_repeat_1/3x3_conv/conv/Conv2D_bn_offset", "op": "Const", "attr": {"value": {"tensor": {"dtype": "DT_FLOAT", "tensorShape": {"dim": [{"size": "64"}]}}}, "dtype": {"type": "DT_FLOAT"}}}, {"name": "BiseNetV2/semantic_branch/stage_1/se_block_1_repeat_1/stem_block/downsample_branch_left/3x3_conv_block/conv/Conv2D_weights", "op": "Const", "attr": {"value": {"tensor": {"dtype": "DT_FLOAT", "tensorShape": {"dim": [{"size": "3"}, {"size": "3"}, {"size": "8"}, {"size": "16"}]}}}, "dtype": {"type": "DT_FLOAT"}}}, {"name": "BiseNetV2/semantic_branch/stage_1/se_block_1_repeat_1/stem_block/downsample_branch_left/3x3_conv_block/conv/Conv2D_bn_offset", "op": "Const", "attr": {"value": {"tensor": {"dtype": "DT_FLOAT", "tensorShape": {"dim": [{"size": "16"}]}}}, "dtype": {"type": "DT_FLOAT"}}}, {"name": "BiseNetV2/detail_branch/stage_2/conv_block_2_repeat_1/3x3_conv/conv/Conv2D_weights", "op": "Const", "attr": {"value": {"tensor": {"dtype": "DT_FLOAT", "tensorShape": {"dim": [{"size": "3"}, {"size": "3"}, {"size": "64"}, {"size": "64"}]}}}, "dtype": {"type": "DT_FLOAT"}}}, {"name": "BiseNetV2/detail_branch/stage_2/conv_block_2_repeat_1/3x3_conv/conv/Conv2D_bn_offset", "op": "Const", "attr": {"value": {"tensor": {"dtype": "DT_FLOAT", "tensorShape": {"dim": [{"size": "64"}]}}}, "dtype": {"type": "DT_FLOAT"}}}, {"name": "BiseNetV2/semantic_branch/stage_5/ce_block_3_repeat_1/context_embedding_block/conv_block_1/conv/Conv2D_weights", "op": "Const", "attr": {"value": {"tensor": {"dtype": "DT_FLOAT", "tensorShape": {"dim": [{"size": "1"}, {"size": "1"}, {"size": "128"}, {"size": "128"}]}}}, "dtype": {"type": "DT_FLOAT"}}}, {"name": "BiseNetV2/semantic_branch/stage_1/se_block_1_repeat_1/stem_block/final_conv_block/conv/Conv2D_weights", "op": "Const", "attr": {"value": {"tensor": {"dtype": "DT_FLOAT", "tensorShape": {"dim": [{"size": "3"}, {"size": "3"}, {"size": "32"}, {"size": "16"}]}}}, "dtype": {"type": "DT_FLOAT"}}}, {"name": "BiseNetV2/semantic_branch/stage_1/se_block_1_repeat_1/stem_block/final_conv_block/conv/Conv2D_bn_offset", "op": "Const", "attr": {"dtype": {"type": "DT_FLOAT"}, "value": {"tensor": {"dtype": "DT_FLOAT", "tensorShape": {"dim": [{"size": "16"}]}}}}}, {"name": "BiseNetV2/semantic_branch/stage_5/ce_block_3_repeat_1/context_embedding_block/conv_block_1/conv/Conv2D_bn_offset", "op": "Const", "attr": {"dtype": {"type": "DT_FLOAT"}, "value": {"tensor": {"dtype": "DT_FLOAT", "tensorShape": {"dim": [{"size": "128"}]}}}}}, {"name": "BiseNetV2/detail_branch/stage_2/conv_block_2_repeat_2/3x3_conv/conv/Conv2D_weights", "op": "Const", "attr": {"dtype": {"type": "DT_FLOAT"}, "value": {"tensor": {"dtype": "DT_FLOAT", "tensorShape": {"dim": [{"size": "3"}, {"size": "3"}, {"size": "64"}, {"size": "64"}]}}}}}, {"name": "BiseNetV2/detail_branch/stage_2/conv_block_2_repeat_2/3x3_conv/conv/Conv2D_bn_offset", "op": "Const", "attr": {"value": {"tensor": {"dtype": "DT_FLOAT", "tensorShape": {"dim": [{"size": "64"}]}}}, "dtype": {"type": "DT_FLOAT"}}}, {"name": "BiseNetV2/semantic_branch/stage_3/ge_block_1_repeat_1/gather_expansion_block/stride_equal_two_module/input_project_dw_conv_block/depthwise_conv_output_weights", "op": "Const", "attr": {"value": {"tensor": {"dtype": "DT_FLOAT", "tensorShape": {"dim": [{"size": "3"}, {"size": "3"}, {"size": "16"}, {"size": "1"}]}}}, "dtype": {"type": "DT_FLOAT"}}}, {"name": "BiseNetV2/semantic_branch/stage_3/ge_block_1_repeat_1/gather_expansion_block/stride_equal_two_module/input_project_dw_conv_block/depthwise_conv_output_bn_offset", "op": "Const", "attr": {"dtype": {"type": "DT_FLOAT"}, "value": {"tensor": {"dtype": "DT_FLOAT", "tensorShape": {"dim": [{"size": "16"}]}}}}}, {"name": "BiseNetV2/semantic_branch/stage_3/ge_block_1_repeat_1/gather_expansion_block/stride_equal_two_module/3x3_conv_block/conv/Conv2D_weights", "op": "Const", "attr": {"value": {"tensor": {"dtype": "DT_FLOAT", "tensorShape": {"dim": [{"size": "3"}, {"size": "3"}, {"size": "16"}, {"size": "16"}]}}}, "dtype": {"type": "DT_FLOAT"}}}, {"name": "BiseNetV2/semantic_branch/stage_3/ge_block_1_repeat_1/gather_expansion_block/stride_equal_two_module/3x3_conv_block/conv/Conv2D_bn_offset", "op": "Const", "attr": {"value": {"tensor": {"dtype": "DT_FLOAT", "tensorShape": {"dim": [{"size": "16"}]}}}, "dtype": {"type": "DT_FLOAT"}}}, {"name": "BiseNetV2/detail_branch/stage_3/conv_block_1_repeat_1/3x3_conv/conv/Conv2D_weights", "op": "Const", "attr": {"dtype": {"type": "DT_FLOAT"}, "value": {"tensor": {"dtype": "DT_FLOAT", "tensorShape": {"dim": [{"size": "3"}, {"size": "3"}, {"size": "64"}, {"size": "128"}]}}}}}, {"name": "BiseNetV2/aggregation_branch/guided_aggregation_block/semantic_branch/3x3_conv_block/conv/Conv2D_weights", "op": "Const", "attr": {"value": {"tensor": {"dtype": "DT_FLOAT", "tensorShape": {"dim": [{"size": "3"}, {"size": "3"}, {"size": "128"}, {"size": "128"}]}}}, "dtype": {"type": "DT_FLOAT"}}}, {"name": "BiseNetV2/detail_branch/stage_3/conv_block_1_repeat_1/3x3_conv/conv/Conv2D_bn_offset", "op": "Const", "attr": {"value": {"tensor": {"dtype": "DT_FLOAT", "tensorShape": {"dim": [{"size": "128"}]}}}, "dtype": {"type": "DT_FLOAT"}}}, {"name": "BiseNetV2/semantic_branch/stage_3/ge_block_1_repeat_1/gather_expansion_block/stride_equal_two_module/input_project_1x1_conv_block/conv/Conv2D_weights", "op": "Const", "attr": {"value": {"tensor": {"dtype": "DT_FLOAT", "tensorShape": {"dim": [{"size": "1"}, {"size": "1"}, {"size": "16"}, {"size": "32"}]}}}, "dtype": {"type": "DT_FLOAT"}}}, {"name": "BiseNetV2/aggregation_branch/guided_aggregation_block/semantic_branch/3x3_conv_block/conv/Conv2D_bn_offset", "op": "Const", "attr": {"value": {"tensor": {"dtype": "DT_FLOAT", "tensorShape": {"dim": [{"size": "128"}]}}}, "dtype": {"type": "DT_FLOAT"}}}, {"name": "BiseNetV2/semantic_branch/stage_3/ge_block_1_repeat_1/gather_expansion_block/stride_equal_two_module/input_project_1x1_conv_block/conv/Conv2D_bn_offset", "op": "Const", "attr": {"value": {"tensor": {"dtype": "DT_FLOAT", "tensorShape": {"dim": [{"size": "32"}]}}}, "dtype": {"type": "DT_FLOAT"}}}, {"name": "BiseNetV2/semantic_branch/stage_3/ge_block_1_repeat_1/gather_expansion_block/stride_equal_two_module/depthwise_conv_block_1/depthwise_conv_output_weights", "op": "Const", "attr": {"value": {"tensor": {"dtype": "DT_FLOAT", "tensorShape": {"dim": [{"size": "3"}, {"size": "3"}, {"size": "16"}, {"size": "6"}]}}}, "dtype": {"type": "DT_FLOAT"}}}, {"name": "BiseNetV2/semantic_branch/stage_3/ge_block_1_repeat_1/gather_expansion_block/stride_equal_two_module/depthwise_conv_block_1/depthwise_conv_output_bn_offset", "op": "Const", "attr": {"value": {"tensor": {"dtype": "DT_FLOAT", "tensorShape": {"dim": [{"size": "96"}]}}}, "dtype": {"type": "DT_FLOAT"}}}, {"name": "BiseNetV2/detail_branch/stage_3/conv_block_2_repeat_1/3x3_conv/conv/Conv2D_weights", "op": "Const", "attr": {"value": {"tensor": {"dtype": "DT_FLOAT", "tensorShape": {"dim": [{"size": "3"}, {"size": "3"}, {"size": "128"}, {"size": "128"}]}}}, "dtype": {"type": "DT_FLOAT"}}}, {"name": "BiseNetV2/detail_branch/stage_3/conv_block_2_repeat_1/3x3_conv/conv/Conv2D_bn_offset", "op": "Const", "attr": {"dtype": {"type": "DT_FLOAT"}, "value": {"tensor": {"dtype": "DT_FLOAT", "tensorShape": {"dim": [{"size": "128"}]}}}}}, {"name": "BiseNetV2/semantic_branch/stage_3/ge_block_1_repeat_1/gather_expansion_block/stride_equal_two_module/depthwise_conv_block_2/depthwise_conv_output_weights", "op": "Const", "attr": {"value": {"tensor": {"dtype": "DT_FLOAT", "tensorShape": {"dim": [{"size": "3"}, {"size": "3"}, {"size": "96"}, {"size": "1"}]}}}, "dtype": {"type": "DT_FLOAT"}}}, {"name": "BiseNetV2/semantic_branch/stage_3/ge_block_1_repeat_1/gather_expansion_block/stride_equal_two_module/depthwise_conv_block_2/depthwise_conv_output_bn_offset", "op": "Const", "attr": {"value": {"tensor": {"dtype": "DT_FLOAT", "tensorShape": {"dim": [{"size": "96"}]}}}, "dtype": {"type": "DT_FLOAT"}}}, {"name": "BiseNetV2/semantic_branch/stage_3/ge_block_1_repeat_1/gather_expansion_block/stride_equal_two_module/1x1_conv_block/conv/Conv2D_weights", "op": "Const", "attr": {"value": {"tensor": {"dtype": "DT_FLOAT", "tensorShape": {"dim": [{"size": "1"}, {"size": "1"}, {"size": "96"}, {"size": "32"}]}}}, "dtype": {"type": "DT_FLOAT"}}}, {"name": "BiseNetV2/semantic_branch/stage_3/ge_block_1_repeat_1/gather_expansion_block/stride_equal_two_module/1x1_conv_block/conv/Conv2D_bn_offset", "op": "Const", "attr": {"dtype": {"type": "DT_FLOAT"}, "value": {"tensor": {"dtype": "DT_FLOAT", "tensorShape": {"dim": [{"size": "32"}]}}}}}, {"name": "BiseNetV2/detail_branch/stage_3/conv_block_2_repeat_2/3x3_conv/conv/Conv2D_weights", "op": "Const", "attr": {"value": {"tensor": {"dtype": "DT_FLOAT", "tensorShape": {"dim": [{"size": "3"}, {"size": "3"}, {"size": "128"}, {"size": "128"}]}}}, "dtype": {"type": "DT_FLOAT"}}}, {"name": "BiseNetV2/detail_branch/stage_3/conv_block_2_repeat_2/3x3_conv/conv/Conv2D_bn_offset", "op": "Const", "attr": {"value": {"tensor": {"dtype": "DT_FLOAT", "tensorShape": {"dim": [{"size": "128"}]}}}, "dtype": {"type": "DT_FLOAT"}}}, {"name": "BiseNetV2/aggregation_branch/guided_aggregation_block/detail_branch/3x3_dw_conv_block/depthwise_conv_output_weights", "op": "Const", "attr": {"value": {"tensor": {"dtype": "DT_FLOAT", "tensorShape": {"dim": [{"size": "3"}, {"size": "3"}, {"size": "128"}, {"size": "1"}]}}}, "dtype": {"type": "DT_FLOAT"}}}, {"name": "BiseNetV2/aggregation_branch/guided_aggregation_block/detail_branch/3x3_dw_conv_block/depthwise_conv_output_bn_offset", "op": "Const", "attr": {"value": {"tensor": {"dtype": "DT_FLOAT", "tensorShape": {"dim": [{"size": "128"}]}}}, "dtype": {"type": "DT_FLOAT"}}}, {"name": "BiseNetV2/aggregation_branch/guided_aggregation_block/detail_branch/3x3_conv_block/conv/Conv2D_weights", "op": "Const", "attr": {"value": {"tensor": {"dtype": "DT_FLOAT", "tensorShape": {"dim": [{"size": "3"}, {"size": "3"}, {"size": "128"}, {"size": "128"}]}}}, "dtype": {"type": "DT_FLOAT"}}}, {"name": "BiseNetV2/aggregation_branch/guided_aggregation_block/semantic_branch/3x3_dw_conv_block/depthwise_conv_output_weights", "op": "Const", "attr": {"value": {"tensor": {"dtype": "DT_FLOAT", "tensorShape": {"dim": [{"size": "3"}, {"size": "3"}, {"size": "128"}, {"size": "1"}]}}}, "dtype": {"type": "DT_FLOAT"}}}, {"name": "BiseNetV2/aggregation_branch/guided_aggregation_block/detail_branch/3x3_conv_block/conv/Conv2D_bn_offset", "op": "Const", "attr": {"value": {"tensor": {"dtype": "DT_FLOAT", "tensorShape": {"dim": [{"size": "128"}]}}}, "dtype": {"type": "DT_FLOAT"}}}, {"name": "BiseNetV2/semantic_branch/stage_3/ge_block_2_repeat_1/gather_expansion_block/stride_equal_one_module/3x3_conv_block/conv/Conv2D_weights", "op": "Const", "attr": {"value": {"tensor": {"dtype": "DT_FLOAT", "tensorShape": {"dim": [{"size": "3"}, {"size": "3"}, {"size": "32"}, {"size": "32"}]}}}, "dtype": {"type": "DT_FLOAT"}}}, {"name": "BiseNetV2/semantic_branch/stage_3/ge_block_2_repeat_1/gather_expansion_block/stride_equal_one_module/3x3_conv_block/conv/Conv2D_bn_offset", "op": "Const", "attr": {"value": {"tensor": {"dtype": "DT_FLOAT", "tensorShape": {"dim": [{"size": "32"}]}}}, "dtype": {"type": "DT_FLOAT"}}}, {"name": "BiseNetV2/aggregation_branch/guided_aggregation_block/semantic_branch/3x3_dw_conv_block/depthwise_conv_output_bn_offset", "op": "Const", "attr": {"value": {"tensor": {"dtype": "DT_FLOAT", "tensorShape": {"dim": [{"size": "128"}]}}}, "dtype": {"type": "DT_FLOAT"}}}, {"name": "BiseNetV2/semantic_branch/stage_3/ge_block_2_repeat_1/gather_expansion_block/stride_equal_one_module/depthwise_conv_block/depthwise_conv_output_weights", "op": "Const", "attr": {"value": {"tensor": {"dtype": "DT_FLOAT", "tensorShape": {"dim": [{"size": "3"}, {"size": "3"}, {"size": "32"}, {"size": "6"}]}}}, "dtype": {"type": "DT_FLOAT"}}}, {"name": "BiseNetV2/semantic_branch/stage_3/ge_block_2_repeat_1/gather_expansion_block/stride_equal_one_module/depthwise_conv_block/depthwise_conv_output_bn_offset", "op": "Const", "attr": {"value": {"tensor": {"dtype": "DT_FLOAT", "tensorShape": {"dim": [{"size": "192"}]}}}, "dtype": {"type": "DT_FLOAT"}}}, {"name": "BiseNetV2/semantic_branch/stage_3/ge_block_2_repeat_1/gather_expansion_block/stride_equal_one_module/1x1_conv_block/conv/Conv2D_weights", "op": "Const", "attr": {"value": {"tensor": {"dtype": "DT_FLOAT", "tensorShape": {"dim": [{"size": "1"}, {"size": "1"}, {"size": "192"}, {"size": "32"}]}}}, "dtype": {"type": "DT_FLOAT"}}}, {"name": "BiseNetV2/semantic_branch/stage_3/ge_block_2_repeat_1/gather_expansion_block/stride_equal_one_module/1x1_conv_block/conv/Conv2D_bn_offset", "op": "Const", "attr": {"dtype": {"type": "DT_FLOAT"}, "value": {"tensor": {"dtype": "DT_FLOAT", "tensorShape": {"dim": [{"size": "32"}]}}}}}, {"name": "BiseNetV2/semantic_branch/stage_4/ge_block_1_repeat_1/gather_expansion_block/stride_equal_two_module/input_project_dw_conv_block/depthwise_conv_output_weights", "op": "Const", "attr": {"value": {"tensor": {"dtype": "DT_FLOAT", "tensorShape": {"dim": [{"size": "3"}, {"size": "3"}, {"size": "32"}, {"size": "1"}]}}}, "dtype": {"type": "DT_FLOAT"}}}, {"name": "BiseNetV2/semantic_branch/stage_4/ge_block_1_repeat_1/gather_expansion_block/stride_equal_two_module/input_project_dw_conv_block/depthwise_conv_output_bn_offset", "op": "Const", "attr": {"value": {"tensor": {"dtype": "DT_FLOAT", "tensorShape": {"dim": [{"size": "32"}]}}}, "dtype": {"type": "DT_FLOAT"}}}, {"name": "BiseNetV2/semantic_branch/stage_4/ge_block_1_repeat_1/gather_expansion_block/stride_equal_two_module/3x3_conv_block/conv/Conv2D_weights", "op": "Const", "attr": {"value": {"tensor": {"dtype": "DT_FLOAT", "tensorShape": {"dim": [{"size": "3"}, {"size": "3"}, {"size": "32"}, {"size": "32"}]}}}, "dtype": {"type": "DT_FLOAT"}}}, {"name": "BiseNetV2/semantic_branch/stage_4/ge_block_1_repeat_1/gather_expansion_block/stride_equal_two_module/3x3_conv_block/conv/Conv2D_bn_offset", "op": "Const", "attr": {"value": {"tensor": {"dtype": "DT_FLOAT", "tensorShape": {"dim": [{"size": "32"}]}}}, "dtype": {"type": "DT_FLOAT"}}}, {"name": "BiseNetV2/semantic_branch/stage_4/ge_block_1_repeat_1/gather_expansion_block/stride_equal_two_module/input_project_1x1_conv_block/conv/Conv2D_weights", "op": "Const", "attr": {"value": {"tensor": {"dtype": "DT_FLOAT", "tensorShape": {"dim": [{"size": "1"}, {"size": "1"}, {"size": "32"}, {"size": "64"}]}}}, "dtype": {"type": "DT_FLOAT"}}}, {"name": "BiseNetV2/semantic_branch/stage_4/ge_block_1_repeat_1/gather_expansion_block/stride_equal_two_module/input_project_1x1_conv_block/conv/Conv2D_bn_offset", "op": "Const", "attr": {"dtype": {"type": "DT_FLOAT"}, "value": {"tensor": {"dtype": "DT_FLOAT", "tensorShape": {"dim": [{"size": "64"}]}}}}}, {"name": "BiseNetV2/semantic_branch/stage_4/ge_block_1_repeat_1/gather_expansion_block/stride_equal_two_module/depthwise_conv_block_1/depthwise_conv_output_weights", "op": "Const", "attr": {"dtype": {"type": "DT_FLOAT"}, "value": {"tensor": {"dtype": "DT_FLOAT", "tensorShape": {"dim": [{"size": "3"}, {"size": "3"}, {"size": "32"}, {"size": "6"}]}}}}}, {"name": "BiseNetV2/semantic_branch/stage_4/ge_block_1_repeat_1/gather_expansion_block/stride_equal_two_module/depthwise_conv_block_1/depthwise_conv_output_bn_offset", "op": "Const", "attr": {"value": {"tensor": {"dtype": "DT_FLOAT", "tensorShape": {"dim": [{"size": "192"}]}}}, "dtype": {"type": "DT_FLOAT"}}}, {"name": "BiseNetV2/semantic_branch/stage_4/ge_block_1_repeat_1/gather_expansion_block/stride_equal_two_module/depthwise_conv_block_2/depthwise_conv_output_weights", "op": "Const", "attr": {"value": {"tensor": {"dtype": "DT_FLOAT", "tensorShape": {"dim": [{"size": "3"}, {"size": "3"}, {"size": "192"}, {"size": "1"}]}}}, "dtype": {"type": "DT_FLOAT"}}}, {"name": "BiseNetV2/semantic_branch/stage_4/ge_block_1_repeat_1/gather_expansion_block/stride_equal_two_module/depthwise_conv_block_2/depthwise_conv_output_bn_offset", "op": "Const", "attr": {"value": {"tensor": {"dtype": "DT_FLOAT", "tensorShape": {"dim": [{"size": "192"}]}}}, "dtype": {"type": "DT_FLOAT"}}}, {"name": "BiseNetV2/semantic_branch/stage_4/ge_block_1_repeat_1/gather_expansion_block/stride_equal_two_module/1x1_conv_block/conv/Conv2D_weights", "op": "Const", "attr": {"value": {"tensor": {"dtype": "DT_FLOAT", "tensorShape": {"dim": [{"size": "1"}, {"size": "1"}, {"size": "192"}, {"size": "64"}]}}}, "dtype": {"type": "DT_FLOAT"}}}, {"name": "BiseNetV2/semantic_branch/stage_4/ge_block_1_repeat_1/gather_expansion_block/stride_equal_two_module/1x1_conv_block/conv/Conv2D_bn_offset", "op": "Const", "attr": {"value": {"tensor": {"dtype": "DT_FLOAT", "tensorShape": {"dim": [{"size": "64"}]}}}, "dtype": {"type": "DT_FLOAT"}}}, {"name": "BiseNetV2/semantic_branch/stage_4/ge_block_2_repeat_1/gather_expansion_block/stride_equal_one_module/3x3_conv_block/conv/Conv2D_weights", "op": "Const", "attr": {"value": {"tensor": {"dtype": "DT_FLOAT", "tensorShape": {"dim": [{"size": "3"}, {"size": "3"}, {"size": "64"}, {"size": "64"}]}}}, "dtype": {"type": "DT_FLOAT"}}}, {"name": "BiseNetV2/semantic_branch/stage_4/ge_block_2_repeat_1/gather_expansion_block/stride_equal_one_module/3x3_conv_block/conv/Conv2D_bn_offset", "op": "Const", "attr": {"value": {"tensor": {"dtype": "DT_FLOAT", "tensorShape": {"dim": [{"size": "64"}]}}}, "dtype": {"type": "DT_FLOAT"}}}, {"name": "BiseNetV2/aggregation_branch/guided_aggregation_block/aggregation_features/aggregation_feature_output/conv/Conv2D_weights", "op": "Const", "attr": {"value": {"tensor": {"dtype": "DT_FLOAT", "tensorShape": {"dim": [{"size": "3"}, {"size": "3"}, {"size": "128"}, {"size": "128"}]}}}, "dtype": {"type": "DT_FLOAT"}}}, {"name": "BiseNetV2/semantic_branch/stage_4/ge_block_2_repeat_1/gather_expansion_block/stride_equal_one_module/depthwise_conv_block/depthwise_conv_output_weights", "op": "Const", "attr": {"value": {"tensor": {"dtype": "DT_FLOAT", "tensorShape": {"dim": [{"size": "3"}, {"size": "3"}, {"size": "64"}, {"size": "6"}]}}}, "dtype": {"type": "DT_FLOAT"}}}, {"name": "BiseNetV2/semantic_branch/stage_4/ge_block_2_repeat_1/gather_expansion_block/stride_equal_one_module/depthwise_conv_block/depthwise_conv_output_bn_offset", "op": "Const", "attr": {"value": {"tensor": {"dtype": "DT_FLOAT", "tensorShape": {"dim": [{"size": "384"}]}}}, "dtype": {"type": "DT_FLOAT"}}}, {"name": "BiseNetV2/semantic_branch/stage_4/ge_block_2_repeat_1/gather_expansion_block/stride_equal_one_module/1x1_conv_block/conv/Conv2D_weights", "op": "Const", "attr": {"value": {"tensor": {"dtype": "DT_FLOAT", "tensorShape": {"dim": [{"size": "1"}, {"size": "1"}, {"size": "384"}, {"size": "64"}]}}}, "dtype": {"type": "DT_FLOAT"}}}, {"name": "BiseNetV2/semantic_branch/stage_5/ce_block_3_repeat_1/context_embedding_block/bn/FusedBatchNormV3/Scaled", "op": "Const", "attr": {"value": {"tensor": {"dtype": "DT_FLOAT", "tensorShape": {"dim": [{"size": "128"}]}}}, "dtype": {"type": "DT_FLOAT"}}}, {"name": "BiseNetV2/semantic_branch/stage_4/ge_block_2_repeat_1/gather_expansion_block/stride_equal_one_module/1x1_conv_block/conv/Conv2D_bn_offset", "op": "Const", "attr": {"dtype": {"type": "DT_FLOAT"}, "value": {"tensor": {"dtype": "DT_FLOAT", "tensorShape": {"dim": [{"size": "64"}]}}}}}, {"name": "BiseNetV2/semantic_branch/stage_5/ge_block_1_repeat_1/gather_expansion_block/stride_equal_two_module/input_project_dw_conv_block/depthwise_conv_output_weights", "op": "Const", "attr": {"value": {"tensor": {"dtype": "DT_FLOAT", "tensorShape": {"dim": [{"size": "3"}, {"size": "3"}, {"size": "64"}, {"size": "1"}]}}}, "dtype": {"type": "DT_FLOAT"}}}, {"name": "BiseNetV2/semantic_branch/stage_5/ge_block_1_repeat_1/gather_expansion_block/stride_equal_two_module/input_project_dw_conv_block/depthwise_conv_output_bn_offset", "op": "Const", "attr": {"value": {"tensor": {"dtype": "DT_FLOAT", "tensorShape": {"dim": [{"size": "64"}]}}}, "dtype": {"type": "DT_FLOAT"}}}, {"name": "BiseNetV2/semantic_branch/stage_5/ge_block_1_repeat_1/gather_expansion_block/stride_equal_two_module/3x3_conv_block/conv/Conv2D_weights", "op": "Const", "attr": {"value": {"tensor": {"dtype": "DT_FLOAT", "tensorShape": {"dim": [{"size": "3"}, {"size": "3"}, {"size": "64"}, {"size": "64"}]}}}, "dtype": {"type": "DT_FLOAT"}}}, {"name": "BiseNetV2/aggregation_branch/guided_aggregation_block/aggregation_features/aggregation_feature_output/conv/Conv2D_bn_offset", "op": "Const", "attr": {"value": {"tensor": {"dtype": "DT_FLOAT", "tensorShape": {"dim": [{"size": "128"}]}}}, "dtype": {"type": "DT_FLOAT"}}}, {"name": "BiseNetV2/semantic_branch/stage_5/ge_block_1_repeat_1/gather_expansion_block/stride_equal_two_module/3x3_conv_block/conv/Conv2D_bn_offset", "op": "Const", "attr": {"value": {"tensor": {"dtype": "DT_FLOAT", "tensorShape": {"dim": [{"size": "64"}]}}}, "dtype": {"type": "DT_FLOAT"}}}, {"name": "BiseNetV2/semantic_branch/stage_5/ge_block_1_repeat_1/gather_expansion_block/stride_equal_two_module/input_project_1x1_conv_block/conv/Conv2D_weights", "op": "Const", "attr": {"value": {"tensor": {"dtype": "DT_FLOAT", "tensorShape": {"dim": [{"size": "1"}, {"size": "1"}, {"size": "64"}, {"size": "128"}]}}}, "dtype": {"type": "DT_FLOAT"}}}, {"name": "BiseNetV2/semantic_branch/stage_5/ge_block_1_repeat_1/gather_expansion_block/stride_equal_two_module/input_project_1x1_conv_block/conv/Conv2D_bn_offset", "op": "Const", "attr": {"value": {"tensor": {"dtype": "DT_FLOAT", "tensorShape": {"dim": [{"size": "128"}]}}}, "dtype": {"type": "DT_FLOAT"}}}, {"name": "BiseNetV2/semantic_branch/stage_5/ge_block_1_repeat_1/gather_expansion_block/stride_equal_two_module/depthwise_conv_block_1/depthwise_conv_output_weights", "op": "Const", "attr": {"dtype": {"type": "DT_FLOAT"}, "value": {"tensor": {"dtype": "DT_FLOAT", "tensorShape": {"dim": [{"size": "3"}, {"size": "3"}, {"size": "64"}, {"size": "6"}]}}}}}, {"name": "BiseNetV2/semantic_branch/stage_5/ge_block_1_repeat_1/gather_expansion_block/stride_equal_two_module/depthwise_conv_block_1/depthwise_conv_output_bn_offset", "op": "Const", "attr": {"value": {"tensor": {"dtype": "DT_FLOAT", "tensorShape": {"dim": [{"size": "384"}]}}}, "dtype": {"type": "DT_FLOAT"}}}, {"name": "BiseNetV2/semantic_branch/stage_5/ge_block_1_repeat_1/gather_expansion_block/stride_equal_two_module/depthwise_conv_block_2/depthwise_conv_output_weights", "op": "Const", "attr": {"value": {"tensor": {"dtype": "DT_FLOAT", "tensorShape": {"dim": [{"size": "3"}, {"size": "3"}, {"size": "384"}, {"size": "1"}]}}}, "dtype": {"type": "DT_FLOAT"}}}, {"name": "BiseNetV2/semantic_branch/stage_5/ge_block_1_repeat_1/gather_expansion_block/stride_equal_two_module/depthwise_conv_block_2/depthwise_conv_output_bn_offset", "op": "Const", "attr": {"value": {"tensor": {"dtype": "DT_FLOAT", "tensorShape": {"dim": [{"size": "384"}]}}}, "dtype": {"type": "DT_FLOAT"}}}, {"name": "BiseNetV2/semantic_branch/stage_5/ge_block_1_repeat_1/gather_expansion_block/stride_equal_two_module/1x1_conv_block/conv/Conv2D_weights", "op": "Const", "attr": {"value": {"tensor": {"dtype": "DT_FLOAT", "tensorShape": {"dim": [{"size": "1"}, {"size": "1"}, {"size": "384"}, {"size": "128"}]}}}, "dtype": {"type": "DT_FLOAT"}}}, {"name": "BiseNetV2/logits/3x3_conv_block/conv/Conv2D_weights", "op": "Const", "attr": {"value": {"tensor": {"dtype": "DT_FLOAT", "tensorShape": {"dim": [{"size": "3"}, {"size": "3"}, {"size": "128"}, {"size": "256"}]}}}, "dtype": {"type": "DT_FLOAT"}}}, {"name": "BiseNetV2/semantic_branch/stage_5/ge_block_1_repeat_1/gather_expansion_block/stride_equal_two_module/1x1_conv_block/conv/Conv2D_bn_offset", "op": "Const", "attr": {"value": {"tensor": {"dtype": "DT_FLOAT", "tensorShape": {"dim": [{"size": "128"}]}}}, "dtype": {"type": "DT_FLOAT"}}}, {"name": "BiseNetV2/semantic_branch/stage_5/ge_block_2_repeat_1/gather_expansion_block/stride_equal_one_module/3x3_conv_block/conv/Conv2D_weights", "op": "Const", "attr": {"value": {"tensor": {"dtype": "DT_FLOAT", "tensorShape": {"dim": [{"size": "3"}, {"size": "3"}, {"size": "128"}, {"size": "128"}]}}}, "dtype": {"type": "DT_FLOAT"}}}, {"name": "BiseNetV2/semantic_branch/stage_5/ge_block_2_repeat_1/gather_expansion_block/stride_equal_one_module/3x3_conv_block/conv/Conv2D_bn_offset", "op": "Const", "attr": {"value": {"tensor": {"dtype": "DT_FLOAT", "tensorShape": {"dim": [{"size": "128"}]}}}, "dtype": {"type": "DT_FLOAT"}}}, {"name": "BiseNetV2/logits/3x3_conv_block/conv/Conv2D_bn_offset", "op": "Const", "attr": {"dtype": {"type": "DT_FLOAT"}, "value": {"tensor": {"dtype": "DT_FLOAT", "tensorShape": {"dim": [{"size": "256"}]}}}}}, {"name": "BiseNetV2/semantic_branch/stage_5/ge_block_2_repeat_1/gather_expansion_block/stride_equal_one_module/depthwise_conv_block/depthwise_conv_output_weights", "op": "Const", "attr": {"dtype": {"type": "DT_FLOAT"}, "value": {"tensor": {"dtype": "DT_FLOAT", "tensorShape": {"dim": [{"size": "3"}, {"size": "3"}, {"size": "128"}, {"size": "6"}]}}}}}, {"name": "BiseNetV2/semantic_branch/stage_5/ge_block_2_repeat_1/gather_expansion_block/stride_equal_one_module/depthwise_conv_block/depthwise_conv_output_bn_offset", "op": "Const", "attr": {"value": {"tensor": {"dtype": "DT_FLOAT", "tensorShape": {"dim": [{"size": "768"}]}}}, "dtype": {"type": "DT_FLOAT"}}}, {"name": "BiseNetV2/semantic_branch/stage_5/ge_block_2_repeat_1/gather_expansion_block/stride_equal_one_module/1x1_conv_block/conv/Conv2D_weights", "op": "Const", "attr": {"value": {"tensor": {"dtype": "DT_FLOAT", "tensorShape": {"dim": [{"size": "1"}, {"size": "1"}, {"size": "768"}, {"size": "128"}]}}}, "dtype": {"type": "DT_FLOAT"}}}, {"name": "BiseNetV2/semantic_branch/stage_5/ce_block_3_repeat_1/context_embedding_block/bn/FusedBatchNormV3/Offset", "op": "Const", "attr": {"dtype": {"type": "DT_FLOAT"}, "value": {"tensor": {"dtype": "DT_FLOAT", "tensorShape": {"dim": [{"size": "128"}]}}}}}, {"name": "BiseNetV2/semantic_branch/stage_5/ge_block_2_repeat_1/gather_expansion_block/stride_equal_one_module/1x1_conv_block/conv/Conv2D_bn_offset", "op": "Const", "attr": {"dtype": {"type": "DT_FLOAT"}, "value": {"tensor": {"dtype": "DT_FLOAT", "tensorShape": {"dim": [{"size": "128"}]}}}}}, {"name": "BiseNetV2/semantic_branch/stage_5/ge_block_2_repeat_2/gather_expansion_block/stride_equal_one_module/3x3_conv_block/conv/Conv2D_weights", "op": "Const", "attr": {"value": {"tensor": {"dtype": "DT_FLOAT", "tensorShape": {"dim": [{"size": "3"}, {"size": "3"}, {"size": "128"}, {"size": "128"}]}}}, "dtype": {"type": "DT_FLOAT"}}}, {"name": "BiseNetV2/semantic_branch/stage_5/ge_block_2_repeat_2/gather_expansion_block/stride_equal_one_module/3x3_conv_block/conv/Conv2D_bn_offset", "op": "Const", "attr": {"value": {"tensor": {"dtype": "DT_FLOAT", "tensorShape": {"dim": [{"size": "128"}]}}}, "dtype": {"type": "DT_FLOAT"}}}, {"name": "BiseNetV2/semantic_branch/stage_5/ge_block_2_repeat_2/gather_expansion_block/stride_equal_one_module/depthwise_conv_block/depthwise_conv_output_weights", "op": "Const", "attr": {"value": {"tensor": {"dtype": "DT_FLOAT", "tensorShape": {"dim": [{"size": "3"}, {"size": "3"}, {"size": "128"}, {"size": "6"}]}}}, "dtype": {"type": "DT_FLOAT"}}}, {"name": "BiseNetV2/semantic_branch/stage_5/ge_block_2_repeat_2/gather_expansion_block/stride_equal_one_module/depthwise_conv_block/depthwise_conv_output_bn_offset", "op": "Const", "attr": {"value": {"tensor": {"dtype": "DT_FLOAT", "tensorShape": {"dim": [{"size": "768"}]}}}, "dtype": {"type": "DT_FLOAT"}}}, {"name": "BiseNetV2/semantic_branch/stage_5/ge_block_2_repeat_2/gather_expansion_block/stride_equal_one_module/1x1_conv_block/conv/Conv2D_weights", "op": "Const", "attr": {"value": {"tensor": {"dtype": "DT_FLOAT", "tensorShape": {"dim": [{"size": "1"}, {"size": "1"}, {"size": "768"}, {"size": "128"}]}}}, "dtype": {"type": "DT_FLOAT"}}}, {"name": "BiseNetV2/semantic_branch/stage_5/ge_block_2_repeat_2/gather_expansion_block/stride_equal_one_module/1x1_conv_block/conv/Conv2D_bn_offset", "op": "Const", "attr": {"value": {"tensor": {"dtype": "DT_FLOAT", "tensorShape": {"dim": [{"size": "128"}]}}}, "dtype": {"type": "DT_FLOAT"}}}, {"name": "BiseNetV2/semantic_branch/stage_5/ge_block_2_repeat_3/gather_expansion_block/stride_equal_one_module/3x3_conv_block/conv/Conv2D_weights", "op": "Const", "attr": {"dtype": {"type": "DT_FLOAT"}, "value": {"tensor": {"dtype": "DT_FLOAT", "tensorShape": {"dim": [{"size": "3"}, {"size": "3"}, {"size": "128"}, {"size": "128"}]}}}}}, {"name": "BiseNetV2/semantic_branch/stage_5/ge_block_2_repeat_3/gather_expansion_block/stride_equal_one_module/3x3_conv_block/conv/Conv2D_bn_offset", "op": "Const", "attr": {"dtype": {"type": "DT_FLOAT"}, "value": {"tensor": {"dtype": "DT_FLOAT", "tensorShape": {"dim": [{"size": "128"}]}}}}}, {"name": "BiseNetV2/detail_branch/stage_1/conv_block_1_repeat_1/3x3_conv/relu", "op": "_FusedConv2D", "input": ["input_tensor", "BiseNetV2/detail_branch/stage_1/conv_block_1_repeat_1/3x3_conv/conv/Conv2D_weights", "BiseNetV2/detail_branch/stage_1/conv_block_1_repeat_1/3x3_conv/conv/Conv2D_bn_offset"], "device": "/device:CPU:0", "attr": {"dilations": {"list": {"i": ["1", "1", "1", "1"]}}, "T": {"type": "DT_FLOAT"}, "data_format": {"s": "TkhXQw=="}, "strides": {"list": {"i": ["1", "2", "2", "1"]}}, "explicit_paddings": {"list": {}}, "use_cudnn_on_gpu": {"b": true}, "num_args": {"i": "1"}, "epsilon": {"f": 0.0}, "padding": {"s": "U0FNRQ=="}, "fused_ops": {"list": {"s": ["Qmlhc0FkZA==", "UmVsdQ=="]}}}}, {"name": "BiseNetV2/semantic_branch/stage_1/se_block_1_repeat_1/stem_block/conv_block_1/relu", "op": "_FusedConv2D", "input": ["input_tensor", "BiseNetV2/semantic_branch/stage_1/se_block_1_repeat_1/stem_block/conv_block_1/conv/Conv2D_weights", "BiseNetV2/semantic_branch/stage_1/se_block_1_repeat_1/stem_block/conv_block_1/conv/Conv2D_bn_offset"], "device": "/device:CPU:0", "attr": {"dilations": {"list": {"i": ["1", "1", "1", "1"]}}, "T": {"type": "DT_FLOAT"}, "strides": {"list": {"i": ["1", "2", "2", "1"]}}, "data_format": {"s": "TkhXQw=="}, "use_cudnn_on_gpu": {"b": true}, "explicit_paddings": {"list": {}}, "num_args": {"i": "1"}, "epsilon": {"f": 0.0}, "padding": {"s": "U0FNRQ=="}, "fused_ops": {"list": {"s": ["Qmlhc0FkZA==", "UmVsdQ=="]}}}}, {"name": "BiseNetV2/detail_branch/stage_1/conv_block_2_repeat_1/3x3_conv/relu", "op": "_FusedConv2D", "input": ["BiseNetV2/detail_branch/stage_1/conv_block_1_repeat_1/3x3_conv/relu", "BiseNetV2/detail_branch/stage_1/conv_block_2_repeat_1/3x3_conv/conv/Conv2D_weights", "BiseNetV2/detail_branch/stage_1/conv_block_2_repeat_1/3x3_conv/conv/Conv2D_bn_offset"], "device": "/device:CPU:0", "attr": {"fused_ops": {"list": {"s": ["Qmlhc0FkZA==", "UmVsdQ=="]}}, "dilations": {"list": {"i": ["1", "1", "1", "1"]}}, "T": {"type": "DT_FLOAT"}, "data_format": {"s": "TkhXQw=="}, "strides": {"list": {"i": ["1", "1", "1", "1"]}}, "use_cudnn_on_gpu": {"b": true}, "explicit_paddings": {"list": {}}, "num_args": {"i": "1"}, "epsilon": {"f": 0.0}, "padding": {"s": "U0FNRQ=="}}}, {"name": "BiseNetV2/semantic_branch/stage_1/se_block_1_repeat_1/stem_block/downsample_branch_right/maxpooling_block", "op": "MaxPool", "input": ["BiseNetV2/semantic_branch/stage_1/se_block_1_repeat_1/stem_block/conv_block_1/relu"], "attr": {"ksize": {"list": {"i": ["1", "3", "3", "1"]}}, "padding": {"s": "U0FNRQ=="}, "T": {"type": "DT_FLOAT"}, "strides": {"list": {"i": ["1", "2", "2", "1"]}}, "data_format": {"s": "TkhXQw=="}}}, {"name": "BiseNetV2/semantic_branch/stage_1/se_block_1_repeat_1/stem_block/downsample_branch_left/1x1_conv_block/relu", "op": "_FusedConv2D", "input": ["BiseNetV2/semantic_branch/stage_1/se_block_1_repeat_1/stem_block/conv_block_1/relu", "BiseNetV2/semantic_branch/stage_1/se_block_1_repeat_1/stem_block/downsample_branch_left/1x1_conv_block/conv/Conv2D_weights", "BiseNetV2/semantic_branch/stage_1/se_block_1_repeat_1/stem_block/downsample_branch_left/1x1_conv_block/conv/Conv2D_bn_offset"], "device": "/device:CPU:0", "attr": {"num_args": {"i": "1"}, "epsilon": {"f": 0.0}, "padding": {"s": "U0FNRQ=="}, "fused_ops": {"list": {"s": ["Qmlhc0FkZA==", "UmVsdQ=="]}}, "dilations": {"list": {"i": ["1", "1", "1", "1"]}}, "T": {"type": "DT_FLOAT"}, "strides": {"list": {"i": ["1", "1", "1", "1"]}}, "data_format": {"s": "TkhXQw=="}, "explicit_paddings": {"list": {}}, "use_cudnn_on_gpu": {"b": true}}}, {"name": "BiseNetV2/detail_branch/stage_2/conv_block_1_repeat_1/3x3_conv/relu", "op": "_FusedConv2D", "input": ["BiseNetV2/detail_branch/stage_1/conv_block_2_repeat_1/3x3_conv/relu", "BiseNetV2/detail_branch/stage_2/conv_block_1_repeat_1/3x3_conv/conv/Conv2D_weights", "BiseNetV2/detail_branch/stage_2/conv_block_1_repeat_1/3x3_conv/conv/Conv2D_bn_offset"], "device": "/device:CPU:0", "attr": {"dilations": {"list": {"i": ["1", "1", "1", "1"]}}, "T": {"type": "DT_FLOAT"}, "strides": {"list": {"i": ["1", "2", "2", "1"]}}, "data_format": {"s": "TkhXQw=="}, "explicit_paddings": {"list": {}}, "use_cudnn_on_gpu": {"b": true}, "num_args": {"i": "1"}, "epsilon": {"f": 0.0}, "padding": {"s": "U0FNRQ=="}, "fused_ops": {"list": {"s": ["Qmlhc0FkZA==", "UmVsdQ=="]}}}}, {"name": "BiseNetV2/semantic_branch/stage_1/se_block_1_repeat_1/stem_block/downsample_branch_left/3x3_conv_block/relu", "op": "_FusedConv2D", "input": ["BiseNetV2/semantic_branch/stage_1/se_block_1_repeat_1/stem_block/downsample_branch_left/1x1_conv_block/relu", "BiseNetV2/semantic_branch/stage_1/se_block_1_repeat_1/stem_block/downsample_branch_left/3x3_conv_block/conv/Conv2D_weights", "BiseNetV2/semantic_branch/stage_1/se_block_1_repeat_1/stem_block/downsample_branch_left/3x3_conv_block/conv/Conv2D_bn_offset"], "device": "/device:CPU:0", "attr": {"dilations": {"list": {"i": ["1", "1", "1", "1"]}}, "T": {"type": "DT_FLOAT"}, "strides": {"list": {"i": ["1", "2", "2", "1"]}}, "data_format": {"s": "TkhXQw=="}, "use_cudnn_on_gpu": {"b": true}, "explicit_paddings": {"list": {}}, "num_args": {"i": "1"}, "epsilon": {"f": 0.0}, "padding": {"s": "U0FNRQ=="}, "fused_ops": {"list": {"s": ["Qmlhc0FkZA==", "UmVsdQ=="]}}}}, {"name": "BiseNetV2/detail_branch/stage_2/conv_block_2_repeat_1/3x3_conv/relu", "op": "_FusedConv2D", "input": ["BiseNetV2/detail_branch/stage_2/conv_block_1_repeat_1/3x3_conv/relu", "BiseNetV2/detail_branch/stage_2/conv_block_2_repeat_1/3x3_conv/conv/Conv2D_weights", "BiseNetV2/detail_branch/stage_2/conv_block_2_repeat_1/3x3_conv/conv/Conv2D_bn_offset"], "device": "/device:CPU:0", "attr": {"fused_ops": {"list": {"s": ["Qmlhc0FkZA==", "UmVsdQ=="]}}, "dilations": {"list": {"i": ["1", "1", "1", "1"]}}, "T": {"type": "DT_FLOAT"}, "strides": {"list": {"i": ["1", "1", "1", "1"]}}, "data_format": {"s": "TkhXQw=="}, "explicit_paddings": {"list": {}}, "use_cudnn_on_gpu": {"b": true}, "num_args": {"i": "1"}, "epsilon": {"f": 0.0}, "padding": {"s": "U0FNRQ=="}}}, {"name": "BiseNetV2/semantic_branch/stage_1/se_block_1_repeat_1/stem_block/concate_features", "op": "ConcatV2", "input": ["BiseNetV2/semantic_branch/stage_1/se_block_1_repeat_1/stem_block/downsample_branch_left/3x3_conv_block/relu", "BiseNetV2/semantic_branch/stage_1/se_block_1_repeat_1/stem_block/downsample_branch_right/maxpooling_block", "BiseNetV2/semantic_branch/stage_1/se_block_1_repeat_1/stem_block/concate_features/axis"], "attr": {"T": {"type": "DT_FLOAT"}, "N": {"i": "2"}, "Tidx": {"type": "DT_INT32"}}}, {"name": "BiseNetV2/detail_branch/stage_2/conv_block_2_repeat_2/3x3_conv/relu", "op": "_FusedConv2D", "input": ["BiseNetV2/detail_branch/stage_2/conv_block_2_repeat_1/3x3_conv/relu", "BiseNetV2/detail_branch/stage_2/conv_block_2_repeat_2/3x3_conv/conv/Conv2D_weights", "BiseNetV2/detail_branch/stage_2/conv_block_2_repeat_2/3x3_conv/conv/Conv2D_bn_offset"], "device": "/device:CPU:0", "attr": {"dilations": {"list": {"i": ["1", "1", "1", "1"]}}, "T": {"type": "DT_FLOAT"}, "strides": {"list": {"i": ["1", "1", "1", "1"]}}, "data_format": {"s": "TkhXQw=="}, "explicit_paddings": {"list": {}}, "use_cudnn_on_gpu": {"b": true}, "num_args": {"i": "1"}, "epsilon": {"f": 0.0}, "padding": {"s": "U0FNRQ=="}, "fused_ops": {"list": {"s": ["Qmlhc0FkZA==", "UmVsdQ=="]}}}}, {"name": "BiseNetV2/semantic_branch/stage_1/se_block_1_repeat_1/stem_block/final_conv_block/relu", "op": "_FusedConv2D", "input": ["BiseNetV2/semantic_branch/stage_1/se_block_1_repeat_1/stem_block/concate_features", "BiseNetV2/semantic_branch/stage_1/se_block_1_repeat_1/stem_block/final_conv_block/conv/Conv2D_weights", "BiseNetV2/semantic_branch/stage_1/se_block_1_repeat_1/stem_block/final_conv_block/conv/Conv2D_bn_offset"], "device": "/device:CPU:0", "attr": {"T": {"type": "DT_FLOAT"}, "data_format": {"s": "TkhXQw=="}, "strides": {"list": {"i": ["1", "1", "1", "1"]}}, "explicit_paddings": {"list": {}}, "use_cudnn_on_gpu": {"b": true}, "num_args": {"i": "1"}, "epsilon": {"f": 0.0}, "padding": {"s": "U0FNRQ=="}, "fused_ops": {"list": {"s": ["Qmlhc0FkZA==", "UmVsdQ=="]}}, "dilations": {"list": {"i": ["1", "1", "1", "1"]}}}}, {"name": "BiseNetV2/detail_branch/stage_3/conv_block_1_repeat_1/3x3_conv/relu", "op": "_FusedConv2D", "input": ["BiseNetV2/detail_branch/stage_2/conv_block_2_repeat_2/3x3_conv/relu", "BiseNetV2/detail_branch/stage_3/conv_block_1_repeat_1/3x3_conv/conv/Conv2D_weights", "BiseNetV2/detail_branch/stage_3/conv_block_1_repeat_1/3x3_conv/conv/Conv2D_bn_offset"], "device": "/device:CPU:0", "attr": {"epsilon": {"f": 0.0}, "padding": {"s": "U0FNRQ=="}, "fused_ops": {"list": {"s": ["Qmlhc0FkZA==", "UmVsdQ=="]}}, "dilations": {"list": {"i": ["1", "1", "1", "1"]}}, "T": {"type": "DT_FLOAT"}, "data_format": {"s": "TkhXQw=="}, "strides": {"list": {"i": ["1", "2", "2", "1"]}}, "explicit_paddings": {"list": {}}, "use_cudnn_on_gpu": {"b": true}, "num_args": {"i": "1"}}}, {"name": "BiseNetV2/semantic_branch/stage_3/ge_block_1_repeat_1/gather_expansion_block/stride_equal_two_module/input_project_dw_conv_block/depthwise_conv_output", "op": "FusedDepthwiseConv2dNative", "input": ["BiseNetV2/semantic_branch/stage_1/se_block_1_repeat_1/stem_block/final_conv_block/relu", "BiseNetV2/semantic_branch/stage_3/ge_block_1_repeat_1/gather_expansion_block/stride_equal_two_module/input_project_dw_conv_block/depthwise_conv_output_weights", "BiseNetV2/semantic_branch/stage_3/ge_block_1_repeat_1/gather_expansion_block/stride_equal_two_module/input_project_dw_conv_block/depthwise_conv_output_bn_offset"], "attr": {"fused_ops": {"list": {"s": ["Qmlhc0FkZA=="]}}, "dilations": {"list": {"i": ["1", "1", "1", "1"]}}, "T": {"type": "DT_FLOAT"}, "strides": {"list": {"i": ["1", "2", "2", "1"]}}, "data_format": {"s": "TkhXQw=="}, "explicit_paddings": {"list": {}}, "num_args": {"i": "1"}, "padding": {"s": "U0FNRQ=="}}}, {"name": "BiseNetV2/semantic_branch/stage_3/ge_block_1_repeat_1/gather_expansion_block/stride_equal_two_module/3x3_conv_block/relu", "op": "_FusedConv2D", "input": ["BiseNetV2/semantic_branch/stage_1/se_block_1_repeat_1/stem_block/final_conv_block/relu", "BiseNetV2/semantic_branch/stage_3/ge_block_1_repeat_1/gather_expansion_block/stride_equal_two_module/3x3_conv_block/conv/Conv2D_weights", "BiseNetV2/semantic_branch/stage_3/ge_block_1_repeat_1/gather_expansion_block/stride_equal_two_module/3x3_conv_block/conv/Conv2D_bn_offset"], "device": "/device:CPU:0", "attr": {"num_args": {"i": "1"}, "epsilon": {"f": 0.0}, "padding": {"s": "U0FNRQ=="}, "fused_ops": {"list": {"s": ["Qmlhc0FkZA==", "UmVsdQ=="]}}, "dilations": {"list": {"i": ["1", "1", "1", "1"]}}, "T": {"type": "DT_FLOAT"}, "data_format": {"s": "TkhXQw=="}, "strides": {"list": {"i": ["1", "1", "1", "1"]}}, "use_cudnn_on_gpu": {"b": true}, "explicit_paddings": {"list": {}}}}, {"name": "BiseNetV2/detail_branch/stage_3/conv_block_2_repeat_1/3x3_conv/relu", "op": "_FusedConv2D", "input": ["BiseNetV2/detail_branch/stage_3/conv_block_1_repeat_1/3x3_conv/relu", "BiseNetV2/detail_branch/stage_3/conv_block_2_repeat_1/3x3_conv/conv/Conv2D_weights", "BiseNetV2/detail_branch/stage_3/conv_block_2_repeat_1/3x3_conv/conv/Conv2D_bn_offset"], "device": "/device:CPU:0", "attr": {"num_args": {"i": "1"}, "epsilon": {"f": 0.0}, "padding": {"s": "U0FNRQ=="}, "fused_ops": {"list": {"s": ["Qmlhc0FkZA==", "UmVsdQ=="]}}, "dilations": {"list": {"i": ["1", "1", "1", "1"]}}, "T": {"type": "DT_FLOAT"}, "data_format": {"s": "TkhXQw=="}, "strides": {"list": {"i": ["1", "1", "1", "1"]}}, "use_cudnn_on_gpu": {"b": true}, "explicit_paddings": {"list": {}}}}, {"name": "BiseNetV2/semantic_branch/stage_3/ge_block_1_repeat_1/gather_expansion_block/stride_equal_two_module/depthwise_conv_block_1/depthwise_conv_output", "op": "FusedDepthwiseConv2dNative", "input": ["BiseNetV2/semantic_branch/stage_3/ge_block_1_repeat_1/gather_expansion_block/stride_equal_two_module/3x3_conv_block/relu", "BiseNetV2/semantic_branch/stage_3/ge_block_1_repeat_1/gather_expansion_block/stride_equal_two_module/depthwise_conv_block_1/depthwise_conv_output_weights", "BiseNetV2/semantic_branch/stage_3/ge_block_1_repeat_1/gather_expansion_block/stride_equal_two_module/depthwise_conv_block_1/depthwise_conv_output_bn_offset"], "attr": {"T": {"type": "DT_FLOAT"}, "strides": {"list": {"i": ["1", "2", "2", "1"]}}, "data_format": {"s": "TkhXQw=="}, "explicit_paddings": {"list": {}}, "num_args": {"i": "1"}, "padding": {"s": "U0FNRQ=="}, "fused_ops": {"list": {"s": ["Qmlhc0FkZA=="]}}, "dilations": {"list": {"i": ["1", "1", "1", "1"]}}}}, {"name": "BiseNetV2/detail_branch/stage_3/conv_block_2_repeat_2/3x3_conv/bn/FusedBatchNormV3", "op": "_FusedConv2D", "input": ["BiseNetV2/detail_branch/stage_3/conv_block_2_repeat_1/3x3_conv/relu", "BiseNetV2/detail_branch/stage_3/conv_block_2_repeat_2/3x3_conv/conv/Conv2D_weights", "BiseNetV2/detail_branch/stage_3/conv_block_2_repeat_2/3x3_conv/conv/Conv2D_bn_offset"], "device": "/device:CPU:0", "attr": {"num_args": {"i": "1"}, "epsilon": {"f": 0.0}, "padding": {"s": "U0FNRQ=="}, "fused_ops": {"list": {"s": ["Qmlhc0FkZA=="]}}, "dilations": {"list": {"i": ["1", "1", "1", "1"]}}, "T": {"type": "DT_FLOAT"}, "strides": {"list": {"i": ["1", "1", "1", "1"]}}, "data_format": {"s": "TkhXQw=="}, "use_cudnn_on_gpu": {"b": true}, "explicit_paddings": {"list": {}}}}, {"name": "BiseNetV2/semantic_branch/stage_3/ge_block_1_repeat_1/gather_expansion_block/stride_equal_two_module/input_project_1x1_conv_block/bn/FusedBatchNormV3", "op": "_FusedConv2D", "input": ["BiseNetV2/semantic_branch/stage_3/ge_block_1_repeat_1/gather_expansion_block/stride_equal_two_module/input_project_dw_conv_block/depthwise_conv_output", "BiseNetV2/semantic_branch/stage_3/ge_block_1_repeat_1/gather_expansion_block/stride_equal_two_module/input_project_1x1_conv_block/conv/Conv2D_weights", "BiseNetV2/semantic_branch/stage_3/ge_block_1_repeat_1/gather_expansion_block/stride_equal_two_module/input_project_1x1_conv_block/conv/Conv2D_bn_offset"], "device": "/device:CPU:0", "attr": {"num_args": {"i": "1"}, "epsilon": {"f": 0.0}, "padding": {"s": "U0FNRQ=="}, "fused_ops": {"list": {"s": ["Qmlhc0FkZA=="]}}, "dilations": {"list": {"i": ["1", "1", "1", "1"]}}, "T": {"type": "DT_FLOAT"}, "strides": {"list": {"i": ["1", "1", "1", "1"]}}, "data_format": {"s": "TkhXQw=="}, "use_cudnn_on_gpu": {"b": true}, "explicit_paddings": {"list": {}}}}, {"name": "BiseNetV2/aggregation_branch/guided_aggregation_block/detail_branch/3x3_dw_conv_block/depthwise_conv_output", "op": "FusedDepthwiseConv2dNative", "input": ["BiseNetV2/detail_branch/stage_3/conv_block_2_repeat_2/3x3_conv/bn/FusedBatchNormV3", "BiseNetV2/aggregation_branch/guided_aggregation_block/detail_branch/3x3_dw_conv_block/depthwise_conv_output_weights", "BiseNetV2/aggregation_branch/guided_aggregation_block/detail_branch/3x3_dw_conv_block/depthwise_conv_output_bn_offset"], "attr": {"T": {"type": "DT_FLOAT"}, "strides": {"list": {"i": ["1", "1", "1", "1"]}}, "data_format": {"s": "TkhXQw=="}, "explicit_paddings": {"list": {}}, "num_args": {"i": "1"}, "padding": {"s": "U0FNRQ=="}, "fused_ops": {"list": {"s": ["Qmlhc0FkZA=="]}}, "dilations": {"list": {"i": ["1", "1", "1", "1"]}}}}, {"name": "BiseNetV2/aggregation_branch/guided_aggregation_block/detail_branch/3x3_conv_block/bn/FusedBatchNormV3", "op": "_FusedConv2D", "input": ["BiseNetV2/detail_branch/stage_3/conv_block_2_repeat_2/3x3_conv/bn/FusedBatchNormV3", "BiseNetV2/aggregation_branch/guided_aggregation_block/detail_branch/3x3_conv_block/conv/Conv2D_weights", "BiseNetV2/aggregation_branch/guided_aggregation_block/detail_branch/3x3_conv_block/conv/Conv2D_bn_offset"], "device": "/device:CPU:0", "attr": {"fused_ops": {"list": {"s": ["Qmlhc0FkZA=="]}}, "dilations": {"list": {"i": ["1", "1", "1", "1"]}}, "T": {"type": "DT_FLOAT"}, "data_format": {"s": "TkhXQw=="}, "strides": {"list": {"i": ["1", "2", "2", "1"]}}, "explicit_paddings": {"list": {}}, "use_cudnn_on_gpu": {"b": true}, "num_args": {"i": "1"}, "epsilon": {"f": 0.0}, "padding": {"s": "U0FNRQ=="}}}, {"name": "BiseNetV2/semantic_branch/stage_3/ge_block_1_repeat_1/gather_expansion_block/stride_equal_two_module/depthwise_conv_block_2/depthwise_conv_output", "op": "FusedDepthwiseConv2dNative", "input": ["BiseNetV2/semantic_branch/stage_3/ge_block_1_repeat_1/gather_expansion_block/stride_equal_two_module/depthwise_conv_block_1/depthwise_conv_output", "BiseNetV2/semantic_branch/stage_3/ge_block_1_repeat_1/gather_expansion_block/stride_equal_two_module/depthwise_conv_block_2/depthwise_conv_output_weights", "BiseNetV2/semantic_branch/stage_3/ge_block_1_repeat_1/gather_expansion_block/stride_equal_two_module/depthwise_conv_block_2/depthwise_conv_output_bn_offset"], "attr": {"padding": {"s": "U0FNRQ=="}, "fused_ops": {"list": {"s": ["Qmlhc0FkZA=="]}}, "dilations": {"list": {"i": ["1", "1", "1", "1"]}}, "T": {"type": "DT_FLOAT"}, "strides": {"list": {"i": ["1", "1", "1", "1"]}}, "data_format": {"s": "TkhXQw=="}, "explicit_paddings": {"list": {}}, "num_args": {"i": "1"}}}, {"name": "BiseNetV2/aggregation_branch/guided_aggregation_block/detail_branch/avg_pooling_block", "op": "AvgPool", "input": ["BiseNetV2/aggregation_branch/guided_aggregation_block/detail_branch/3x3_conv_block/bn/FusedBatchNormV3"], "attr": {"T": {"type": "DT_FLOAT"}, "data_format": {"s": "TkhXQw=="}, "strides": {"list": {"i": ["1", "2", "2", "1"]}}, "ksize": {"list": {"i": ["1", "3", "3", "1"]}}, "padding": {"s": "U0FNRQ=="}}}, {"name": "BiseNetV2/aggregation_branch/guided_aggregation_block/detail_branch/1x1_conv_block/Conv2D", "op": "Conv2D", "input": ["BiseNetV2/aggregation_branch/guided_aggregation_block/detail_branch/3x3_dw_conv_block/depthwise_conv_output", "BiseNetV2/aggregation_branch/guided_aggregation_block/detail_branch/1x1_conv_block/W"], "device": "/device:CPU:0", "attr": {"dilations": {"list": {"i": ["1", "1", "1", "1"]}}, "T": {"type": "DT_FLOAT"}, "strides": {"list": {"i": ["1", "1", "1", "1"]}}, "data_format": {"s": "TkhXQw=="}, "use_cudnn_on_gpu": {"b": true}, "explicit_paddings": {"list": {}}, "padding": {"s": "U0FNRQ=="}}}, {"name": "BiseNetV2/semantic_branch/stage_3/ge_block_1_repeat_1/gather_expansion_block/stride_equal_two_module/1x1_conv_block/bn/FusedBatchNormV3", "op": "_FusedConv2D", "input": ["BiseNetV2/semantic_branch/stage_3/ge_block_1_repeat_1/gather_expansion_block/stride_equal_two_module/depthwise_conv_block_2/depthwise_conv_output", "BiseNetV2/semantic_branch/stage_3/ge_block_1_repeat_1/gather_expansion_block/stride_equal_two_module/1x1_conv_block/conv/Conv2D_weights", "BiseNetV2/semantic_branch/stage_3/ge_block_1_repeat_1/gather_expansion_block/stride_equal_two_module/1x1_conv_block/conv/Conv2D_bn_offset"], "device": "/device:CPU:0", "attr": {"dilations": {"list": {"i": ["1", "1", "1", "1"]}}, "T": {"type": "DT_FLOAT"}, "strides": {"list": {"i": ["1", "1", "1", "1"]}}, "data_format": {"s": "TkhXQw=="}, "explicit_paddings": {"list": {}}, "use_cudnn_on_gpu": {"b": true}, "num_args": {"i": "1"}, "epsilon": {"f": 0.0}, "padding": {"s": "U0FNRQ=="}, "fused_ops": {"list": {"s": ["Qmlhc0FkZA=="]}}}}, {"name": "BiseNetV2/semantic_branch/stage_3/ge_block_1_repeat_1/gather_expansion_block/stride_equal_two_module/fused_features", "op": "Add", "input": ["BiseNetV2/semantic_branch/stage_3/ge_block_1_repeat_1/gather_expansion_block/stride_equal_two_module/input_project_1x1_conv_block/bn/FusedBatchNormV3", "BiseNetV2/semantic_branch/stage_3/ge_block_1_repeat_1/gather_expansion_block/stride_equal_two_module/1x1_conv_block/bn/FusedBatchNormV3"], "attr": {"T": {"type": "DT_FLOAT"}}}, {"name": "BiseNetV2/semantic_branch/stage_3/ge_block_1_repeat_1/gather_expansion_block/stride_equal_two_module/ge_output", "op": "Relu", "input": ["BiseNetV2/semantic_branch/stage_3/ge_block_1_repeat_1/gather_expansion_block/stride_equal_two_module/fused_features"], "attr": {"T": {"type": "DT_FLOAT"}}}, {"name": "BiseNetV2/semantic_branch/stage_3/ge_block_2_repeat_1/gather_expansion_block/stride_equal_one_module/3x3_conv_block/relu", "op": "_FusedConv2D", "input": ["BiseNetV2/semantic_branch/stage_3/ge_block_1_repeat_1/gather_expansion_block/stride_equal_two_module/ge_output", "BiseNetV2/semantic_branch/stage_3/ge_block_2_repeat_1/gather_expansion_block/stride_equal_one_module/3x3_conv_block/conv/Conv2D_weights", "BiseNetV2/semantic_branch/stage_3/ge_block_2_repeat_1/gather_expansion_block/stride_equal_one_module/3x3_conv_block/conv/Conv2D_bn_offset"], "device": "/device:CPU:0", "attr": {"dilations": {"list": {"i": ["1", "1", "1", "1"]}}, "T": {"type": "DT_FLOAT"}, "strides": {"list": {"i": ["1", "1", "1", "1"]}}, "data_format": {"s": "TkhXQw=="}, "use_cudnn_on_gpu": {"b": true}, "explicit_paddings": {"list": {}}, "num_args": {"i": "1"}, "epsilon": {"f": 0.0}, "padding": {"s": "U0FNRQ=="}, "fused_ops": {"list": {"s": ["Qmlhc0FkZA==", "UmVsdQ=="]}}}}, {"name": "BiseNetV2/semantic_branch/stage_3/ge_block_2_repeat_1/gather_expansion_block/stride_equal_one_module/depthwise_conv_block/depthwise_conv_output", "op": "FusedDepthwiseConv2dNative", "input": ["BiseNetV2/semantic_branch/stage_3/ge_block_2_repeat_1/gather_expansion_block/stride_equal_one_module/3x3_conv_block/relu", "BiseNetV2/semantic_branch/stage_3/ge_block_2_repeat_1/gather_expansion_block/stride_equal_one_module/depthwise_conv_block/depthwise_conv_output_weights", "BiseNetV2/semantic_branch/stage_3/ge_block_2_repeat_1/gather_expansion_block/stride_equal_one_module/depthwise_conv_block/depthwise_conv_output_bn_offset"], "attr": {"num_args": {"i": "1"}, "padding": {"s": "U0FNRQ=="}, "fused_ops": {"list": {"s": ["Qmlhc0FkZA=="]}}, "dilations": {"list": {"i": ["1", "1", "1", "1"]}}, "T": {"type": "DT_FLOAT"}, "data_format": {"s": "TkhXQw=="}, "strides": {"list": {"i": ["1", "1", "1", "1"]}}, "explicit_paddings": {"list": {}}}}, {"name": "BiseNetV2/semantic_branch/stage_3/ge_block_2_repeat_1/gather_expansion_block/stride_equal_one_module/1x1_conv_block/bn/FusedBatchNormV3", "op": "_FusedConv2D", "input": ["BiseNetV2/semantic_branch/stage_3/ge_block_2_repeat_1/gather_expansion_block/stride_equal_one_module/depthwise_conv_block/depthwise_conv_output", "BiseNetV2/semantic_branch/stage_3/ge_block_2_repeat_1/gather_expansion_block/stride_equal_one_module/1x1_conv_block/conv/Conv2D_weights", "BiseNetV2/semantic_branch/stage_3/ge_block_2_repeat_1/gather_expansion_block/stride_equal_one_module/1x1_conv_block/conv/Conv2D_bn_offset"], "device": "/device:CPU:0", "attr": {"data_format": {"s": "TkhXQw=="}, "strides": {"list": {"i": ["1", "1", "1", "1"]}}, "explicit_paddings": {"list": {}}, "use_cudnn_on_gpu": {"b": true}, "num_args": {"i": "1"}, "epsilon": {"f": 0.0}, "padding": {"s": "U0FNRQ=="}, "fused_ops": {"list": {"s": ["Qmlhc0FkZA=="]}}, "dilations": {"list": {"i": ["1", "1", "1", "1"]}}, "T": {"type": "DT_FLOAT"}}}, {"name": "BiseNetV2/semantic_branch/stage_3/ge_block_2_repeat_1/gather_expansion_block/stride_equal_one_module/fused_features", "op": "Add", "input": ["BiseNetV2/semantic_branch/stage_3/ge_block_1_repeat_1/gather_expansion_block/stride_equal_two_module/ge_output", "BiseNetV2/semantic_branch/stage_3/ge_block_2_repeat_1/gather_expansion_block/stride_equal_one_module/1x1_conv_block/bn/FusedBatchNormV3"], "attr": {"T": {"type": "DT_FLOAT"}}}, {"name": "BiseNetV2/semantic_branch/stage_3/ge_block_2_repeat_1/gather_expansion_block/stride_equal_one_module/ge_output", "op": "Relu", "input": ["BiseNetV2/semantic_branch/stage_3/ge_block_2_repeat_1/gather_expansion_block/stride_equal_one_module/fused_features"], "attr": {"T": {"type": "DT_FLOAT"}}}, {"name": "BiseNetV2/semantic_branch/stage_4/ge_block_1_repeat_1/gather_expansion_block/stride_equal_two_module/input_project_dw_conv_block/depthwise_conv_output", "op": "FusedDepthwiseConv2dNative", "input": ["BiseNetV2/semantic_branch/stage_3/ge_block_2_repeat_1/gather_expansion_block/stride_equal_one_module/ge_output", "BiseNetV2/semantic_branch/stage_4/ge_block_1_repeat_1/gather_expansion_block/stride_equal_two_module/input_project_dw_conv_block/depthwise_conv_output_weights", "BiseNetV2/semantic_branch/stage_4/ge_block_1_repeat_1/gather_expansion_block/stride_equal_two_module/input_project_dw_conv_block/depthwise_conv_output_bn_offset"], "attr": {"strides": {"list": {"i": ["1", "2", "2", "1"]}}, "data_format": {"s": "TkhXQw=="}, "explicit_paddings": {"list": {}}, "num_args": {"i": "1"}, "padding": {"s": "U0FNRQ=="}, "fused_ops": {"list": {"s": ["Qmlhc0FkZA=="]}}, "dilations": {"list": {"i": ["1", "1", "1", "1"]}}, "T": {"type": "DT_FLOAT"}}}, {"name": "BiseNetV2/semantic_branch/stage_4/ge_block_1_repeat_1/gather_expansion_block/stride_equal_two_module/3x3_conv_block/relu", "op": "_FusedConv2D", "input": ["BiseNetV2/semantic_branch/stage_3/ge_block_2_repeat_1/gather_expansion_block/stride_equal_one_module/ge_output", "BiseNetV2/semantic_branch/stage_4/ge_block_1_repeat_1/gather_expansion_block/stride_equal_two_module/3x3_conv_block/conv/Conv2D_weights", "BiseNetV2/semantic_branch/stage_4/ge_block_1_repeat_1/gather_expansion_block/stride_equal_two_module/3x3_conv_block/conv/Conv2D_bn_offset"], "device": "/device:CPU:0", "attr": {"data_format": {"s": "TkhXQw=="}, "strides": {"list": {"i": ["1", "1", "1", "1"]}}, "use_cudnn_on_gpu": {"b": true}, "explicit_paddings": {"list": {}}, "num_args": {"i": "1"}, "epsilon": {"f": 0.0}, "padding": {"s": "U0FNRQ=="}, "fused_ops": {"list": {"s": ["Qmlhc0FkZA==", "UmVsdQ=="]}}, "dilations": {"list": {"i": ["1", "1", "1", "1"]}}, "T": {"type": "DT_FLOAT"}}}, {"name": "BiseNetV2/semantic_branch/stage_4/ge_block_1_repeat_1/gather_expansion_block/stride_equal_two_module/depthwise_conv_block_1/depthwise_conv_output", "op": "FusedDepthwiseConv2dNative", "input": ["BiseNetV2/semantic_branch/stage_4/ge_block_1_repeat_1/gather_expansion_block/stride_equal_two_module/3x3_conv_block/relu", "BiseNetV2/semantic_branch/stage_4/ge_block_1_repeat_1/gather_expansion_block/stride_equal_two_module/depthwise_conv_block_1/depthwise_conv_output_weights", "BiseNetV2/semantic_branch/stage_4/ge_block_1_repeat_1/gather_expansion_block/stride_equal_two_module/depthwise_conv_block_1/depthwise_conv_output_bn_offset"], "attr": {"dilations": {"list": {"i": ["1", "1", "1", "1"]}}, "T": {"type": "DT_FLOAT"}, "strides": {"list": {"i": ["1", "2", "2", "1"]}}, "data_format": {"s": "TkhXQw=="}, "explicit_paddings": {"list": {}}, "num_args": {"i": "1"}, "padding": {"s": "U0FNRQ=="}, "fused_ops": {"list": {"s": ["Qmlhc0FkZA=="]}}}}, {"name": "BiseNetV2/semantic_branch/stage_4/ge_block_1_repeat_1/gather_expansion_block/stride_equal_two_module/input_project_1x1_conv_block/bn/FusedBatchNormV3", "op": "_FusedConv2D", "input": ["BiseNetV2/semantic_branch/stage_4/ge_block_1_repeat_1/gather_expansion_block/stride_equal_two_module/input_project_dw_conv_block/depthwise_conv_output", "BiseNetV2/semantic_branch/stage_4/ge_block_1_repeat_1/gather_expansion_block/stride_equal_two_module/input_project_1x1_conv_block/conv/Conv2D_weights", "BiseNetV2/semantic_branch/stage_4/ge_block_1_repeat_1/gather_expansion_block/stride_equal_two_module/input_project_1x1_conv_block/conv/Conv2D_bn_offset"], "device": "/device:CPU:0", "attr": {"num_args": {"i": "1"}, "epsilon": {"f": 0.0}, "padding": {"s": "U0FNRQ=="}, "fused_ops": {"list": {"s": ["Qmlhc0FkZA=="]}}, "dilations": {"list": {"i": ["1", "1", "1", "1"]}}, "T": {"type": "DT_FLOAT"}, "data_format": {"s": "TkhXQw=="}, "strides": {"list": {"i": ["1", "1", "1", "1"]}}, "use_cudnn_on_gpu": {"b": true}, "explicit_paddings": {"list": {}}}}, {"name": "BiseNetV2/semantic_branch/stage_4/ge_block_1_repeat_1/gather_expansion_block/stride_equal_two_module/depthwise_conv_block_2/depthwise_conv_output", "op": "FusedDepthwiseConv2dNative", "input": ["BiseNetV2/semantic_branch/stage_4/ge_block_1_repeat_1/gather_expansion_block/stride_equal_two_module/depthwise_conv_block_1/depthwise_conv_output", "BiseNetV2/semantic_branch/stage_4/ge_block_1_repeat_1/gather_expansion_block/stride_equal_two_module/depthwise_conv_block_2/depthwise_conv_output_weights", "BiseNetV2/semantic_branch/stage_4/ge_block_1_repeat_1/gather_expansion_block/stride_equal_two_module/depthwise_conv_block_2/depthwise_conv_output_bn_offset"], "attr": {"num_args": {"i": "1"}, "padding": {"s": "U0FNRQ=="}, "fused_ops": {"list": {"s": ["Qmlhc0FkZA=="]}}, "dilations": {"list": {"i": ["1", "1", "1", "1"]}}, "T": {"type": "DT_FLOAT"}, "strides": {"list": {"i": ["1", "1", "1", "1"]}}, "data_format": {"s": "TkhXQw=="}, "explicit_paddings": {"list": {}}}}, {"name": "BiseNetV2/semantic_branch/stage_4/ge_block_1_repeat_1/gather_expansion_block/stride_equal_two_module/1x1_conv_block/bn/FusedBatchNormV3", "op": "_FusedConv2D", "input": ["BiseNetV2/semantic_branch/stage_4/ge_block_1_repeat_1/gather_expansion_block/stride_equal_two_module/depthwise_conv_block_2/depthwise_conv_output", "BiseNetV2/semantic_branch/stage_4/ge_block_1_repeat_1/gather_expansion_block/stride_equal_two_module/1x1_conv_block/conv/Conv2D_weights", "BiseNetV2/semantic_branch/stage_4/ge_block_1_repeat_1/gather_expansion_block/stride_equal_two_module/1x1_conv_block/conv/Conv2D_bn_offset"], "device": "/device:CPU:0", "attr": {"T": {"type": "DT_FLOAT"}, "data_format": {"s": "TkhXQw=="}, "strides": {"list": {"i": ["1", "1", "1", "1"]}}, "use_cudnn_on_gpu": {"b": true}, "explicit_paddings": {"list": {}}, "num_args": {"i": "1"}, "epsilon": {"f": 0.0}, "padding": {"s": "U0FNRQ=="}, "fused_ops": {"list": {"s": ["Qmlhc0FkZA=="]}}, "dilations": {"list": {"i": ["1", "1", "1", "1"]}}}}, {"name": "BiseNetV2/semantic_branch/stage_4/ge_block_1_repeat_1/gather_expansion_block/stride_equal_two_module/fused_features", "op": "Add", "input": ["BiseNetV2/semantic_branch/stage_4/ge_block_1_repeat_1/gather_expansion_block/stride_equal_two_module/input_project_1x1_conv_block/bn/FusedBatchNormV3", "BiseNetV2/semantic_branch/stage_4/ge_block_1_repeat_1/gather_expansion_block/stride_equal_two_module/1x1_conv_block/bn/FusedBatchNormV3"], "attr": {"T": {"type": "DT_FLOAT"}}}, {"name": "BiseNetV2/semantic_branch/stage_4/ge_block_1_repeat_1/gather_expansion_block/stride_equal_two_module/ge_output", "op": "Relu", "input": ["BiseNetV2/semantic_branch/stage_4/ge_block_1_repeat_1/gather_expansion_block/stride_equal_two_module/fused_features"], "attr": {"T": {"type": "DT_FLOAT"}}}, {"name": "BiseNetV2/semantic_branch/stage_4/ge_block_2_repeat_1/gather_expansion_block/stride_equal_one_module/3x3_conv_block/relu", "op": "_FusedConv2D", "input": ["BiseNetV2/semantic_branch/stage_4/ge_block_1_repeat_1/gather_expansion_block/stride_equal_two_module/ge_output", "BiseNetV2/semantic_branch/stage_4/ge_block_2_repeat_1/gather_expansion_block/stride_equal_one_module/3x3_conv_block/conv/Conv2D_weights", "BiseNetV2/semantic_branch/stage_4/ge_block_2_repeat_1/gather_expansion_block/stride_equal_one_module/3x3_conv_block/conv/Conv2D_bn_offset"], "device": "/device:CPU:0", "attr": {"data_format": {"s": "TkhXQw=="}, "strides": {"list": {"i": ["1", "1", "1", "1"]}}, "explicit_paddings": {"list": {}}, "use_cudnn_on_gpu": {"b": true}, "num_args": {"i": "1"}, "epsilon": {"f": 0.0}, "padding": {"s": "U0FNRQ=="}, "fused_ops": {"list": {"s": ["Qmlhc0FkZA==", "UmVsdQ=="]}}, "dilations": {"list": {"i": ["1", "1", "1", "1"]}}, "T": {"type": "DT_FLOAT"}}}, {"name": "BiseNetV2/semantic_branch/stage_4/ge_block_2_repeat_1/gather_expansion_block/stride_equal_one_module/depthwise_conv_block/depthwise_conv_output", "op": "FusedDepthwiseConv2dNative", "input": ["BiseNetV2/semantic_branch/stage_4/ge_block_2_repeat_1/gather_expansion_block/stride_equal_one_module/3x3_conv_block/relu", "BiseNetV2/semantic_branch/stage_4/ge_block_2_repeat_1/gather_expansion_block/stride_equal_one_module/depthwise_conv_block/depthwise_conv_output_weights", "BiseNetV2/semantic_branch/stage_4/ge_block_2_repeat_1/gather_expansion_block/stride_equal_one_module/depthwise_conv_block/depthwise_conv_output_bn_offset"], "attr": {"dilations": {"list": {"i": ["1", "1", "1", "1"]}}, "T": {"type": "DT_FLOAT"}, "strides": {"list": {"i": ["1", "1", "1", "1"]}}, "data_format": {"s": "TkhXQw=="}, "explicit_paddings": {"list": {}}, "num_args": {"i": "1"}, "padding": {"s": "U0FNRQ=="}, "fused_ops": {"list": {"s": ["Qmlhc0FkZA=="]}}}}, {"name": "BiseNetV2/semantic_branch/stage_4/ge_block_2_repeat_1/gather_expansion_block/stride_equal_one_module/1x1_conv_block/bn/FusedBatchNormV3", "op": "_FusedConv2D", "input": ["BiseNetV2/semantic_branch/stage_4/ge_block_2_repeat_1/gather_expansion_block/stride_equal_one_module/depthwise_conv_block/depthwise_conv_output", "BiseNetV2/semantic_branch/stage_4/ge_block_2_repeat_1/gather_expansion_block/stride_equal_one_module/1x1_conv_block/conv/Conv2D_weights", "BiseNetV2/semantic_branch/stage_4/ge_block_2_repeat_1/gather_expansion_block/stride_equal_one_module/1x1_conv_block/conv/Conv2D_bn_offset"], "device": "/device:CPU:0", "attr": {"num_args": {"i": "1"}, "epsilon": {"f": 0.0}, "padding": {"s": "U0FNRQ=="}, "fused_ops": {"list": {"s": ["Qmlhc0FkZA=="]}}, "dilations": {"list": {"i": ["1", "1", "1", "1"]}}, "T": {"type": "DT_FLOAT"}, "data_format": {"s": "TkhXQw=="}, "strides": {"list": {"i": ["1", "1", "1", "1"]}}, "explicit_paddings": {"list": {}}, "use_cudnn_on_gpu": {"b": true}}}, {"name": "BiseNetV2/semantic_branch/stage_4/ge_block_2_repeat_1/gather_expansion_block/stride_equal_one_module/fused_features", "op": "Add", "input": ["BiseNetV2/semantic_branch/stage_4/ge_block_1_repeat_1/gather_expansion_block/stride_equal_two_module/ge_output", "BiseNetV2/semantic_branch/stage_4/ge_block_2_repeat_1/gather_expansion_block/stride_equal_one_module/1x1_conv_block/bn/FusedBatchNormV3"], "attr": {"T": {"type": "DT_FLOAT"}}}, {"name": "BiseNetV2/semantic_branch/stage_4/ge_block_2_repeat_1/gather_expansion_block/stride_equal_one_module/ge_output", "op": "Relu", "input": ["BiseNetV2/semantic_branch/stage_4/ge_block_2_repeat_1/gather_expansion_block/stride_equal_one_module/fused_features"], "attr": {"T": {"type": "DT_FLOAT"}}}, {"name": "BiseNetV2/semantic_branch/stage_5/ge_block_1_repeat_1/gather_expansion_block/stride_equal_two_module/input_project_dw_conv_block/depthwise_conv_output", "op": "FusedDepthwiseConv2dNative", "input": ["BiseNetV2/semantic_branch/stage_4/ge_block_2_repeat_1/gather_expansion_block/stride_equal_one_module/ge_output", "BiseNetV2/semantic_branch/stage_5/ge_block_1_repeat_1/gather_expansion_block/stride_equal_two_module/input_project_dw_conv_block/depthwise_conv_output_weights", "BiseNetV2/semantic_branch/stage_5/ge_block_1_repeat_1/gather_expansion_block/stride_equal_two_module/input_project_dw_conv_block/depthwise_conv_output_bn_offset"], "attr": {"fused_ops": {"list": {"s": ["Qmlhc0FkZA=="]}}, "dilations": {"list": {"i": ["1", "1", "1", "1"]}}, "T": {"type": "DT_FLOAT"}, "strides": {"list": {"i": ["1", "2", "2", "1"]}}, "data_format": {"s": "TkhXQw=="}, "explicit_paddings": {"list": {}}, "num_args": {"i": "1"}, "padding": {"s": "U0FNRQ=="}}}, {"name": "BiseNetV2/semantic_branch/stage_5/ge_block_1_repeat_1/gather_expansion_block/stride_equal_two_module/3x3_conv_block/relu", "op": "_FusedConv2D", "input": ["BiseNetV2/semantic_branch/stage_4/ge_block_2_repeat_1/gather_expansion_block/stride_equal_one_module/ge_output", "BiseNetV2/semantic_branch/stage_5/ge_block_1_repeat_1/gather_expansion_block/stride_equal_two_module/3x3_conv_block/conv/Conv2D_weights", "BiseNetV2/semantic_branch/stage_5/ge_block_1_repeat_1/gather_expansion_block/stride_equal_two_module/3x3_conv_block/conv/Conv2D_bn_offset"], "device": "/device:CPU:0", "attr": {"dilations": {"list": {"i": ["1", "1", "1", "1"]}}, "T": {"type": "DT_FLOAT"}, "strides": {"list": {"i": ["1", "1", "1", "1"]}}, "data_format": {"s": "TkhXQw=="}, "explicit_paddings": {"list": {}}, "use_cudnn_on_gpu": {"b": true}, "num_args": {"i": "1"}, "epsilon": {"f": 0.0}, "padding": {"s": "U0FNRQ=="}, "fused_ops": {"list": {"s": ["Qmlhc0FkZA==", "UmVsdQ=="]}}}}, {"name": "BiseNetV2/semantic_branch/stage_5/ge_block_1_repeat_1/gather_expansion_block/stride_equal_two_module/depthwise_conv_block_1/depthwise_conv_output", "op": "FusedDepthwiseConv2dNative", "input": ["BiseNetV2/semantic_branch/stage_5/ge_block_1_repeat_1/gather_expansion_block/stride_equal_two_module/3x3_conv_block/relu", "BiseNetV2/semantic_branch/stage_5/ge_block_1_repeat_1/gather_expansion_block/stride_equal_two_module/depthwise_conv_block_1/depthwise_conv_output_weights", "BiseNetV2/semantic_branch/stage_5/ge_block_1_repeat_1/gather_expansion_block/stride_equal_two_module/depthwise_conv_block_1/depthwise_conv_output_bn_offset"], "attr": {"padding": {"s": "U0FNRQ=="}, "fused_ops": {"list": {"s": ["Qmlhc0FkZA=="]}}, "dilations": {"list": {"i": ["1", "1", "1", "1"]}}, "T": {"type": "DT_FLOAT"}, "strides": {"list": {"i": ["1", "2", "2", "1"]}}, "data_format": {"s": "TkhXQw=="}, "explicit_paddings": {"list": {}}, "num_args": {"i": "1"}}}, {"name": "BiseNetV2/semantic_branch/stage_5/ge_block_1_repeat_1/gather_expansion_block/stride_equal_two_module/input_project_1x1_conv_block/bn/FusedBatchNormV3", "op": "_FusedConv2D", "input": ["BiseNetV2/semantic_branch/stage_5/ge_block_1_repeat_1/gather_expansion_block/stride_equal_two_module/input_project_dw_conv_block/depthwise_conv_output", "BiseNetV2/semantic_branch/stage_5/ge_block_1_repeat_1/gather_expansion_block/stride_equal_two_module/input_project_1x1_conv_block/conv/Conv2D_weights", "BiseNetV2/semantic_branch/stage_5/ge_block_1_repeat_1/gather_expansion_block/stride_equal_two_module/input_project_1x1_conv_block/conv/Conv2D_bn_offset"], "device": "/device:CPU:0", "attr": {"T": {"type": "DT_FLOAT"}, "strides": {"list": {"i": ["1", "1", "1", "1"]}}, "data_format": {"s": "TkhXQw=="}, "explicit_paddings": {"list": {}}, "use_cudnn_on_gpu": {"b": true}, "num_args": {"i": "1"}, "epsilon": {"f": 0.0}, "padding": {"s": "U0FNRQ=="}, "fused_ops": {"list": {"s": ["Qmlhc0FkZA=="]}}, "dilations": {"list": {"i": ["1", "1", "1", "1"]}}}}, {"name": "BiseNetV2/semantic_branch/stage_5/ge_block_1_repeat_1/gather_expansion_block/stride_equal_two_module/depthwise_conv_block_2/depthwise_conv_output", "op": "FusedDepthwiseConv2dNative", "input": ["BiseNetV2/semantic_branch/stage_5/ge_block_1_repeat_1/gather_expansion_block/stride_equal_two_module/depthwise_conv_block_1/depthwise_conv_output", "BiseNetV2/semantic_branch/stage_5/ge_block_1_repeat_1/gather_expansion_block/stride_equal_two_module/depthwise_conv_block_2/depthwise_conv_output_weights", "BiseNetV2/semantic_branch/stage_5/ge_block_1_repeat_1/gather_expansion_block/stride_equal_two_module/depthwise_conv_block_2/depthwise_conv_output_bn_offset"], "attr": {"fused_ops": {"list": {"s": ["Qmlhc0FkZA=="]}}, "dilations": {"list": {"i": ["1", "1", "1", "1"]}}, "T": {"type": "DT_FLOAT"}, "data_format": {"s": "TkhXQw=="}, "strides": {"list": {"i": ["1", "1", "1", "1"]}}, "explicit_paddings": {"list": {}}, "num_args": {"i": "1"}, "padding": {"s": "U0FNRQ=="}}}, {"name": "BiseNetV2/semantic_branch/stage_5/ge_block_1_repeat_1/gather_expansion_block/stride_equal_two_module/1x1_conv_block/bn/FusedBatchNormV3", "op": "_FusedConv2D", "input": ["BiseNetV2/semantic_branch/stage_5/ge_block_1_repeat_1/gather_expansion_block/stride_equal_two_module/depthwise_conv_block_2/depthwise_conv_output", "BiseNetV2/semantic_branch/stage_5/ge_block_1_repeat_1/gather_expansion_block/stride_equal_two_module/1x1_conv_block/conv/Conv2D_weights", "BiseNetV2/semantic_branch/stage_5/ge_block_1_repeat_1/gather_expansion_block/stride_equal_two_module/1x1_conv_block/conv/Conv2D_bn_offset"], "device": "/device:CPU:0", "attr": {"fused_ops": {"list": {"s": ["Qmlhc0FkZA=="]}}, "dilations": {"list": {"i": ["1", "1", "1", "1"]}}, "T": {"type": "DT_FLOAT"}, "data_format": {"s": "TkhXQw=="}, "strides": {"list": {"i": ["1", "1", "1", "1"]}}, "explicit_paddings": {"list": {}}, "use_cudnn_on_gpu": {"b": true}, "num_args": {"i": "1"}, "epsilon": {"f": 0.0}, "padding": {"s": "U0FNRQ=="}}}, {"name": "BiseNetV2/semantic_branch/stage_5/ge_block_1_repeat_1/gather_expansion_block/stride_equal_two_module/fused_features", "op": "Add", "input": ["BiseNetV2/semantic_branch/stage_5/ge_block_1_repeat_1/gather_expansion_block/stride_equal_two_module/input_project_1x1_conv_block/bn/FusedBatchNormV3", "BiseNetV2/semantic_branch/stage_5/ge_block_1_repeat_1/gather_expansion_block/stride_equal_two_module/1x1_conv_block/bn/FusedBatchNormV3"], "attr": {"T": {"type": "DT_FLOAT"}}}, {"name": "BiseNetV2/semantic_branch/stage_5/ge_block_1_repeat_1/gather_expansion_block/stride_equal_two_module/ge_output", "op": "Relu", "input": ["BiseNetV2/semantic_branch/stage_5/ge_block_1_repeat_1/gather_expansion_block/stride_equal_two_module/fused_features"], "attr": {"T": {"type": "DT_FLOAT"}}}, {"name": "BiseNetV2/semantic_branch/stage_5/ge_block_2_repeat_1/gather_expansion_block/stride_equal_one_module/3x3_conv_block/relu", "op": "_FusedConv2D", "input": ["BiseNetV2/semantic_branch/stage_5/ge_block_1_repeat_1/gather_expansion_block/stride_equal_two_module/ge_output", "BiseNetV2/semantic_branch/stage_5/ge_block_2_repeat_1/gather_expansion_block/stride_equal_one_module/3x3_conv_block/conv/Conv2D_weights", "BiseNetV2/semantic_branch/stage_5/ge_block_2_repeat_1/gather_expansion_block/stride_equal_one_module/3x3_conv_block/conv/Conv2D_bn_offset"], "device": "/device:CPU:0", "attr": {"fused_ops": {"list": {"s": ["Qmlhc0FkZA==", "UmVsdQ=="]}}, "dilations": {"list": {"i": ["1", "1", "1", "1"]}}, "T": {"type": "DT_FLOAT"}, "data_format": {"s": "TkhXQw=="}, "strides": {"list": {"i": ["1", "1", "1", "1"]}}, "explicit_paddings": {"list": {}}, "use_cudnn_on_gpu": {"b": true}, "num_args": {"i": "1"}, "epsilon": {"f": 0.0}, "padding": {"s": "U0FNRQ=="}}}, {"name": "BiseNetV2/semantic_branch/stage_5/ge_block_2_repeat_1/gather_expansion_block/stride_equal_one_module/depthwise_conv_block/depthwise_conv_output", "op": "FusedDepthwiseConv2dNative", "input": ["BiseNetV2/semantic_branch/stage_5/ge_block_2_repeat_1/gather_expansion_block/stride_equal_one_module/3x3_conv_block/relu", "BiseNetV2/semantic_branch/stage_5/ge_block_2_repeat_1/gather_expansion_block/stride_equal_one_module/depthwise_conv_block/depthwise_conv_output_weights", "BiseNetV2/semantic_branch/stage_5/ge_block_2_repeat_1/gather_expansion_block/stride_equal_one_module/depthwise_conv_block/depthwise_conv_output_bn_offset"], "attr": {"num_args": {"i": "1"}, "padding": {"s": "U0FNRQ=="}, "fused_ops": {"list": {"s": ["Qmlhc0FkZA=="]}}, "dilations": {"list": {"i": ["1", "1", "1", "1"]}}, "T": {"type": "DT_FLOAT"}, "strides": {"list": {"i": ["1", "1", "1", "1"]}}, "data_format": {"s": "TkhXQw=="}, "explicit_paddings": {"list": {}}}}, {"name": "BiseNetV2/semantic_branch/stage_5/ge_block_2_repeat_1/gather_expansion_block/stride_equal_one_module/1x1_conv_block/bn/FusedBatchNormV3", "op": "_FusedConv2D", "input": ["BiseNetV2/semantic_branch/stage_5/ge_block_2_repeat_1/gather_expansion_block/stride_equal_one_module/depthwise_conv_block/depthwise_conv_output", "BiseNetV2/semantic_branch/stage_5/ge_block_2_repeat_1/gather_expansion_block/stride_equal_one_module/1x1_conv_block/conv/Conv2D_weights", "BiseNetV2/semantic_branch/stage_5/ge_block_2_repeat_1/gather_expansion_block/stride_equal_one_module/1x1_conv_block/conv/Conv2D_bn_offset"], "device": "/device:CPU:0", "attr": {"data_format": {"s": "TkhXQw=="}, "strides": {"list": {"i": ["1", "1", "1", "1"]}}, "explicit_paddings": {"list": {}}, "use_cudnn_on_gpu": {"b": true}, "num_args": {"i": "1"}, "epsilon": {"f": 0.0}, "padding": {"s": "U0FNRQ=="}, "fused_ops": {"list": {"s": ["Qmlhc0FkZA=="]}}, "dilations": {"list": {"i": ["1", "1", "1", "1"]}}, "T": {"type": "DT_FLOAT"}}}, {"name": "BiseNetV2/semantic_branch/stage_5/ge_block_2_repeat_1/gather_expansion_block/stride_equal_one_module/fused_features", "op": "Add", "input": ["BiseNetV2/semantic_branch/stage_5/ge_block_1_repeat_1/gather_expansion_block/stride_equal_two_module/ge_output", "BiseNetV2/semantic_branch/stage_5/ge_block_2_repeat_1/gather_expansion_block/stride_equal_one_module/1x1_conv_block/bn/FusedBatchNormV3"], "attr": {"T": {"type": "DT_FLOAT"}}}, {"name": "BiseNetV2/semantic_branch/stage_5/ge_block_2_repeat_1/gather_expansion_block/stride_equal_one_module/ge_output", "op": "Relu", "input": ["BiseNetV2/semantic_branch/stage_5/ge_block_2_repeat_1/gather_expansion_block/stride_equal_one_module/fused_features"], "attr": {"T": {"type": "DT_FLOAT"}}}, {"name": "BiseNetV2/semantic_branch/stage_5/ge_block_2_repeat_2/gather_expansion_block/stride_equal_one_module/3x3_conv_block/relu", "op": "_FusedConv2D", "input": ["BiseNetV2/semantic_branch/stage_5/ge_block_2_repeat_1/gather_expansion_block/stride_equal_one_module/ge_output", "BiseNetV2/semantic_branch/stage_5/ge_block_2_repeat_2/gather_expansion_block/stride_equal_one_module/3x3_conv_block/conv/Conv2D_weights", "BiseNetV2/semantic_branch/stage_5/ge_block_2_repeat_2/gather_expansion_block/stride_equal_one_module/3x3_conv_block/conv/Conv2D_bn_offset"], "device": "/device:CPU:0", "attr": {"dilations": {"list": {"i": ["1", "1", "1", "1"]}}, "T": {"type": "DT_FLOAT"}, "strides": {"list": {"i": ["1", "1", "1", "1"]}}, "data_format": {"s": "TkhXQw=="}, "use_cudnn_on_gpu": {"b": true}, "explicit_paddings": {"list": {}}, "num_args": {"i": "1"}, "epsilon": {"f": 0.0}, "padding": {"s": "U0FNRQ=="}, "fused_ops": {"list": {"s": ["Qmlhc0FkZA==", "UmVsdQ=="]}}}}, {"name": "BiseNetV2/semantic_branch/stage_5/ge_block_2_repeat_2/gather_expansion_block/stride_equal_one_module/depthwise_conv_block/depthwise_conv_output", "op": "FusedDepthwiseConv2dNative", "input": ["BiseNetV2/semantic_branch/stage_5/ge_block_2_repeat_2/gather_expansion_block/stride_equal_one_module/3x3_conv_block/relu", "BiseNetV2/semantic_branch/stage_5/ge_block_2_repeat_2/gather_expansion_block/stride_equal_one_module/depthwise_conv_block/depthwise_conv_output_weights", "BiseNetV2/semantic_branch/stage_5/ge_block_2_repeat_2/gather_expansion_block/stride_equal_one_module/depthwise_conv_block/depthwise_conv_output_bn_offset"], "attr": {"dilations": {"list": {"i": ["1", "1", "1", "1"]}}, "T": {"type": "DT_FLOAT"}, "strides": {"list": {"i": ["1", "1", "1", "1"]}}, "data_format": {"s": "TkhXQw=="}, "explicit_paddings": {"list": {}}, "num_args": {"i": "1"}, "padding": {"s": "U0FNRQ=="}, "fused_ops": {"list": {"s": ["Qmlhc0FkZA=="]}}}}, {"name": "BiseNetV2/semantic_branch/stage_5/ge_block_2_repeat_2/gather_expansion_block/stride_equal_one_module/1x1_conv_block/bn/FusedBatchNormV3", "op": "_FusedConv2D", "input": ["BiseNetV2/semantic_branch/stage_5/ge_block_2_repeat_2/gather_expansion_block/stride_equal_one_module/depthwise_conv_block/depthwise_conv_output", "BiseNetV2/semantic_branch/stage_5/ge_block_2_repeat_2/gather_expansion_block/stride_equal_one_module/1x1_conv_block/conv/Conv2D_weights", "BiseNetV2/semantic_branch/stage_5/ge_block_2_repeat_2/gather_expansion_block/stride_equal_one_module/1x1_conv_block/conv/Conv2D_bn_offset"], "device": "/device:CPU:0", "attr": {"dilations": {"list": {"i": ["1", "1", "1", "1"]}}, "T": {"type": "DT_FLOAT"}, "strides": {"list": {"i": ["1", "1", "1", "1"]}}, "data_format": {"s": "TkhXQw=="}, "explicit_paddings": {"list": {}}, "use_cudnn_on_gpu": {"b": true}, "num_args": {"i": "1"}, "epsilon": {"f": 0.0}, "padding": {"s": "U0FNRQ=="}, "fused_ops": {"list": {"s": ["Qmlhc0FkZA=="]}}}}, {"name": "BiseNetV2/semantic_branch/stage_5/ge_block_2_repeat_2/gather_expansion_block/stride_equal_one_module/fused_features", "op": "Add", "input": ["BiseNetV2/semantic_branch/stage_5/ge_block_2_repeat_1/gather_expansion_block/stride_equal_one_module/ge_output", "BiseNetV2/semantic_branch/stage_5/ge_block_2_repeat_2/gather_expansion_block/stride_equal_one_module/1x1_conv_block/bn/FusedBatchNormV3"], "attr": {"T": {"type": "DT_FLOAT"}}}, {"name": "BiseNetV2/semantic_branch/stage_5/ge_block_2_repeat_2/gather_expansion_block/stride_equal_one_module/ge_output", "op": "Relu", "input": ["BiseNetV2/semantic_branch/stage_5/ge_block_2_repeat_2/gather_expansion_block/stride_equal_one_module/fused_features"], "attr": {"T": {"type": "DT_FLOAT"}}}, {"name": "BiseNetV2/semantic_branch/stage_5/ge_block_2_repeat_3/gather_expansion_block/stride_equal_one_module/3x3_conv_block/relu", "op": "_FusedConv2D", "input": ["BiseNetV2/semantic_branch/stage_5/ge_block_2_repeat_2/gather_expansion_block/stride_equal_one_module/ge_output", "BiseNetV2/semantic_branch/stage_5/ge_block_2_repeat_3/gather_expansion_block/stride_equal_one_module/3x3_conv_block/conv/Conv2D_weights", "BiseNetV2/semantic_branch/stage_5/ge_block_2_repeat_3/gather_expansion_block/stride_equal_one_module/3x3_conv_block/conv/Conv2D_bn_offset"], "device": "/device:CPU:0", "attr": {"dilations": {"list": {"i": ["1", "1", "1", "1"]}}, "T": {"type": "DT_FLOAT"}, "strides": {"list": {"i": ["1", "1", "1", "1"]}}, "data_format": {"s": "TkhXQw=="}, "use_cudnn_on_gpu": {"b": true}, "explicit_paddings": {"list": {}}, "num_args": {"i": "1"}, "epsilon": {"f": 0.0}, "padding": {"s": "U0FNRQ=="}, "fused_ops": {"list": {"s": ["Qmlhc0FkZA==", "UmVsdQ=="]}}}}, {"name": "BiseNetV2/semantic_branch/stage_5/ge_block_2_repeat_3/gather_expansion_block/stride_equal_one_module/depthwise_conv_block/depthwise_conv_output", "op": "FusedDepthwiseConv2dNative", "input": ["BiseNetV2/semantic_branch/stage_5/ge_block_2_repeat_3/gather_expansion_block/stride_equal_one_module/3x3_conv_block/relu", "BiseNetV2/semantic_branch/stage_5/ge_block_2_repeat_3/gather_expansion_block/stride_equal_one_module/depthwise_conv_block/depthwise_conv_output_weights", "BiseNetV2/semantic_branch/stage_5/ge_block_2_repeat_3/gather_expansion_block/stride_equal_one_module/depthwise_conv_block/depthwise_conv_output_bn_offset"], "attr": {"padding": {"s": "U0FNRQ=="}, "fused_ops": {"list": {"s": ["Qmlhc0FkZA=="]}}, "dilations": {"list": {"i": ["1", "1", "1", "1"]}}, "T": {"type": "DT_FLOAT"}, "data_format": {"s": "TkhXQw=="}, "strides": {"list": {"i": ["1", "1", "1", "1"]}}, "explicit_paddings": {"list": {}}, "num_args": {"i": "1"}}}, {"name": "BiseNetV2/semantic_branch/stage_5/ge_block_2_repeat_3/gather_expansion_block/stride_equal_one_module/1x1_conv_block/bn/FusedBatchNormV3", "op": "_FusedConv2D", "input": ["BiseNetV2/semantic_branch/stage_5/ge_block_2_repeat_3/gather_expansion_block/stride_equal_one_module/depthwise_conv_block/depthwise_conv_output", "BiseNetV2/semantic_branch/stage_5/ge_block_2_repeat_3/gather_expansion_block/stride_equal_one_module/1x1_conv_block/conv/Conv2D_weights", "BiseNetV2/semantic_branch/stage_5/ge_block_2_repeat_3/gather_expansion_block/stride_equal_one_module/1x1_conv_block/conv/Conv2D_bn_offset"], "device": "/device:CPU:0", "attr": {"T": {"type": "DT_FLOAT"}, "strides": {"list": {"i": ["1", "1", "1", "1"]}}, "data_format": {"s": "TkhXQw=="}, "use_cudnn_on_gpu": {"b": true}, "explicit_paddings": {"list": {}}, "num_args": {"i": "1"}, "epsilon": {"f": 0.0}, "padding": {"s": "U0FNRQ=="}, "fused_ops": {"list": {"s": ["Qmlhc0FkZA=="]}}, "dilations": {"list": {"i": ["1", "1", "1", "1"]}}}}, {"name": "BiseNetV2/semantic_branch/stage_5/ge_block_2_repeat_3/gather_expansion_block/stride_equal_one_module/fused_features", "op": "Add", "input": ["BiseNetV2/semantic_branch/stage_5/ge_block_2_repeat_2/gather_expansion_block/stride_equal_one_module/ge_output", "BiseNetV2/semantic_branch/stage_5/ge_block_2_repeat_3/gather_expansion_block/stride_equal_one_module/1x1_conv_block/bn/FusedBatchNormV3"], "attr": {"T": {"type": "DT_FLOAT"}}}, {"name": "BiseNetV2/semantic_branch/stage_5/ge_block_2_repeat_3/gather_expansion_block/stride_equal_one_module/ge_output", "op": "Relu", "input": ["BiseNetV2/semantic_branch/stage_5/ge_block_2_repeat_3/gather_expansion_block/stride_equal_one_module/fused_features"], "attr": {"T": {"type": "DT_FLOAT"}}}, {"name": "BiseNetV2/semantic_branch/stage_5/ce_block_3_repeat_1/context_embedding_block/global_avg_pooling", "op": "Mean", "input": ["BiseNetV2/semantic_branch/stage_5/ge_block_2_repeat_3/gather_expansion_block/stride_equal_one_module/ge_output", "BiseNetV2/semantic_branch/stage_5/ce_block_3_repeat_1/context_embedding_block/global_avg_pooling/reduction_indices"], "attr": {"Tidx": {"type": "DT_INT32"}, "keep_dims": {"b": true}, "T": {"type": "DT_FLOAT"}}}, {"name": "BiseNetV2/semantic_branch/stage_5/ce_block_3_repeat_1/context_embedding_block/bn/FusedBatchNormV3/Mul", "op": "Mul", "input": ["BiseNetV2/semantic_branch/stage_5/ce_block_3_repeat_1/context_embedding_block/global_avg_pooling", "BiseNetV2/semantic_branch/stage_5/ce_block_3_repeat_1/context_embedding_block/bn/FusedBatchNormV3/Scaled"], "attr": {"T": {"type": "DT_FLOAT"}}}, {"name": "BiseNetV2/semantic_branch/stage_5/ce_block_3_repeat_1/context_embedding_block/bn/FusedBatchNormV3", "op": "Add", "input": ["BiseNetV2/semantic_branch/stage_5/ce_block_3_repeat_1/context_embedding_block/bn/FusedBatchNormV3/Mul", "BiseNetV2/semantic_branch/stage_5/ce_block_3_repeat_1/context_embedding_block/bn/FusedBatchNormV3/Offset"], "attr": {"T": {"type": "DT_FLOAT"}}}, {"name": "BiseNetV2/semantic_branch/stage_5/ce_block_3_repeat_1/context_embedding_block/conv_block_1/relu", "op": "_FusedConv2D", "input": ["BiseNetV2/semantic_branch/stage_5/ce_block_3_repeat_1/context_embedding_block/bn/FusedBatchNormV3", "BiseNetV2/semantic_branch/stage_5/ce_block_3_repeat_1/context_embedding_block/conv_block_1/conv/Conv2D_weights", "BiseNetV2/semantic_branch/stage_5/ce_block_3_repeat_1/context_embedding_block/conv_block_1/conv/Conv2D_bn_offset"], "device": "/device:CPU:0", "attr": {"num_args": {"i": "1"}, "epsilon": {"f": 0.0}, "padding": {"s": "U0FNRQ=="}, "fused_ops": {"list": {"s": ["Qmlhc0FkZA==", "UmVsdQ=="]}}, "dilations": {"list": {"i": ["1", "1", "1", "1"]}}, "T": {"type": "DT_FLOAT"}, "strides": {"list": {"i": ["1", "1", "1", "1"]}}, "data_format": {"s": "TkhXQw=="}, "explicit_paddings": {"list": {}}, "use_cudnn_on_gpu": {"b": true}}}, {"name": "BiseNetV2/semantic_branch/stage_5/ce_block_3_repeat_1/context_embedding_block/fused_features", "op": "Add", "input": ["BiseNetV2/semantic_branch/stage_5/ce_block_3_repeat_1/context_embedding_block/conv_block_1/relu", "BiseNetV2/semantic_branch/stage_5/ge_block_2_repeat_3/gather_expansion_block/stride_equal_one_module/ge_output"], "attr": {"T": {"type": "DT_FLOAT"}}}, {"name": "BiseNetV2/semantic_branch/stage_5/ce_block_3_repeat_1/context_embedding_block/final_conv_block/Conv2D", "op": "Conv2D", "input": ["BiseNetV2/semantic_branch/stage_5/ce_block_3_repeat_1/context_embedding_block/fused_features", "BiseNetV2/semantic_branch/stage_5/ce_block_3_repeat_1/context_embedding_block/final_conv_block/W"], "device": "/device:CPU:0", "attr": {"padding": {"s": "U0FNRQ=="}, "dilations": {"list": {"i": ["1", "1", "1", "1"]}}, "T": {"type": "DT_FLOAT"}, "strides": {"list": {"i": ["1", "1", "1", "1"]}}, "data_format": {"s": "TkhXQw=="}, "explicit_paddings": {"list": {}}, "use_cudnn_on_gpu": {"b": true}}}, {"name": "BiseNetV2/aggregation_branch/guided_aggregation_block/semantic_branch/3x3_conv_block/bn/FusedBatchNormV3", "op": "_FusedConv2D", "input": ["BiseNetV2/semantic_branch/stage_5/ce_block_3_repeat_1/context_embedding_block/final_conv_block/Conv2D", "BiseNetV2/aggregation_branch/guided_aggregation_block/semantic_branch/3x3_conv_block/conv/Conv2D_weights", "BiseNetV2/aggregation_branch/guided_aggregation_block/semantic_branch/3x3_conv_block/conv/Conv2D_bn_offset"], "device": "/device:CPU:0", "attr": {"num_args": {"i": "1"}, "epsilon": {"f": 0.0}, "padding": {"s": "U0FNRQ=="}, "fused_ops": {"list": {"s": ["Qmlhc0FkZA=="]}}, "dilations": {"list": {"i": ["1", "1", "1", "1"]}}, "T": {"type": "DT_FLOAT"}, "data_format": {"s": "TkhXQw=="}, "strides": {"list": {"i": ["1", "1", "1", "1"]}}, "use_cudnn_on_gpu": {"b": true}, "explicit_paddings": {"list": {}}}}, {"name": "BiseNetV2/aggregation_branch/guided_aggregation_block/semantic_branch/3x3_dw_conv_block/depthwise_conv_output", "op": "FusedDepthwiseConv2dNative", "input": ["BiseNetV2/semantic_branch/stage_5/ce_block_3_repeat_1/context_embedding_block/final_conv_block/Conv2D", "BiseNetV2/aggregation_branch/guided_aggregation_block/semantic_branch/3x3_dw_conv_block/depthwise_conv_output_weights", "BiseNetV2/aggregation_branch/guided_aggregation_block/semantic_branch/3x3_dw_conv_block/depthwise_conv_output_bn_offset"], "attr": {"dilations": {"list": {"i": ["1", "1", "1", "1"]}}, "T": {"type": "DT_FLOAT"}, "data_format": {"s": "TkhXQw=="}, "strides": {"list": {"i": ["1", "1", "1", "1"]}}, "explicit_paddings": {"list": {}}, "num_args": {"i": "1"}, "padding": {"s": "U0FNRQ=="}, "fused_ops": {"list": {"s": ["Qmlhc0FkZA=="]}}}}, {"name": "BiseNetV2/aggregation_branch/guided_aggregation_block/semantic_branch/semantic_upsample_features", "op": "ResizeBilinear", "input": ["BiseNetV2/aggregation_branch/guided_aggregation_block/semantic_branch/3x3_conv_block/bn/FusedBatchNormV3", "BiseNetV2/aggregation_branch/guided_aggregation_block/semantic_branch/semantic_upsample_features/size"], "attr": {"align_corners": {"b": false}, "half_pixel_centers": {"b": false}, "T": {"type": "DT_FLOAT"}}}, {"name": "BiseNetV2/aggregation_branch/guided_aggregation_block/semantic_branch/semantic_upsample_sigmoid", "op": "Sigmoid", "input": ["BiseNetV2/aggregation_branch/guided_aggregation_block/semantic_branch/semantic_upsample_features"], "attr": {"T": {"type": "DT_FLOAT"}}}, {"name": "BiseNetV2/aggregation_branch/guided_aggregation_block/semantic_branch/1x1_conv_block/Conv2D", "op": "Conv2D", "input": ["BiseNetV2/aggregation_branch/guided_aggregation_block/semantic_branch/3x3_dw_conv_block/depthwise_conv_output", "BiseNetV2/aggregation_branch/guided_aggregation_block/semantic_branch/1x1_conv_block/W"], "device": "/device:CPU:0", "attr": {"T": {"type": "DT_FLOAT"}, "strides": {"list": {"i": ["1", "1", "1", "1"]}}, "data_format": {"s": "TkhXQw=="}, "explicit_paddings": {"list": {}}, "use_cudnn_on_gpu": {"b": true}, "padding": {"s": "U0FNRQ=="}, "dilations": {"list": {"i": ["1", "1", "1", "1"]}}}}, {"name": "BiseNetV2/aggregation_branch/guided_aggregation_block/aggregation_features/guided_detail_features", "op": "Mul", "input": ["BiseNetV2/aggregation_branch/guided_aggregation_block/detail_branch/1x1_conv_block/Conv2D", "BiseNetV2/aggregation_branch/guided_aggregation_block/semantic_branch/semantic_upsample_sigmoid"], "attr": {"T": {"type": "DT_FLOAT"}}}, {"name": "BiseNetV2/aggregation_branch/guided_aggregation_block/semantic_branch/semantic_remain_sigmoid", "op": "Sigmoid", "input": ["BiseNetV2/aggregation_branch/guided_aggregation_block/semantic_branch/1x1_conv_block/Conv2D"], "attr": {"T": {"type": "DT_FLOAT"}}}, {"name": "BiseNetV2/aggregation_branch/guided_aggregation_block/aggregation_features/guided_semantic_features", "op": "Mul", "input": ["BiseNetV2/aggregation_branch/guided_aggregation_block/detail_branch/avg_pooling_block", "BiseNetV2/aggregation_branch/guided_aggregation_block/semantic_branch/semantic_remain_sigmoid"], "attr": {"T": {"type": "DT_FLOAT"}}}, {"name": "BiseNetV2/aggregation_branch/guided_aggregation_block/aggregation_features/guided_upsample_features", "op": "ResizeBilinear", "input": ["BiseNetV2/aggregation_branch/guided_aggregation_block/aggregation_features/guided_semantic_features", "BiseNetV2/aggregation_branch/guided_aggregation_block/aggregation_features/guided_upsample_features/size"], "attr": {"T": {"type": "DT_FLOAT"}, "align_corners": {"b": false}, "half_pixel_centers": {"b": false}}}, {"name": "BiseNetV2/aggregation_branch/guided_aggregation_block/aggregation_features/fused_features", "op": "Add", "input": ["BiseNetV2/aggregation_branch/guided_aggregation_block/aggregation_features/guided_detail_features", "BiseNetV2/aggregation_branch/guided_aggregation_block/aggregation_features/guided_upsample_features"], "attr": {"T": {"type": "DT_FLOAT"}}}, {"name": "BiseNetV2/aggregation_branch/guided_aggregation_block/aggregation_features/aggregation_feature_output/relu", "op": "_FusedConv2D", "input": ["BiseNetV2/aggregation_branch/guided_aggregation_block/aggregation_features/fused_features", "BiseNetV2/aggregation_branch/guided_aggregation_block/aggregation_features/aggregation_feature_output/conv/Conv2D_weights", "BiseNetV2/aggregation_branch/guided_aggregation_block/aggregation_features/aggregation_feature_output/conv/Conv2D_bn_offset"], "device": "/device:CPU:0", "attr": {"dilations": {"list": {"i": ["1", "1", "1", "1"]}}, "T": {"type": "DT_FLOAT"}, "strides": {"list": {"i": ["1", "1", "1", "1"]}}, "data_format": {"s": "TkhXQw=="}, "use_cudnn_on_gpu": {"b": true}, "explicit_paddings": {"list": {}}, "num_args": {"i": "1"}, "epsilon": {"f": 0.0}, "padding": {"s": "U0FNRQ=="}, "fused_ops": {"list": {"s": ["Qmlhc0FkZA==", "UmVsdQ=="]}}}}, {"name": "BiseNetV2/logits/3x3_conv_block/relu", "op": "_FusedConv2D", "input": ["BiseNetV2/aggregation_branch/guided_aggregation_block/aggregation_features/aggregation_feature_output/relu", "BiseNetV2/logits/3x3_conv_block/conv/Conv2D_weights", "BiseNetV2/logits/3x3_conv_block/conv/Conv2D_bn_offset"], "device": "/device:CPU:0", "attr": {"T": {"type": "DT_FLOAT"}, "strides": {"list": {"i": ["1", "1", "1", "1"]}}, "data_format": {"s": "TkhXQw=="}, "explicit_paddings": {"list": {}}, "use_cudnn_on_gpu": {"b": true}, "num_args": {"i": "1"}, "epsilon": {"f": 0.0}, "padding": {"s": "U0FNRQ=="}, "fused_ops": {"list": {"s": ["Qmlhc0FkZA==", "UmVsdQ=="]}}, "dilations": {"list": {"i": ["1", "1", "1", "1"]}}}}, {"name": "BiseNetV2/logits/1x1_conv_block/Conv2D", "op": "Conv2D", "input": ["BiseNetV2/logits/3x3_conv_block/relu", "BiseNetV2/logits/1x1_conv_block/W"], "device": "/device:CPU:0", "attr": {"dilations": {"list": {"i": ["1", "1", "1", "1"]}}, "T": {"type": "DT_FLOAT"}, "strides": {"list": {"i": ["1", "1", "1", "1"]}}, "data_format": {"s": "TkhXQw=="}, "use_cudnn_on_gpu": {"b": true}, "explicit_paddings": {"list": {}}, "padding": {"s": "U0FNRQ=="}}}, {"name": "BiseNetV2/logits/segmentation_head_logits", "op": "ResizeBilinear", "input": ["BiseNetV2/logits/1x1_conv_block/Conv2D", "BiseNetV2/logits/segmentation_head_logits/size"], "attr": {"align_corners": {"b": false}, "half_pixel_centers": {"b": false}, "T": {"type": "DT_FLOAT"}}}, {"name": "BiseNetV2/prob", "op": "Softmax", "input": ["BiseNetV2/logits/segmentation_head_logits"], "attr": {"T": {"type": "DT_FLOAT"}}}, {"name": "BiseNetV2/prediction", "op": "ArgMax", "input": ["BiseNetV2/prob", "BiseNetV2/prediction/dimension"], "attr": {"T": {"type": "DT_FLOAT"}, "output_type": {"type": "DT_INT64"}, "Tidx": {"type": "DT_INT32"}}}, {"name": "final_output", "op": "Squeeze", "input": ["BiseNetV2/prediction"], "attr": {"squeeze_dims": {"list": {"i": ["0"]}}, "T": {"type": "DT_INT64"}}}], "library": {}, "versions": {"producer": 440}}, "weightsManifest": [{"paths": ["group1-shard1of3.bin", "group1-shard2of3.bin", "group1-shard3of3.bin"], "weights": [{"name": "BiseNetV2/aggregation_branch/guided_aggregation_block/detail_branch/1x1_conv_block/W", "shape": [1, 1, 128, 128], "dtype": "float32"}, {"name": "BiseNetV2/aggregation_branch/guided_aggregation_block/semantic_branch/semantic_upsample_features/size", "shape": [2], "dtype": "int32"}, {"name": "BiseNetV2/semantic_branch/stage_5/ce_block_3_repeat_1/context_embedding_block/global_avg_pooling/reduction_indices", "shape": [2], "dtype": "int32"}, {"name": "BiseNetV2/semantic_branch/stage_1/se_block_1_repeat_1/stem_block/concate_features/axis", "shape": [], "dtype": "int32"}, {"name": "BiseNetV2/semantic_branch/stage_5/ce_block_3_repeat_1/context_embedding_block/final_conv_block/W", "shape": [3, 3, 128, 128], "dtype": "float32"}, {"name": "BiseNetV2/aggregation_branch/guided_aggregation_block/semantic_branch/1x1_conv_block/W", "shape": [1, 1, 128, 128], "dtype": "float32"}, {"name": "BiseNetV2/aggregation_branch/guided_aggregation_block/aggregation_features/guided_upsample_features/size", "shape": [2], "dtype": "int32"}, {"name": "BiseNetV2/logits/1x1_conv_block/W", "shape": [1, 1, 256, 19], "dtype": "float32"}, {"name": "BiseNetV2/logits/segmentation_head_logits/size", "shape": [2], "dtype": "int32"}, {"name": "BiseNetV2/prediction/dimension", "shape": [], "dtype": "int32"}, {"name": "BiseNetV2/detail_branch/stage_1/conv_block_1_repeat_1/3x3_conv/conv/Conv2D_weights", "shape": [3, 3, 3, 64], "dtype": "float32"}, {"name": "BiseNetV2/detail_branch/stage_1/conv_block_1_repeat_1/3x3_conv/conv/Conv2D_bn_offset", "shape": [64], "dtype": "float32"}, {"name": "BiseNetV2/semantic_branch/stage_5/ge_block_2_repeat_3/gather_expansion_block/stride_equal_one_module/depthwise_conv_block/depthwise_conv_output_weights", "shape": [3, 3, 128, 6], "dtype": "float32"}, {"name": "BiseNetV2/semantic_branch/stage_1/se_block_1_repeat_1/stem_block/conv_block_1/conv/Conv2D_weights", "shape": [3, 3, 3, 16], "dtype": "float32"}, {"name": "BiseNetV2/semantic_branch/stage_1/se_block_1_repeat_1/stem_block/conv_block_1/conv/Conv2D_bn_offset", "shape": [16], "dtype": "float32"}, {"name": "BiseNetV2/semantic_branch/stage_5/ge_block_2_repeat_3/gather_expansion_block/stride_equal_one_module/depthwise_conv_block/depthwise_conv_output_bn_offset", "shape": [768], "dtype": "float32"}, {"name": "BiseNetV2/detail_branch/stage_1/conv_block_2_repeat_1/3x3_conv/conv/Conv2D_weights", "shape": [3, 3, 64, 64], "dtype": "float32"}, {"name": "BiseNetV2/detail_branch/stage_1/conv_block_2_repeat_1/3x3_conv/conv/Conv2D_bn_offset", "shape": [64], "dtype": "float32"}, {"name": "BiseNetV2/semantic_branch/stage_5/ge_block_2_repeat_3/gather_expansion_block/stride_equal_one_module/1x1_conv_block/conv/Conv2D_weights", "shape": [1, 1, 768, 128], "dtype": "float32"}, {"name": "BiseNetV2/semantic_branch/stage_1/se_block_1_repeat_1/stem_block/downsample_branch_left/1x1_conv_block/conv/Conv2D_weights", "shape": [1, 1, 16, 8], "dtype": "float32"}, {"name": "BiseNetV2/semantic_branch/stage_1/se_block_1_repeat_1/stem_block/downsample_branch_left/1x1_conv_block/conv/Conv2D_bn_offset", "shape": [8], "dtype": "float32"}, {"name": "BiseNetV2/semantic_branch/stage_5/ge_block_2_repeat_3/gather_expansion_block/stride_equal_one_module/1x1_conv_block/conv/Conv2D_bn_offset", "shape": [128], "dtype": "float32"}, {"name": "BiseNetV2/detail_branch/stage_2/conv_block_1_repeat_1/3x3_conv/conv/Conv2D_weights", "shape": [3, 3, 64, 64], "dtype": "float32"}, {"name": "BiseNetV2/detail_branch/stage_2/conv_block_1_repeat_1/3x3_conv/conv/Conv2D_bn_offset", "shape": [64], "dtype": "float32"}, {"name": "BiseNetV2/semantic_branch/stage_1/se_block_1_repeat_1/stem_block/downsample_branch_left/3x3_conv_block/conv/Conv2D_weights", "shape": [3, 3, 8, 16], "dtype": "float32"}, {"name": "BiseNetV2/semantic_branch/stage_1/se_block_1_repeat_1/stem_block/downsample_branch_left/3x3_conv_block/conv/Conv2D_bn_offset", "shape": [16], "dtype": "float32"}, {"name": "BiseNetV2/detail_branch/stage_2/conv_block_2_repeat_1/3x3_conv/conv/Conv2D_weights", "shape": [3, 3, 64, 64], "dtype": "float32"}, {"name": "BiseNetV2/detail_branch/stage_2/conv_block_2_repeat_1/3x3_conv/conv/Conv2D_bn_offset", "shape": [64], "dtype": "float32"}, {"name": "BiseNetV2/semantic_branch/stage_5/ce_block_3_repeat_1/context_embedding_block/conv_block_1/conv/Conv2D_weights", "shape": [1, 1, 128, 128], "dtype": "float32"}, {"name": "BiseNetV2/semantic_branch/stage_1/se_block_1_repeat_1/stem_block/final_conv_block/conv/Conv2D_weights", "shape": [3, 3, 32, 16], "dtype": "float32"}, {"name": "BiseNetV2/semantic_branch/stage_1/se_block_1_repeat_1/stem_block/final_conv_block/conv/Conv2D_bn_offset", "shape": [16], "dtype": "float32"}, {"name": "BiseNetV2/semantic_branch/stage_5/ce_block_3_repeat_1/context_embedding_block/conv_block_1/conv/Conv2D_bn_offset", "shape": [128], "dtype": "float32"}, {"name": "BiseNetV2/detail_branch/stage_2/conv_block_2_repeat_2/3x3_conv/conv/Conv2D_weights", "shape": [3, 3, 64, 64], "dtype": "float32"}, {"name": "BiseNetV2/detail_branch/stage_2/conv_block_2_repeat_2/3x3_conv/conv/Conv2D_bn_offset", "shape": [64], "dtype": "float32"}, {"name": "BiseNetV2/semantic_branch/stage_3/ge_block_1_repeat_1/gather_expansion_block/stride_equal_two_module/input_project_dw_conv_block/depthwise_conv_output_weights", "shape": [3, 3, 16, 1], "dtype": "float32"}, {"name": "BiseNetV2/semantic_branch/stage_3/ge_block_1_repeat_1/gather_expansion_block/stride_equal_two_module/input_project_dw_conv_block/depthwise_conv_output_bn_offset", "shape": [16], "dtype": "float32"}, {"name": "BiseNetV2/semantic_branch/stage_3/ge_block_1_repeat_1/gather_expansion_block/stride_equal_two_module/3x3_conv_block/conv/Conv2D_weights", "shape": [3, 3, 16, 16], "dtype": "float32"}, {"name": "BiseNetV2/semantic_branch/stage_3/ge_block_1_repeat_1/gather_expansion_block/stride_equal_two_module/3x3_conv_block/conv/Conv2D_bn_offset", "shape": [16], "dtype": "float32"}, {"name": "BiseNetV2/detail_branch/stage_3/conv_block_1_repeat_1/3x3_conv/conv/Conv2D_weights", "shape": [3, 3, 64, 128], "dtype": "float32"}, {"name": "BiseNetV2/aggregation_branch/guided_aggregation_block/semantic_branch/3x3_conv_block/conv/Conv2D_weights", "shape": [3, 3, 128, 128], "dtype": "float32"}, {"name": "BiseNetV2/detail_branch/stage_3/conv_block_1_repeat_1/3x3_conv/conv/Conv2D_bn_offset", "shape": [128], "dtype": "float32"}, {"name": "BiseNetV2/semantic_branch/stage_3/ge_block_1_repeat_1/gather_expansion_block/stride_equal_two_module/input_project_1x1_conv_block/conv/Conv2D_weights", "shape": [1, 1, 16, 32], "dtype": "float32"}, {"name": "BiseNetV2/aggregation_branch/guided_aggregation_block/semantic_branch/3x3_conv_block/conv/Conv2D_bn_offset", "shape": [128], "dtype": "float32"}, {"name": "BiseNetV2/semantic_branch/stage_3/ge_block_1_repeat_1/gather_expansion_block/stride_equal_two_module/input_project_1x1_conv_block/conv/Conv2D_bn_offset", "shape": [32], "dtype": "float32"}, {"name": "BiseNetV2/semantic_branch/stage_3/ge_block_1_repeat_1/gather_expansion_block/stride_equal_two_module/depthwise_conv_block_1/depthwise_conv_output_weights", "shape": [3, 3, 16, 6], "dtype": "float32"}, {"name": "BiseNetV2/semantic_branch/stage_3/ge_block_1_repeat_1/gather_expansion_block/stride_equal_two_module/depthwise_conv_block_1/depthwise_conv_output_bn_offset", "shape": [96], "dtype": "float32"}, {"name": "BiseNetV2/detail_branch/stage_3/conv_block_2_repeat_1/3x3_conv/conv/Conv2D_weights", "shape": [3, 3, 128, 128], "dtype": "float32"}, {"name": "BiseNetV2/detail_branch/stage_3/conv_block_2_repeat_1/3x3_conv/conv/Conv2D_bn_offset", "shape": [128], "dtype": "float32"}, {"name": "BiseNetV2/semantic_branch/stage_3/ge_block_1_repeat_1/gather_expansion_block/stride_equal_two_module/depthwise_conv_block_2/depthwise_conv_output_weights", "shape": [3, 3, 96, 1], "dtype": "float32"}, {"name": "BiseNetV2/semantic_branch/stage_3/ge_block_1_repeat_1/gather_expansion_block/stride_equal_two_module/depthwise_conv_block_2/depthwise_conv_output_bn_offset", "shape": [96], "dtype": "float32"}, {"name": "BiseNetV2/semantic_branch/stage_3/ge_block_1_repeat_1/gather_expansion_block/stride_equal_two_module/1x1_conv_block/conv/Conv2D_weights", "shape": [1, 1, 96, 32], "dtype": "float32"}, {"name": "BiseNetV2/semantic_branch/stage_3/ge_block_1_repeat_1/gather_expansion_block/stride_equal_two_module/1x1_conv_block/conv/Conv2D_bn_offset", "shape": [32], "dtype": "float32"}, {"name": "BiseNetV2/detail_branch/stage_3/conv_block_2_repeat_2/3x3_conv/conv/Conv2D_weights", "shape": [3, 3, 128, 128], "dtype": "float32"}, {"name": "BiseNetV2/detail_branch/stage_3/conv_block_2_repeat_2/3x3_conv/conv/Conv2D_bn_offset", "shape": [128], "dtype": "float32"}, {"name": "BiseNetV2/aggregation_branch/guided_aggregation_block/detail_branch/3x3_dw_conv_block/depthwise_conv_output_weights", "shape": [3, 3, 128, 1], "dtype": "float32"}, {"name": "BiseNetV2/aggregation_branch/guided_aggregation_block/detail_branch/3x3_dw_conv_block/depthwise_conv_output_bn_offset", "shape": [128], "dtype": "float32"}, {"name": "BiseNetV2/aggregation_branch/guided_aggregation_block/detail_branch/3x3_conv_block/conv/Conv2D_weights", "shape": [3, 3, 128, 128], "dtype": "float32"}, {"name": "BiseNetV2/aggregation_branch/guided_aggregation_block/semantic_branch/3x3_dw_conv_block/depthwise_conv_output_weights", "shape": [3, 3, 128, 1], "dtype": "float32"}, {"name": "BiseNetV2/aggregation_branch/guided_aggregation_block/detail_branch/3x3_conv_block/conv/Conv2D_bn_offset", "shape": [128], "dtype": "float32"}, {"name": "BiseNetV2/semantic_branch/stage_3/ge_block_2_repeat_1/gather_expansion_block/stride_equal_one_module/3x3_conv_block/conv/Conv2D_weights", "shape": [3, 3, 32, 32], "dtype": "float32"}, {"name": "BiseNetV2/semantic_branch/stage_3/ge_block_2_repeat_1/gather_expansion_block/stride_equal_one_module/3x3_conv_block/conv/Conv2D_bn_offset", "shape": [32], "dtype": "float32"}, {"name": "BiseNetV2/aggregation_branch/guided_aggregation_block/semantic_branch/3x3_dw_conv_block/depthwise_conv_output_bn_offset", "shape": [128], "dtype": "float32"}, {"name": "BiseNetV2/semantic_branch/stage_3/ge_block_2_repeat_1/gather_expansion_block/stride_equal_one_module/depthwise_conv_block/depthwise_conv_output_weights", "shape": [3, 3, 32, 6], "dtype": "float32"}, {"name": "BiseNetV2/semantic_branch/stage_3/ge_block_2_repeat_1/gather_expansion_block/stride_equal_one_module/depthwise_conv_block/depthwise_conv_output_bn_offset", "shape": [192], "dtype": "float32"}, {"name": "BiseNetV2/semantic_branch/stage_3/ge_block_2_repeat_1/gather_expansion_block/stride_equal_one_module/1x1_conv_block/conv/Conv2D_weights", "shape": [1, 1, 192, 32], "dtype": "float32"}, {"name": "BiseNetV2/semantic_branch/stage_3/ge_block_2_repeat_1/gather_expansion_block/stride_equal_one_module/1x1_conv_block/conv/Conv2D_bn_offset", "shape": [32], "dtype": "float32"}, {"name": "BiseNetV2/semantic_branch/stage_4/ge_block_1_repeat_1/gather_expansion_block/stride_equal_two_module/input_project_dw_conv_block/depthwise_conv_output_weights", "shape": [3, 3, 32, 1], "dtype": "float32"}, {"name": "BiseNetV2/semantic_branch/stage_4/ge_block_1_repeat_1/gather_expansion_block/stride_equal_two_module/input_project_dw_conv_block/depthwise_conv_output_bn_offset", "shape": [32], "dtype": "float32"}, {"name": "BiseNetV2/semantic_branch/stage_4/ge_block_1_repeat_1/gather_expansion_block/stride_equal_two_module/3x3_conv_block/conv/Conv2D_weights", "shape": [3, 3, 32, 32], "dtype": "float32"}, {"name": "BiseNetV2/semantic_branch/stage_4/ge_block_1_repeat_1/gather_expansion_block/stride_equal_two_module/3x3_conv_block/conv/Conv2D_bn_offset", "shape": [32], "dtype": "float32"}, {"name": "BiseNetV2/semantic_branch/stage_4/ge_block_1_repeat_1/gather_expansion_block/stride_equal_two_module/input_project_1x1_conv_block/conv/Conv2D_weights", "shape": [1, 1, 32, 64], "dtype": "float32"}, {"name": "BiseNetV2/semantic_branch/stage_4/ge_block_1_repeat_1/gather_expansion_block/stride_equal_two_module/input_project_1x1_conv_block/conv/Conv2D_bn_offset", "shape": [64], "dtype": "float32"}, {"name": "BiseNetV2/semantic_branch/stage_4/ge_block_1_repeat_1/gather_expansion_block/stride_equal_two_module/depthwise_conv_block_1/depthwise_conv_output_weights", "shape": [3, 3, 32, 6], "dtype": "float32"}, {"name": "BiseNetV2/semantic_branch/stage_4/ge_block_1_repeat_1/gather_expansion_block/stride_equal_two_module/depthwise_conv_block_1/depthwise_conv_output_bn_offset", "shape": [192], "dtype": "float32"}, {"name": "BiseNetV2/semantic_branch/stage_4/ge_block_1_repeat_1/gather_expansion_block/stride_equal_two_module/depthwise_conv_block_2/depthwise_conv_output_weights", "shape": [3, 3, 192, 1], "dtype": "float32"}, {"name": "BiseNetV2/semantic_branch/stage_4/ge_block_1_repeat_1/gather_expansion_block/stride_equal_two_module/depthwise_conv_block_2/depthwise_conv_output_bn_offset", "shape": [192], "dtype": "float32"}, {"name": "BiseNetV2/semantic_branch/stage_4/ge_block_1_repeat_1/gather_expansion_block/stride_equal_two_module/1x1_conv_block/conv/Conv2D_weights", "shape": [1, 1, 192, 64], "dtype": "float32"}, {"name": "BiseNetV2/semantic_branch/stage_4/ge_block_1_repeat_1/gather_expansion_block/stride_equal_two_module/1x1_conv_block/conv/Conv2D_bn_offset", "shape": [64], "dtype": "float32"}, {"name": "BiseNetV2/semantic_branch/stage_4/ge_block_2_repeat_1/gather_expansion_block/stride_equal_one_module/3x3_conv_block/conv/Conv2D_weights", "shape": [3, 3, 64, 64], "dtype": "float32"}, {"name": "BiseNetV2/semantic_branch/stage_4/ge_block_2_repeat_1/gather_expansion_block/stride_equal_one_module/3x3_conv_block/conv/Conv2D_bn_offset", "shape": [64], "dtype": "float32"}, {"name": "BiseNetV2/aggregation_branch/guided_aggregation_block/aggregation_features/aggregation_feature_output/conv/Conv2D_weights", "shape": [3, 3, 128, 128], "dtype": "float32"}, {"name": "BiseNetV2/semantic_branch/stage_4/ge_block_2_repeat_1/gather_expansion_block/stride_equal_one_module/depthwise_conv_block/depthwise_conv_output_weights", "shape": [3, 3, 64, 6], "dtype": "float32"}, {"name": "BiseNetV2/semantic_branch/stage_4/ge_block_2_repeat_1/gather_expansion_block/stride_equal_one_module/depthwise_conv_block/depthwise_conv_output_bn_offset", "shape": [384], "dtype": "float32"}, {"name": "BiseNetV2/semantic_branch/stage_4/ge_block_2_repeat_1/gather_expansion_block/stride_equal_one_module/1x1_conv_block/conv/Conv2D_weights", "shape": [1, 1, 384, 64], "dtype": "float32"}, {"name": "BiseNetV2/semantic_branch/stage_5/ce_block_3_repeat_1/context_embedding_block/bn/FusedBatchNormV3/Scaled", "shape": [128], "dtype": "float32"}, {"name": "BiseNetV2/semantic_branch/stage_4/ge_block_2_repeat_1/gather_expansion_block/stride_equal_one_module/1x1_conv_block/conv/Conv2D_bn_offset", "shape": [64], "dtype": "float32"}, {"name": "BiseNetV2/semantic_branch/stage_5/ge_block_1_repeat_1/gather_expansion_block/stride_equal_two_module/input_project_dw_conv_block/depthwise_conv_output_weights", "shape": [3, 3, 64, 1], "dtype": "float32"}, {"name": "BiseNetV2/semantic_branch/stage_5/ge_block_1_repeat_1/gather_expansion_block/stride_equal_two_module/input_project_dw_conv_block/depthwise_conv_output_bn_offset", "shape": [64], "dtype": "float32"}, {"name": "BiseNetV2/semantic_branch/stage_5/ge_block_1_repeat_1/gather_expansion_block/stride_equal_two_module/3x3_conv_block/conv/Conv2D_weights", "shape": [3, 3, 64, 64], "dtype": "float32"}, {"name": "BiseNetV2/aggregation_branch/guided_aggregation_block/aggregation_features/aggregation_feature_output/conv/Conv2D_bn_offset", "shape": [128], "dtype": "float32"}, {"name": "BiseNetV2/semantic_branch/stage_5/ge_block_1_repeat_1/gather_expansion_block/stride_equal_two_module/3x3_conv_block/conv/Conv2D_bn_offset", "shape": [64], "dtype": "float32"}, {"name": "BiseNetV2/semantic_branch/stage_5/ge_block_1_repeat_1/gather_expansion_block/stride_equal_two_module/input_project_1x1_conv_block/conv/Conv2D_weights", "shape": [1, 1, 64, 128], "dtype": "float32"}, {"name": "BiseNetV2/semantic_branch/stage_5/ge_block_1_repeat_1/gather_expansion_block/stride_equal_two_module/input_project_1x1_conv_block/conv/Conv2D_bn_offset", "shape": [128], "dtype": "float32"}, {"name": "BiseNetV2/semantic_branch/stage_5/ge_block_1_repeat_1/gather_expansion_block/stride_equal_two_module/depthwise_conv_block_1/depthwise_conv_output_weights", "shape": [3, 3, 64, 6], "dtype": "float32"}, {"name": "BiseNetV2/semantic_branch/stage_5/ge_block_1_repeat_1/gather_expansion_block/stride_equal_two_module/depthwise_conv_block_1/depthwise_conv_output_bn_offset", "shape": [384], "dtype": "float32"}, {"name": "BiseNetV2/semantic_branch/stage_5/ge_block_1_repeat_1/gather_expansion_block/stride_equal_two_module/depthwise_conv_block_2/depthwise_conv_output_weights", "shape": [3, 3, 384, 1], "dtype": "float32"}, {"name": "BiseNetV2/semantic_branch/stage_5/ge_block_1_repeat_1/gather_expansion_block/stride_equal_two_module/depthwise_conv_block_2/depthwise_conv_output_bn_offset", "shape": [384], "dtype": "float32"}, {"name": "BiseNetV2/semantic_branch/stage_5/ge_block_1_repeat_1/gather_expansion_block/stride_equal_two_module/1x1_conv_block/conv/Conv2D_weights", "shape": [1, 1, 384, 128], "dtype": "float32"}, {"name": "BiseNetV2/logits/3x3_conv_block/conv/Conv2D_weights", "shape": [3, 3, 128, 256], "dtype": "float32"}, {"name": "BiseNetV2/semantic_branch/stage_5/ge_block_1_repeat_1/gather_expansion_block/stride_equal_two_module/1x1_conv_block/conv/Conv2D_bn_offset", "shape": [128], "dtype": "float32"}, {"name": "BiseNetV2/semantic_branch/stage_5/ge_block_2_repeat_1/gather_expansion_block/stride_equal_one_module/3x3_conv_block/conv/Conv2D_weights", "shape": [3, 3, 128, 128], "dtype": "float32"}, {"name": "BiseNetV2/semantic_branch/stage_5/ge_block_2_repeat_1/gather_expansion_block/stride_equal_one_module/3x3_conv_block/conv/Conv2D_bn_offset", "shape": [128], "dtype": "float32"}, {"name": "BiseNetV2/logits/3x3_conv_block/conv/Conv2D_bn_offset", "shape": [256], "dtype": "float32"}, {"name": "BiseNetV2/semantic_branch/stage_5/ge_block_2_repeat_1/gather_expansion_block/stride_equal_one_module/depthwise_conv_block/depthwise_conv_output_weights", "shape": [3, 3, 128, 6], "dtype": "float32"}, {"name": "BiseNetV2/semantic_branch/stage_5/ge_block_2_repeat_1/gather_expansion_block/stride_equal_one_module/depthwise_conv_block/depthwise_conv_output_bn_offset", "shape": [768], "dtype": "float32"}, {"name": "BiseNetV2/semantic_branch/stage_5/ge_block_2_repeat_1/gather_expansion_block/stride_equal_one_module/1x1_conv_block/conv/Conv2D_weights", "shape": [1, 1, 768, 128], "dtype": "float32"}, {"name": "BiseNetV2/semantic_branch/stage_5/ce_block_3_repeat_1/context_embedding_block/bn/FusedBatchNormV3/Offset", "shape": [128], "dtype": "float32"}, {"name": "BiseNetV2/semantic_branch/stage_5/ge_block_2_repeat_1/gather_expansion_block/stride_equal_one_module/1x1_conv_block/conv/Conv2D_bn_offset", "shape": [128], "dtype": "float32"}, {"name": "BiseNetV2/semantic_branch/stage_5/ge_block_2_repeat_2/gather_expansion_block/stride_equal_one_module/3x3_conv_block/conv/Conv2D_weights", "shape": [3, 3, 128, 128], "dtype": "float32"}, {"name": "BiseNetV2/semantic_branch/stage_5/ge_block_2_repeat_2/gather_expansion_block/stride_equal_one_module/3x3_conv_block/conv/Conv2D_bn_offset", "shape": [128], "dtype": "float32"}, {"name": "BiseNetV2/semantic_branch/stage_5/ge_block_2_repeat_2/gather_expansion_block/stride_equal_one_module/depthwise_conv_block/depthwise_conv_output_weights", "shape": [3, 3, 128, 6], "dtype": "float32"}, {"name": "BiseNetV2/semantic_branch/stage_5/ge_block_2_repeat_2/gather_expansion_block/stride_equal_one_module/depthwise_conv_block/depthwise_conv_output_bn_offset", "shape": [768], "dtype": "float32"}, {"name": "BiseNetV2/semantic_branch/stage_5/ge_block_2_repeat_2/gather_expansion_block/stride_equal_one_module/1x1_conv_block/conv/Conv2D_weights", "shape": [1, 1, 768, 128], "dtype": "float32"}, {"name": "BiseNetV2/semantic_branch/stage_5/ge_block_2_repeat_2/gather_expansion_block/stride_equal_one_module/1x1_conv_block/conv/Conv2D_bn_offset", "shape": [128], "dtype": "float32"}, {"name": "BiseNetV2/semantic_branch/stage_5/ge_block_2_repeat_3/gather_expansion_block/stride_equal_one_module/3x3_conv_block/conv/Conv2D_weights", "shape": [3, 3, 128, 128], "dtype": "float32"}, {"name": "BiseNetV2/semantic_branch/stage_5/ge_block_2_repeat_3/gather_expansion_block/stride_equal_one_module/3x3_conv_block/conv/Conv2D_bn_offset", "shape": [128], "dtype": "float32"}]}]}